rep_theory/1L_MLP_dihedral_cached/model.pt (torch, 535071 bytes, 4 tensors)

W_E_a f4 [106, 256]
0.15164223 0.16770041 -0.21723731 -0.2645551 -0.1094992 0.16598955 -0.13488865 -0.290401
0.081410095 -0.08687624 -0.23770057 -0.06779667 0.1999795 -0.27428758 -0.24306062 0.012672624
-0.029233037 0.14664114 0.014087412 -0.054028742 0.10392076 0.26125777 0.22939904 0.18084721
-0.18687102 0.1163448 -0.14046757 0.1863235 -0.10502177 -0.36998436 -0.16256125 -0.26059395
-0.14225069 -0.19902834 -0.08441807 0.025783496 0.019768307 0.30386233 0.26556852 -0.08893715
-0.21144667 -0.10208677 0.1115299 -0.26341957 0.32633916 -0.06332189 -0.2003629 -0.049047805
-0.14580074 -0.17865276 0.010443997 -0.1884476 -0.22752404 0.121620126 -0.086822696 0.20651859
0.21757013 -0.20984562 -0.16592394 -0.0671194 0.055673663 -0.19718812 0.32668987 -0.19344285
-0.2566199 -0.24467307 -0.40441546 0.1424513 0.2200542 -0.0001622689 0.20824537 0.26836717
0.13591251 -0.07176467 -0.10105582 -0.23230629 -0.19638476 -0.11061322 -0.12465561 0.17064628
0.16311301 0.3134398 0.21182564 0.054491274 0.011690147 0.11872114 0.008325397 -0.18937542
-0.08253071 0.09608878 -0.037852567 0.15309387 0.09668883 0.07854253 0.11599615 -0.23134926
0.10784957 0.145358 0.12716237 0.17524019 -0.04330203 0.23206338 -0.23510984 -0.042476248
-0.10053789 -0.0036891245 0.024954561 -0.12056279 0.054038245 0.3530041 0.057421755 0.09107139
0.08386078 0.23566377 0.27478838 -0.008240404 -0.19176736 0.10565895 0.017938724 0.24093223
0.18916143 -0.35426405 0.061455436 0.031286843 -0.03325222 0.25245634 -0.19025774 -0.08938814
0.25632817 -0.2038682 -0.16683954 -0.33608496 -0.1738646 0.15232337 0.18810415 0.27537054
-0.1565147 0.301096 0.21517336 -0.1619825 0.0882067 0.073006816 -0.09267306 -0.32049462
0.111609645 -0.16165236 0.23586994 0.01255919 0.09705836 0.021955417 -0.068592094 -0.23624985
0.20591426 0.2244074 -0.24084216 -0.03979595 0.16816245 -0.19910005 -0.1661238 0.14737238
-0.14056851 0.2045316 0.044717975 -0.03521595 0.12233576 -0.04348779 -0.27419427 -0.10331582
0.030426916 0.13889503 -0.050704468 0.12524796 0.18246299 0.15416563 -0.020700714 0.10091226
-0.024629647 -0.20866908 0.046112493 0.105997756 -0.29352808 0.21227537 0.32848155 -0.29984638
0.26121932 -0.111521274 0.25713205 0.17000629 0.19400193 0.06410353 -0.21485123 0.08407482
0.27810952 -0.025173578 0.088580616 0.1332988 -0.15771818 0.15999298 -0.04120119 0.19604461
-0.20032535 -0.01522989 -0.2530031 -0.0023977512 0.15192631 -0.15970586 0.24907157 0.09940781
-0.26724103 -0.098785736 -0.11854295 0.07972855 0.1851247 -0.12996545 -0.18641372 -0.080746435
0.24690387 0.07754089 0.13488759 -0.053549644 0.2545286 -0.18662614 0.17437193 -0.15232533
0.19059184 -0.09670256 0.3224294 -0.022172054 -0.16712864 -0.05598264 0.25213945 0.26283455
-0.20081913 -0.21121141 -0.3209832 0.09062876 0.16052562 -0.044994257 0.12250538 -0.19292475
-0.13836864 0.19563738 -0.15427561 -0.082400545 0.067201234 0.019537037 0.2769504 0.003373676
-0.0551251 0.02880749 0.20483215 0.143048 0.2049678 0.17594244 0.13802077 -0.22751737
00000000: 1a48 1b3e a8b9 2b3e 7573 5ebe c473 87be
00000010: 1e41 e0bd 2af9 293e 4020 0abe 71af 94be
00000020: 56ba a63d 2cec b1bd c767 73be fbd8 8abd
00000030: 6dc7 4c3e 6c6f 8cbe e2e4 78be d6a0 4f3c
00000040: 1f7a efbc 1829 163e e3ce 663c 3e4d 5dbd
00000050: 68d4 d43d 94c3 853e 95e7 6a3e 0330 393e
00000060: 1e5b 3fbe 2f46 ee3d bbd6 0fbe 96cb 3e3e
00000070: a715 d7bd 976e bdbe 7576 26be 926c 85be
00000080: 2aaa 11be 16ce 4bbe 62e3 acbd e937 d33c
00000090: 25f1 a13c d893 9b3e 99f8 873e ae24 b6bd
000000a0: 7a85 58be de12 d1bd ca69 e43d eede 86be
000000b0: ed15 a73e e8ae 81bd ef2b 4dbe 5ae6 48bd
000000c0: ca4c 15be c0f0 36be 4c1d 2b3c 68f8 40be
000000d0: 10fc 68be f913 f93d 19d0 b1bd 9c79 533e
000000e0: b4ca 5e3e c5e1 56be f7e7 29be e575 89bd
000000f0: 110a 643d afeb 49be e543 a73e e215 46be
00000100: af63 83be 948b 7abe 8b0f cfbe c1de 113e
00000110: e355 613e ba26 2ab9 463e 553e 6c67 893e
00000120: a62c 0b3e 5bf9 92bd 5bf6 cebd b3e1 6dbe
00000130: 1619 49be 2f89 e2bd 714b ffbd e6bd 2e3e
00000140: 1907 273e 2e7b a03e d2e8 583e 3e32 5f3d
00000150: 0888 3f3c 1224 f33d 3f67 083c a1eb 41be
00000160: dc05 a9bd 32ca c43d 4b0b 1bbd a4c4 1c3e
00000170: cb04 c63d e8da a03d 648f ed3d d2e6 6cbe
00000180: 3ce0 dc3d bad8 143e da36 023e 2a72 333e
00000190: 785d 31bd 06a2 6d3e a2c0 70be 93fb 2dbd
000001a0: cfe6 cdbd 3dc5 71bb 826d cc3c a0e9 f6bd
000001b0: 3557 5d3d f4bc b43e 1333 6b3d a383 ba3d
000001c0: 33bf ab3d d851 713e 10b1 8c3e c202 07bc
000001d0: aa5e 44be b863 d83d 3bf4 923c f0b6 763e
000001e0: 89b3 413e 1962 b5be b2b8 7b3d a226 003d
000001f0: 7b33 08bd f541 813e edd2 42be 2111 b7bd
00000200: 723d 833e d3c2 50be fcd7 2abe 5413 acbe
00000210: 9009 32be a8fa 1b3e 609e 403e 5efd 8c3e
00000220: 6445 20be 4129 9a3e 6856 5c3e bede 25be
00000230: b7a5 b43d 9984 953d 60cb bdbd df17 a4be
00000240: 9993 e43d 3288 25be e487 713e 10c5 4d3c
00000250: 89c6 c63d d9db b33c 037a 8cbd 7beb 71be
00000260: 30db 523e 0ecb 653e 549f 76be 1401 23bd
00000270: c732 2c3e e2e0 4bbe 5c1c 2abe c9e8 163e
00000280: 31f1 0fbe bb70 513e 322a 373d 9a3e 10bd
00000290: 2c8b fa3d 4120 32bd 3163 8cbe 3f97 d3bd
000002a0: de41 f93c 803a 0e3e 7daf 4fbd 0041 003e
000002b0: 94d7 3a3e 98dd 1d3e 8b94 a9bc 16ab ce3d
000002c0: 1dc4 c9bc 59ad 55be 74e0 3c3d 5a15 d93d
000002d0: 5049 96be b75e 593e bc2e a83e 7785 99be
000002e0: 8abe 853e 4465 e4bd d0a6 833e 2116 2e3e
000002f0: 71a8 463e b648 833d f601 5cbe 6b2f ac3d
00000300: 5f64 8e3e d238 cebc c169 b53d 7b7f 083e
00000310: e080 21be 33d5 233e 94c2 28bd ebbf 483e
00000320: 1722 4dbe ca86 79bc 9f89 81be 9723 1dbb
00000330: 9292 1b3e ef89 23be 9e0c 7f3e 5296 cb3d
00000340: d1d3 88be 2d50 cabd a5c6 f2bd b948 a33d
00000350: 5491 3d3e aa15 05be 3de3 3ebe 635e a5bd
00000360: 5ed4 7c3e c2cd 9e3d f91f 0a3e df56 5bbd
00000370: 9351 823e ec1a 3fbe 8e8e 323e 2cfb 1bbe
00000380: 822a 433e fe0b c6bd 7715 a53e 2ba2 b5bc
00000390: c523 2bbe 0d4e 65bd 6c18 813e 4092 863e
000003a0: 88a3 4dbe ce47 58be e957 a4be 929b b93d
000003b0: d460 243e e64b 38bd 1ae4 fa3d 118e 45be
000003c0: 82b0 0dbe 2a55 483e 6dfa 1dbe 9ec1 a8bd
000003d0: cda0 893d 230c a03c 71cc 8d3e e418 5d3b
000003e0: dbca 61bd affd eb3c 85bf 513e 2d7b 123e
000003f0: 14e3 513e 412a 343e 5155 0d3e 50fa 68be

W_E_b f4 [106, 256]
-0.15677376 0.3410057 0.23631388 -0.2396957 0.036434468 -0.041978803 -0.025959382 -0.37832323
-0.09050822 -0.10313629 -0.06511513 -0.13175838 -0.024049424 0.20847373 -0.01355182 -0.103629194
0.013771363 0.13620637 -0.3614787 0.16130929 -0.012274597 -0.076875485 -0.22790037 0.18202469
0.14196198 -0.009591951 -0.13534375 0.20526204 0.2913154 0.13327241 -0.17907542 0.16252631
-0.22385263 0.12157416 0.10862282 -0.41486722 -0.26207212 0.12254743 -0.11717421 0.13121328
0.18775386 -0.16858383 -0.29881015 0.20490313 -0.010465313 0.2358298 -0.064844884 0.106869
-0.14744392 -0.12287201 0.04622812 0.25784287 -0.24807376 0.31330216 0.08323894 0.09997375
0.053117123 -0.1948661 0.21854477 -0.31091216 0.21162994 0.081720546 -0.3240049 0.19098876
0.107524306 -0.21163844 0.17068791 -0.15136053 0.05768383 0.0025949094 0.03824781 -0.23643206
-0.07971812 -0.08451828 0.007832318 0.11015931 0.2962609 0.15808384 -0.025087953 0.1439382
0.2757742 -0.17985994 0.2706981 0.118289396 0.13389778 -0.022408638 -0.2441499 0.17032878
0.280061 0.17844385 -0.11392767 0.26542002 -0.13353479 0.074512616 0.26590562 -0.0018235098
0.2869998 -0.25566435 0.19200039 0.12015481 -0.13782139 -0.014948143 0.1839982 -0.27409038
-0.13677613 0.1507528 -0.09523431 -0.292552 0.03782577 0.10840915 -0.19110946 0.2474619
0.21735057 -0.2985678 -0.1301953 0.12618567 -0.24280845 -0.10346242 -0.197168 -0.15252846
-0.06242459 0.19852552 -0.15800121 0.07406531 -0.13413298 -0.10170325 0.18485972 0.109309636
-0.16289912 -0.11996046 -0.07798729 -0.22936076 -0.21140203 0.006383776 -0.21797614 0.0989261
-0.035197686 -0.18590578 0.06909143 -0.17588705 0.19085392 -0.29743358 -0.1722001 0.15680109
-0.07034017 0.04375079 0.054266535 -0.10180578 -0.17965153 -0.12265516 0.045964167 0.2935819
0.03482916 -0.35189083 0.21001968 0.27780497 -0.21931316 -0.35764703 0.011177649 -0.24074748
-0.1800906 -0.07201652 -0.07631118 -0.21263325 0.23896867 0.005639987 0.15514503 -0.1827277
0.16540994 0.040454105 0.0023109862 -0.21038972 0.15284798 0.11972141 0.16976912 -0.14722928
-0.21408562 0.13235223 0.12428648 0.23771438 -0.1630581 0.07679563 0.28034607 -0.30491143
0.08813194 -0.075030215 -0.096065 -0.030027946 0.28830248 0.16386849 0.0766991 0.21260394
0.16673744 0.114645846 0.007479662 0.13344304 -0.1665813 -0.19913803 0.14663403 -0.3770086
0.15514368 0.12833859 0.22143349 0.0690174 -0.29628137 -0.34770525 0.20012274 0.13899684
-0.17721063 0.17987096 -0.21471831 -0.10121056 0.2735732 0.08172825 0.0145471515 -0.1657296
0.17355755 0.16959873 0.15618427 0.0402874 0.14509717 -0.03675589 -0.26889426 0.052755732
0.21716113 0.033427548 0.16175796 -0.079174034 -0.17814445 -0.07922977 -0.23225252 -0.10211257
-0.11404263 -0.054659918 0.21594837 -0.17481326 -0.045883715 -0.15965666 -0.0641074 0.24301763
0.36625347 -0.1389164 0.112823024 -0.20986831 0.3470045 0.20024116 0.12379919 0.20084171
0.04016146 0.09543479 0.12149629 0.19685161 -0.23604807 0.087155364 -0.008057465 -0.4023238
00000000: 4d89 20be 4d98 ae3e 44fc 713e ca72 75be
00000010: 4f3c 153d f7f1 2bbd c5a8 d4bc 95b3 c1be
00000020: 605c b9bd 1f39 d3bd 155b 85bd abeb 06be
00000030: 4c03 c5bc 237a 553e 7408 5ebc 8b3b d4bd
00000040: 48a1 613c af79 0b3e bc13 b9be 432e 253e
00000050: 641b 49bc e570 9dbd b75e 69be ae64 3a3e
00000060: 7b5e 113e 8f27 1dbc 8d97 0abe 3630 523e
00000070: 4b27 953e 9078 083e 8c5f 37be 4c6d 263e
00000080: a039 65be e0fb f83d a475 de3d 7a69 d4be
00000090: 512e 86be 26fa fa3d 08f9 efbd c65c 063e
000000a0: 8c42 403e 3da1 2cbe a5fd 98be 20d2 513e
000000b0: b476 2bbc 5e7d 713e 65cd 84bd 22de da3d
000000c0: 8afb 16be 52a4 fbbd b259 3d3d fb03 843e
000000d0: 0c07 7ebe 2469 a03e 2d79 aa3d 0abf cc3d
000000e0: 5791 593d fb8a 47be 33ca 5f3e e12f 9fbe
000000f0: 85b5 583e 1a5d a73d f8e3 a5be 8f92 433e
00000100: b435 dc3d bfb7 58be d0c8 2e3e 41fe 1abe
00000110: e145 6c3d 5b0f 2a3b bca9 1c3d 3f1b 72be
00000120: 4143 a3bd ec17 adbd 1f53 003c 349b e13d
00000130: 82af 973e bbe0 213e 4085 cdbc 8964 133e
00000140: 4732 8d3e 342d 38be f198 8a3e b641 f23d
00000150: 801c 093e 5292 b7bc 6e02 7abe ab6a 2e3e
00000160: 2864 8f3e fcb9 363e e952 e9bd 22e5 873e
00000170: 58bd 08be 129a 983d c824 883e d602 efba
00000180: a3f1 923e 70e6 82be c09b 443e ba13 f63d
00000190: 0d21 0dbe 0ee9 74bc 066a 3c3e 9355 8cbe
000001a0: 0b0f 0cbe f15e 1a3e 350a c3bd 60c9 95be
000001b0: 32ef 1a3d 9e05 de3d 33b2 43be a766 7d3e
000001c0: 2691 5e3e e1dd 98be eb51 05be d136 013e
000001d0: c7a2 78be 1be4 d3bd 68e6 49be 6c30 1cbe
000001e0: edb0 7fbd 464a 4b3e 12cb 21be 8eaf 973d
000001f0: 285a 09be cb49 d0bd de4b 3d3e bbdd df3d
00000200: 07cf 26be d4ad f5bd cdb7 9fbd 8cdd 6abe
00000210: c679 58be ff2e d13b 2335 5fbe c499 ca3d
00000220: 732b 10bd 165e 3ebe cf7f 8d3d bc1b 34be
00000230: 366f 433e 3749 98be 3955 30be 7790 203e
00000240: 820e 90bd 0734 333d 9646 5e3d 8c7f d0bd
00000250: 92f6 37be a132 fbbd ec44 3c3d 5e50 963e
00000260: 05a9 0e3d 092b b4be 660f 573e 743c 8e3e
00000270: a193 60be 831d b7be 7522 373c 8286 76be
00000280: ac69 38be 667d 93bd 0949 9cbd 88bc 59be
00000290: 34b4 743e a4cf b83b 57de 1e3e f81c 3bbe
000002a0: 3961 293e 34b3 253d ea73 173b 6770 57be
000002b0: 2e84 1c3e 8030 f53d f5d7 2d3e 46c3 16be
000002c0: 4339 5bbe 5887 073e e989 fe3d 666b 733e
000002d0: b4f8 26be 0747 9d3d 8589 8f3e 5a1d 9cbe
000002e0: 857e b43d 71a9 99bd babd c4bd 2bfd f5bc
000002f0: 629c 933e 24cd 273e 6b14 9d3d d9b4 593e
00000300: 38bd 2a3e 71cb ea3d f417 f53b 4ba5 083e
00000310: 4a94 2abe d7ea 4bbe 3b27 163e 4507 c1be
00000320: fcdd 1e3e 316b 033e 76bf 623e ff58 8d3d
00000330: 31b2 97be 6c06 b2be faec 4c3e 3055 0e3e
00000340: b476 35be 1830 383e 1edf 5bbe 7b47 cfbd
00000350: c911 8c3e 2461 a73d 2d57 6e3c 05b5 29be
00000360: 12b9 313e 4aab 2d3e c5ee 1f3e 6704 253d
00000370: 5a94 143e 588d 16bd 82ac 89be 6516 583d
00000380: 7d5f 5e3e 53eb 083d e1a3 253e ff25 a2bd
00000390: 806b 36be 3843 a2bd 9bd3 6dbe 6520 d1bd
000003a0: 2f8f e9bd 14e3 5fbd 9221 5d3e 3f02 33be
000003b0: 90f0 3bbd 097d 23be be4a 83bd 9dd9 783e
000003c0: 9385 bb3e 1a40 0ebe c20f e73d b8e7 56be
000003d0: 93aa b13e 050c 4d3e 6e8a fd3d 73a9 4d3e
000003e0: 5880 243d 5173 c33d 0cd3 f83d 7893 493e
000003f0: 96b6 71be 837e b23d 7503 04bc 63fd cdbe

W f4 [512, 128]
0.17663504 -0.14177874 1.8054548e-05 -0.080483615 0.13972138 0.21890484 -0.14286052 -0.17736134
-0.24551216 0.2731955 0.18805148 -0.19004066 -0.19442753 0.20165144 0.08877904 -0.20056608
-0.24204385 -0.046929628 -0.13842213 0.19588049 1.0831225e-11 -0.17472734 0.2160076 -0.19727121
-0.12967566 0.1519221 -0.078944564 -0.2332061 0.13372587 -0.17149594 4.0452782e-05 -0.15141343
0.21733832 -0.18452263 -0.22624756 -0.05503087 5.6663315e-17 -0.12657115 -0.21027029 0.21938007
0.24675381 0.22623004 -0.18997067 -0.19815974 -0.1408096 -9.639214e-21 0.12142798 0.03893445
0.22661184 -0.239813 -0.22082953 0.23448119 0.10778942 -0.24932991 -0.20450896 0.18072946
0.15218782 -0.23111048 -0.22076252 0.22215922 -0.17873359 0.14617442 0.15377785 -0.218111
0.20989662 0.00033007347 0.17734303 -0.13106954 -0.1707361 0.22582687 -0.14608818 -0.13911916
-0.18961641 -0.16203432 -0.1496917 0.08879029 0.1928082 -0.06755464 -2.471509e-13 0.22489324
0.1590574 -0.18157217 -0.22691731 0.23478208 -0.1847402 0.18846159 0.20478152 0.098975316
0.10548364 0.21244963 6.415369e-17 -0.13841908 0.24266322 -0.00060247246 -0.0004529307 0.1968489
0.18431723 -0.05502861 3.034954e-25 -5.057765e-07 0.19166113 0.016186276 -0.17574027 4.2771644e-11
0.10018395 9.1670636e-09 0.008423341 0.02076651 -0.09598773 -0.124773555 0.04908989 6.0050223e-09
-0.17671236 0.18960747 0.17291322 0.13311201 -0.1404278 0.2335991 0.2349077 -0.14155371
0.11570261 0.23262276 -0.004186347 0.24864613 -0.1715566 0.051231645 -0.2309938 0.1417318
-0.17166524 -0.010613541 1.3371326e-05 -0.28729707 -0.25287962 -0.00038965326 -0.11700355 -0.040567223
0.13489175 0.19897155 0.059540577 -0.18823294 -0.14192893 -0.2150824 0.112094514 -0.19669676
-0.14655967 0.019956023 0.122113355 0.20303458 1.0078057e-11 0.1300261 -0.20657392 -0.16975608
-0.19518995 -0.11595228 -0.27207008 -0.14244288 -0.22654946 0.22539704 -2.5938198e-05 -0.18470965
-0.196553 -0.13051295 -0.13783808 0.18802132 5.5671565e-17 0.24034838 -0.14855547 0.11213968
0.20711933 -0.03294768 -0.118707225 -0.20308289 -0.19870962 3.5825774e-21 -0.16086906 0.22712283
0.17222232 -0.20647441 -0.121844485 0.20960607 0.1576935 0.07355177 -0.17523168 0.18524502
0.22475922 0.23064192 -0.0704297 0.20533328 -0.0061609424 -0.16742906 -0.092720896 -0.24166515
-0.023023516 0.0003404344 -0.15275206 0.26433203 0.17147203 -0.044841707 -0.18356471 -0.15943313
-0.21056157 -0.17578222 0.2075516 0.11210379 0.19685923 -0.100782275 4.951362e-14 -0.13536286
-0.16906385 0.19460092 0.19437383 -0.057996992 -0.21197866 0.20032099 0.18463875 0.2741131
0.011561121 0.21525116 6.289838e-17 0.12211084 0.19027553 -0.0004266699 -0.0057132007 -0.20239948
0.22598544 0.18802057 2.3041523e-25 -7.516377e-07 0.08989527 0.123263195 -0.1648224 6.97472e-11
0.106762365 1.46208965e-08 0.0044651753 -0.009485465 -0.22511585 -0.023528066 0.22325318 7.872399e-09
-0.15472223 0.2747434 -0.15411091 -0.25615492 -0.12723498 0.16813251 0.20914875 -0.29498854
0.20750041 0.11276444 0.27479908 0.21669959 0.13283338 0.24747808 -0.20683242 0.14043444
00000000: d1df 343e 722e 11be d973 9737 98d4 a4bd
00000010: 1f13 0f3e 9728 603e 074a 12be 369e 35be
00000020: 8a67 7bbe 48e0 8b3e 9190 403e 059a 42be
00000030: 0318 47be b77d 4e3e c9d1 b53d 3261 4dbe
00000040: 58da 77be 4839 40bd 88be 0dbe e594 483e
00000050: 808b 3e2d b9eb 32be 1931 5d3e 7701 4abe
00000060: b2c9 04be 7891 1b3e b0ad a1bd 94cd 6ebe
00000070: 6fef 083e a29c 2fbe d8ab 2938 1f0c 1bbe
00000080: f08d 5e3e 80f3 3cbe 71ad 67be 0d68 61bd
00000090: 1ea8 8224 de9b 01be 1851 57be 2ba5 603e
000000a0: 08ad 7c3e d9a8 673e ac87 42be 63ea 4abe
000000b0: 6430 10be 6114 369e 3caf f83d bb79 1f3d
000000c0: ef0c 683e 8a91 75be 2321 62be d61b 703e
000000d0: b3c0 dc3d 5750 7fbe cc6a 51be 2511 393e
000000e0: 20d7 1b3e 3aa8 6cbe 920f 62be b57d 633e
000000f0: f005 37be bfae 153e f177 1d3e 7d58 5fbe
00000100: 24ef 563e b60d ad39 6999 353e 1837 06be
00000110: 72d5 2ebe 293f 673e 2498 15be 4175 0ebe
00000120: ce2a 42be 53ec 25be c848 19be afd7 b53d
00000130: 836f 453e 165a 8abd 3322 8baa 6a4a 663e
00000140: f1df 223e 0eee 39be 035d 68be b76a 703e
00000150: 892c 3dbe 13fc 403e 3fb2 513e 92b3 ca3d
00000160: cf07 d83d 658c 593e a8ed 9324 bbbd 0dbe
00000170: b57c 783e 3eef 1dba 5477 edb9 c292 493e
00000180: a8bd 3c3e ae65 61bd c4da bb16 b2c4 07b5
00000190: d142 443e 1599 843c 42f5 33be 971c 3c2e
000001a0: 3e2d cd3d 2c7d 1d32 0e02 0a3c 871e aa3c
000001b0: 3795 c4bd 4789 ffbd 7b12 493d bc54 ce31
000001c0: 16f4 34be 7628 423e 2a10 313e 844e 083e
000001d0: 4ecc 0fbe 9a34 6f3e a58b 703e 75f3 10be
000001e0: 7df5 ec3d a934 6e3e a02d 89bb 179d 7e3e
000001f0: 89ac 2fbe 46d8 513d a489 6cbe 2422 113e
00000200: 03c9 2fbe 6be4 2dbc 6855 6037 9a18 93be
00000210: 7079 81be 604a ccb9 8f9f efbd d129 26bd
00000220: 1021 0a3e 33bf 4b3e d2e0 733d 23c0 40be
00000230: d155 11be 903e 5cbe cf91 e53d e06a 49be
00000240: bd13 16be d07a a33c 9116 fa3d 4ce8 4f3e
00000250: 894b 312d 9025 053e 1d88 53be 8ad4 2dbe
00000260: e0df 47be 6478 edbd c54c 8bbe 8cdc 11be
00000270: 95fc 67be 7bce 663e db95 d9b7 8724 3dbe
00000280: 3145 49be 30a5 05be 6d25 0dbe a988 403e
00000290: b15e 8024 e31d 763e ed1e 18be 7da9 e53d
000002a0: 1717 543e 26f4 06bd c61c f3bd f6f4 4fbe
000002b0: 897a 4bbe 9058 871d dcba 24be e392 683e
000002c0: 0c5b 303e 076e 53be 9a89 f9bd f9a2 563e
000002d0: 687a 213e 4fa2 963d ef6f 33be dfb0 3d3e
000002e0: 4827 663e 652d 6c3e 723d 90bd e342 523e
000002f0: bbe1 c9bb 8672 2bbe 74e4 bdbd 1277 77be
00000300: d09b bcbc 557c b239 096b 1cbe 8756 873e
00000310: 5d96 2f3e f0ab 37bd 63f8 3bbe 7042 23be
00000320: 749d 57be 4100 34be 6888 543e ac96 e53d
00000330: 7795 493e f066 cebd 51fd 5e29 909c 0abe
00000340: 131f 2dbe 7745 473e ef09 473e 418e 6dbd
00000350: ef10 59be f220 4d3e f111 3d3e 8d58 8c3e
00000360: db6a 3d3c cd6a 5c3e a608 9124 4015 fa3d
00000370: 97d7 423e aab2 dfb9 cd35 bbbb cf41 4fbe
00000380: ba68 673e 7788 403e c09e 8e16 26c4 49b5
00000390: 031b b83d 6a71 fc3d 34c7 28be 2f60 992e
000003a0: 3aa6 da3d 622f 7b32 9b50 923b ec68 1bbc
000003b0: c584 66be eebd c0bc 7b9c 643e 2d3f 0732
000003c0: 816f 1ebe 2bab 8c3e 40cf 1dbe bd26 83be
000003d0: e349 02be ee2a 2c3e 172b 563e bd08 97be
000003e0: fd7a 543e 0bf1 e63d 77b2 8c3e 7fe6 5d3e
000003f0: 7905 083e e56a 7d3e e1cb 53be 0cce 0f3e

W_U f4 [128, 106]
-0.30446136 0.31791264 -0.5876934 0.31795865 -0.32802603 0.36280605 -0.028382802 0.12879016
0.1728586 -0.085882716 0.28205064 -0.4064264 0.34549636 -0.56823474 0.36912206 -0.26149994
0.26263076 -0.007955853 0.13314702 0.20182902 -0.086012 0.42677978 -0.46418163 0.33298442
-0.49844798 0.37303895 -0.22218975 0.21648443 0.05951461 0.10181066 0.18144421 -0.22208717
0.34545314 -0.538048 0.25319377 -0.46543226 0.38399306 -0.15215741 0.15781552 0.10355223
-0.001108121 0.232885 -0.27087134 0.32971197 -0.58777845 0.33564928 -0.37340218 0.3242351
-0.12403794 0.15013261 0.09220587 -0.013097258 0.27829573 -0.5892141 0.24650997 -0.38445377
0.19059083 -0.03488496 0.2195995 0.14299083 0.014027077 0.26038414 -0.38750482 0.25370127
-0.57928747 0.32343367 -0.285757 0.24980716 0.04845137 0.15056987 0.14550148 -0.094684154
0.2799528 -0.44614887 0.34730566 -0.5547392 0.28621334 -0.19377923 0.25314063 0.06569031
0.18350844 0.23121747 -0.09787463 0.34829995 -0.52898073 0.31788445 -0.49207354 0.27982125
-0.13792099 0.22046478 0.0746134 0.041290995 0.2453766 -0.2659154 0.33672333 -0.56988704
0.37047747 -0.42696276 0.2757913 -0.06699123 0.16803434 0.15931705 0.032363202 0.28414983
-0.29488307 0.35891968 0.3280255 0.3665175 0.09050519 -0.64600956 -0.031902384 0.39909202
0.39973268 -0.36279255 -0.37850082 0.3987112 0.3739415 0.036536805 -0.6305042 0.13193588
0.4034695 0.29911414 -0.44749987 -0.2130862 0.32210612 0.3613935 -0.116139 -0.5299147
0.14374962 0.4059898 0.25916645 -0.60023963 -0.07259958 0.39748493 0.36832452 -0.29419893
-0.4234416 0.35166684 0.37920758 0.12089314 -0.65151316 0.14324477 0.3957796 0.32352057
-0.3588661 -0.27340207 0.333482 0.3925272 -0.058187444 -0.5935126 0.19668715 0.40798157
0.19349721 -0.5150496 -0.18388698 0.38451537 0.31923002 -0.22756758 -0.48691577 -0.38920042
0.35985947 0.4188069 0.092558116 -0.6418547 0.21588224 0.38059974 0.30835822 -0.45026085
-0.2393233 0.37681517 0.36274678 -0.121758014 -0.5711466 0.28275284 0.45330063 0.24783935
-0.58342737 -0.04623582 0.4032552 0.2778351 -0.30451787 -0.4594121 0.35250422 0.40937352
0.13160774 -0.66145873 0.121426955 0.44228408 0.29962096 -0.40649247 -0.3305379 0.3926052
0.30008233 -0.026042769 -0.6516061 0.2780178 0.3572293 0.21172509 -0.52537006 -0.22424173
0.40484148 0.28443944 -0.19637269 -0.48644716 0.3627207 0.39269945 0.14388421 -0.6576062
0.04040558 0.4317392 0.35920355 -0.36949223 -8.5976026e-05 0.00018316852 -0.00024120409 0.00015131652
7.392336e-05 -0.0001582516 0.00015748647 -0.0003095038 0.00013119508 3.498269e-05 -0.00017667729 0.00019066193
-0.00019266477 0.0001105243 0.00015958477 -0.00023639077 0.00020893622 -0.00017279458 0.00013195955 7.465712e-05
-0.0002803064 0.00021719329 -7.6636345e-05 9.6950534e-05 0.00012469006 -0.00039490598 0.00016159617 -2.6813877e-05
5.4934495e-05 0.000112762384 -0.00043190742 0.00022368599 -7.5665344e-06 1.6745858e-05 5.5650045e-05 -0.00039416665
0.00024518545 1.587984e-05 4.256877e-05 0.00013510563 -0.00036326554 0.00015076241 3.4954675e-05 -1.7920294e-05
00000000: 5ce2 9bbe 72c5 a23e 1373 16bf 7acb a23e
00000010: 07f3 a7be b7c1 b93e 0d83 e8bc 91e1 033e
00000020: d801 313e 47e3 afbd f168 903e 1f17 d0be
00000030: e6e4 b03e d577 11bf 91fd bc3e 52e3 85be
00000040: 8a77 863e 4459 02bc b157 083e 44ac 4e3e
00000050: 0f27 b0bd e182 da3e 37a9 edbe ef7c aa3e
00000060: 9334 ffbe f6fe be3e b685 63be 18ae 5d3e
00000070: 97c5 733d 1b82 d03d 83cc 393e d26a 63be
00000080: 3cdf b03e 84bd 09bf 9da2 813e 234d eebe
00000090: bd9a c43e 27cf 1bbe 649a 213e 3113 d43d
000000a0: 5f3e 91ba 6879 6e3e a6af 8abe 02d0 a83e
000000b0: a678 16bf 39da ab3e 922e bfbe 2502 a63e
000000c0: 9a07 febd 5dbc 193e 6ed6 bc3d e295 56bc
000000d0: c77c 8e3e bcd6 16bf 1c6d 7c3e 20d7 c4be
000000e0: 3e2a 433e 88e3 0ebd b1de 603e 306c 123e
000000f0: d3d1 653c 1251 853e 0867 c6be 22e5 813e
00000100: 2f4c 14bf 1999 a53e be4e 92be 73cd 7f3e
00000110: f274 463d fd2e 1a3e 57fe 143e c4e9 c1bd
00000120: f955 8f3e a06d e4be 0cd2 b13e 6303 0ebf
00000130: 8e8a 923e 106e 46be a69b 813e a488 863d
00000140: a3e9 3b3e 46c4 6c3e 7e72 c8bd 5f54 b23e
00000150: 486b 07bf c0c1 a23e 10f1 fbbe bb44 8f3e
00000160: 293b 0dbe 85c1 613e e9ce 983d bf20 293d
00000170: 0144 7b3e 1026 88be 0067 ac3e 1ee4 11bf
00000180: 39af bd3e dd9a dabe 8434 8d3e b332 89bd
00000190: 3211 2c3e 0224 233e 478f 043d 167c 913e
000001a0: eafa 96be 52c4 b73e f5f2 a73e 2fa8 bb3e
000001b0: c95a b93d e260 25bf 13ac 02bd ca55 cc3e
000001c0: c3a9 cc3e f2bf b9be dcca c1be e023 cc3e
000001d0: 4375 bf3e 9ea7 153d b968 21bf 331a 073e
000001e0: 8e93 ce3e 7d25 993e b41e e5be 4533 5abe
000001f0: 18eb a43e 9208 b93e 49da edbd 7da8 07bf
00000200: 1a33 133e e5dd cf3e 77b1 843e 4ea9 19bf
00000210: 17af 94bd 2583 cb3e 0895 bc3e 3ea1 96be
00000220: 56cd d8be ad0d b43e 7f27 c23e d396 f73d
00000230: 91c9 26bf c2ae 123e a0a3 ca3e 7da4 a53e
00000240: 4cbd b7be 5bfb 8bbe 27be aa3e 53f9 c83e
00000250: f555 6ebd 71f0 17bf 5b68 493e f6e2 d03e
00000260: 2224 463e 4ada 03bf de4c 3cbe 33df c43e
00000270: 1e72 a33e 7a07 69be 064d f9be 4745 c7be
00000280: 803f b83e dc6d d63e 1c8f bd3d 9750 24bf
00000290: 3c10 5d3e f8dd c23e 21e1 9d3e 9788 e6be
000002a0: 2b11 75be ebed c03e f2b9 b93e 445c f9bd
000002b0: aa36 12bf fbc4 903e 0517 e83e 99c9 7d3e
000002c0: 7f5b 15bf c561 3dbd 7777 ce3e 6740 8e3e
000002d0: c4e9 9bbe 1038 ebbe 6f7b b43e 6899 d13e
000002e0: 2ec4 063e 5c55 29bf b2ae f83d 0f73 e23e
000002f0: eb67 993e c81f d0be 433c a9be 8c03 c93e
00000300: 64a4 993e a557 d5bc a8cf 26bf 5958 8e3e
00000310: c2e6 b63e 76ce 583e a77e 06bf a09f 65be
00000320: 6247 cf3e 0ca2 913e ec15 49be 9a0f f9be
00000330: 87b6 b93e e70f c93e 6256 133e e158 28bf
00000340: 5280 253d ec0c dd3e 87e9 b73e 162e bdbe
00000350: 074e b4b8 ed10 4039 bbeb 7cb9 b8aa 1e39
00000360: 4d07 9b38 57f0 25b9 f422 2539 e644 a2b9
00000370: 6991 0939 61ba 1238 7342 39b9 6cec 4739
00000380: 0e06 4ab9 48c9 e738 3656 2739 aadf 77b9
00000390: e415 5b39 3130 35b9 9f5e 0a39 3c91 9c38
000003a0: 17f6 92b9 61be 6339 d3b7 a0b8 ec51 cb38
000003b0: 3cbf 0239 620b cfb9 2472 2939 5dee e0b7
000003c0: 7769 6638 d87a ec38 a271 e2b9 408d 6a39
000003d0: 09e4 fdb6 7579 8c37 c869 6938 27a8 ceb9
000003e0: 3c8c 8039 b235 8537 de8b 3238 24ab 0d39
000003f0: ad74 beb9 fa15 1e39 4c9c 1238 8a53 96b7
