rep_theory/batch_experiments/C113_MLP_seed3/model.pt (torch, 552927 bytes, 4 tensors)

W_x f4 [113, 256]
000000 e6 d1 51 3d 62 c6 25 3c f2 88 17 be f1 c4 11 3d
       0.051225565 0.010118099 -0.14798334 0.03558821
000010 1c 15 4f be 59 d5 55 3e 1b cc 92 3d 2b ef 39 3d
       -0.20222896 0.20882167 0.07167836 0.045394104
000020 38 c4 5c 3e 95 5a 0d be 72 70 86 bd 55 bd 19 3e
       0.21559227 -0.13804086 -0.06564416 0.1501363
000030 b8 d1 ea 3d b7 9a 25 3e 67 48 6c be e4 01 b7 bc
       0.11465782 0.161723 -0.23074494 -0.022339769
000040 ba 24 86 bd 3a f6 16 bd 3d 9f 94 be cd 72 5e be
       -0.06549974 -0.036855914 -0.2902774 -0.2172348
000050 3c 17 85 3d 09 72 87 be d2 56 93 bd 0d f4 7b 3e
       0.06498572 -0.2645419 -0.07194294 0.24604817
000060 52 d0 60 3e 22 c0 f5 bd aa 2d 29 3e f7 dd 24 be
       0.21954468 -0.11999537 0.16521326 -0.16100298
000070 67 5d d7 3d c8 3f 86 bd 77 dd c1 3d 9a 0e 9c 3e
       0.10515862 -0.06555134 0.09466069 0.3047989
000080 3c 79 53 3e 77 81 53 be dc 93 6f 3e e7 16 6f 3e
       0.20651716 -0.20654856 0.23396248 0.2334858
000090 f6 51 f5 3c e4 9b 38 3e 2a 18 0c be e6 63 56 3e
       0.029946309 0.18028218 -0.13681093 0.20936546
0000a0 ff 03 58 3e 94 63 c3 bd 9b 47 28 3d fb b4 42 be
       0.21095274 -0.095404774 0.041083913 -0.19014351
0000b0 e5 04 6b be c7 5c 85 3e 5a 0d 0b 3e c4 65 23 3e
       -0.22951086 0.26047346 0.13579312 0.1595679
0000c0 18 e2 c7 3d fc f5 38 3e 83 51 c6 bd 07 68 96 3d
       0.09759921 0.18062586 -0.09683516 0.073440604
0000d0 7e e3 58 be 8c 9c 91 3e b5 d6 46 3e d8 4a 70 3d
       -0.21180531 0.28439748 0.19417842 0.058665127
0000e0 84 e5 94 3e bd 9d 53 3e a2 03 77 3e c3 74 69 3e
       0.29081357 0.20665641 0.2412248 0.22798447
0000f0 66 6b 38 3e 6b 03 3a 3e 5b 84 dd 3d 6a 40 16 bd
       0.18009719 0.18165366 0.108162604 -0.036682524
000100 00 f6 4d be d8 ff 8a be 11 b9 60 be 4e f1 b9 bd
       -0.20113373 -0.27148318 -0.21945597 -0.09079228
000110 8c e3 65 be d0 66 60 3e cc 3a a4 bc 8b e9 7d bd
       -0.22450083 0.2191422 -0.020047568 -0.061990302
000120 5d 92 0b 3d ab 25 a0 3e 08 2f b3 be d6 a3 8e bd
       0.03407513 0.31278738 -0.3499682 -0.06964843
000130 af 87 60 be df bc 9e 3d 94 98 0a be 09 52 be 3e
       -0.21926759 0.07750868 -0.13534766 0.37171963
000140 a6 ce fd 3c e1 fd aa bd 6f 7f 55 3e 3c 5c 33 be
       0.030982327 -0.08349205 0.20849393 -0.17515653
000150 e6 92 2f bc e8 07 10 3e 38 08 18 be a4 55 a0 3d
       -0.010716176 0.14065516 -0.14846885 0.07828835
000160 0b fb 40 3d be 66 f8 3c ae f7 76 be c2 3b 8f bc
       0.047114413 0.030322429 -0.2411792 -0.01748455
000170 99 8f f2 3d 44 27 37 3e d7 e0 26 3e ea 59 09 3e
       0.11843795 0.17886072 0.16296707 0.13413206
000180 74 8d 3c ba e7 50 5f be 0b d2 94 3e f7 93 28 3e
       -0.0007192709 -0.21808206 0.290665 0.16462694
000190 65 e6 7d be 53 bf 7a be 99 ce 3f 3e 4b c2 83 3e
       -0.2479492 -0.24487047 0.18731155 0.2573417
0001a0 04 49 24 be 65 78 82 bd 86 39 38 bd 8c 06 cb 3c
       -0.16043478 -0.0637062 -0.044976734 0.024783395
0001b0 07 a0 32 be dc 4a 29 be 0c aa 07 be 40 fe ee 3d
       -0.17443858 -0.16532463 -0.13248461 0.11669588
0001c0 e9 6d 80 be f3 18 6e be ff ad 12 be 60 eb 1c 3d
       -0.25083855 -0.23251705 -0.14324187 0.03831041
0001d0 7b 9a e2 bd 4d ad be 3c dd 07 97 be 48 a4 6e be
       -0.11064621 0.023275996 -0.29498187 -0.23304856
0001e0 c9 7f 65 3e 6e 6e cb 3d 73 27 b0 3e d7 a8 e6 3d
       0.22412027 0.09933172 0.34405097 0.112626724
0001f0 06 05 d9 3d 6d 75 8b be 3f 3f be 3c 51 a5 5e be
       0.10596661 -0.27238026 0.023223517 -0.2174275
000200 1d 7a 4d bd 3e d4 be 3d ec 4b 4b 3e 95 9f 0a be
       -0.050165284 0.09317826 0.1985318 -0.13537438
000210 b6 cd 9d 3e 0b 95 29 be 24 28 43 be 73 cf 6a be
       0.30821007 -0.16560762 -0.19058281 -0.22930698
000220 c3 a4 94 be 56 94 6d be 11 25 a2 bd 85 01 dd bd
       -0.29031953 -0.23201117 -0.07917226 -0.107913055
000230 ac db 63 3e 23 01 66 3e 25 56 19 3e fa 35 34 bd
       0.22251767 0.22461371 0.14974268 -0.04399679
000240 a6 2a 3f 3e aa 5e e2 3d 34 6e 8f be b5 b1 a0 3d
       0.18668613 0.11053212 -0.28013766 0.07846395
000250 c5 26 2f be 97 fd 13 3d 7c d6 91 bd 3f b8 d6 bd
       -0.17104633 0.036130514 -0.07120988 -0.10484361
000260 3c a6 55 be 86 a7 2e 3e e9 4f 6e be 0c 47 0e bd
       -0.20864195 0.17056093 -0.23272671 -0.034735724
000270 01 9a 33 be ee e4 6b 3e 37 8c c5 bd cb b1 c6 3d
       -0.17539217 0.23036548 -0.096458845 0.0970188
000280 c5 ed a2 3e 68 ed 8e 3d 9c e9 95 bd 93 be 31 bd
       0.3182203 0.069788754 -0.07319948 -0.043394636
000290 d2 4f 61 be 9e ad 1f be fa 00 c7 3d c7 8a 08 3d
       -0.22003105 -0.15593573 0.09716983 0.033335473
0002a0 cb 38 f1 bd 7d 55 ab 3d 3b 00 25 be 84 0e 84 3e
       -0.117784105 0.08365915 -0.16113369 0.25792325
0002b0 b2 ee 60 be f5 79 5a bd ab d7 83 3d 64 45 1b be
       -0.21966055 -0.053338964 0.0643762 -0.15163189
0002c0 5c f6 1a 3e 96 b8 62 3d 09 ac 5d 3e 83 56 71 3e
       0.15133041 0.055351816 0.21647657 0.23568158
0002d0 d9 9d 32 3e 59 84 ae 3c 34 7a 52 be 01 30 de bd
       0.17443027 0.021303343 -0.2055443 -0.10849
0002e0 bd d7 28 3d c0 28 bd 3d cb 32 d2 3d 47 61 22 3e
       0.04122137 0.09236288 0.10263594 0.15857421
0002f0 9c 18 56 3e 2e 69 ab 3d 61 e2 57 be ce b8 2c 3e
       0.20907825 0.08369671 -0.2108245 0.16867372
000300 54 08 ab be 11 dc ac be de 35 60 3e 96 f4 1e 3e
       -0.3340479 -0.33761647 0.21895549 0.1552299
000310 a2 9c 83 3e 89 b2 32 3e 30 f8 26 3e a1 05 86 3e
       0.2570544 0.17450918 0.16305614 0.2617617
000320 e2 cc 50 be 27 38 1b 3e 56 71 6d be e7 35 53 3e
       -0.20390657 0.15158139 -0.23187765 0.20626031
000330 23 5a cf 3d 2d 02 35 3e 99 e6 76 3e e5 35 e8 bd
       0.10124614 0.17676611 0.24111404 -0.113384046
000340 30 5b 73 be 89 e4 4a 3e b2 a4 1f 3e 25 ac f1 3d
       -0.23765254 0.19813742 0.1559017 0.11800412
000350 92 77 8a bd a5 13 1a be be 59 61 be 51 69 8b be
       -0.067610875 -0.15046556 -0.2200689 -0.27228788
000360 73 4d 80 be 21 b1 1d 3e 0c 6f 99 be 0a c8 4f be
       -0.2505909 0.153996 -0.29967535 -0.20291153
000370 0f 9f 6b bc cd 5f 38 3e cf 34 e2 bd 3d 3f 1f 3e
       -0.014381184 0.18005295 -0.11045229 0.15551467
000380 c6 0a 23 3e 3f 7f 09 3e d7 25 71 3e d7 0e a5 be
       0.15922078 0.13427447 0.23549591 -0.32237884
000390 f7 d1 94 be 96 ec 2e 3e 1b 0c 45 be c5 f8 90 3e
       -0.2906644 0.17082438 -0.19242899 0.28314796
0003a0 f2 73 20 be 1e 00 4e 3e a1 9e 7d 3e a2 a4 9d be
       -0.1566923 0.20117232 0.24767543 -0.30789667
0003b0 48 55 11 3d cf ea 82 3e 65 a6 9e bd 22 57 8f be
       0.03548172 0.2556977 -0.07746581 -0.27996165
0003c0 c8 f8 7c be 3a 4c a1 be 61 ee 37 3e 4e 6f 5a be
       -0.24704278 -0.3150347 0.17962028 -0.21331522
0003d0 d0 fb 87 3e fd ef d7 bd 82 f9 97 be 13 f6 81 3e
       0.26559305 -0.10543821 -0.29682547 0.25383052
0003e0 57 7f 44 3e 71 96 24 3e 79 3c f1 bd 21 1a 81 bd
       0.19189201 0.16073014 -0.11779112 -0.06303812
0003f0 67 80 44 3e 55 84 ab be 02 b9 b6 bd 7b 9e 8b 3e
       0.19189607 -0.334994 -0.08922006 0.27269349

W_y f4 [113, 256]
000000 85 9c 8d 3e e5 80 89 be fd 42 21 be 68 e9 87 3e
       0.27658477 -0.2685615 -0.1574821 0.26545262
000010 1e 46 cc bd 17 f6 6b 3e d5 85 8f 3e d7 e4 82 be
       -0.09974311 0.23043095 0.28031793 -0.25565216
000020 7e 50 c4 3d 1e da a6 3e 9c 4d 98 3d 8e 4b 17 3e
       0.09585665 0.32588285 0.07436678 0.14774916
000030 ab da 4c be a3 91 9b bd 95 c0 dd bd a2 67 0c 3e
       -0.2000529 -0.075961374 -0.10827748 0.13711408
000040 3c c9 37 be e5 b3 60 3e 02 30 4b 3e b8 1a 20 3e
       -0.17947859 0.21943624 0.19842532 0.15635192
000050 24 3a 8f 3e 71 9d 01 3e 24 aa e3 bd 64 60 84 3e
       0.27974045 0.12657715 -0.11116436 0.2585479
000060 59 da 08 be 78 e8 26 be a1 71 35 be a7 9d 6a be
       -0.13364543 -0.16299617 -0.17719127 -0.22911702
000070 fb 43 b2 3b 92 c4 d1 bd da 7d 1f be 71 b3 1b be
       0.005440233 -0.10242571 -0.15575352 -0.1520517
000080 9f 75 74 3e 6c c6 78 be bc 2f 6b 3e 65 c0 39 bc
       0.23872994 -0.24294442 0.22967428 -0.011337374
000090 bd 94 31 3d 0e 20 17 3e f5 7a 86 3d 63 70 65 be
       0.04335474 0.14758322 0.06566421 -0.22406153
0000a0 cf 96 e0 3d 15 f1 96 3b 65 45 7a be ad 0a 16 be
       0.109662645 0.004606376 -0.24440534 -0.1465251
0000b0 09 91 22 bd b4 45 49 3e 3a 03 63 3e 5d 57 80 bd
       -0.039689098 0.19655496 0.221692 -0.06266663
0000c0 62 a4 d2 3d db 99 ae bd 2a ea 84 be dd 0a ef bd
       0.1028526 -0.08525439 -0.25959903 -0.11671994
0000d0 9c d3 59 3e 9b f5 55 be 9a 4a b2 3d 13 05 66 3e
       0.21272129 -0.20894472 0.08705635 0.22462873
0000e0 9c 38 13 be b0 3f 16 be b2 53 62 3e 03 c2 93 be
       -0.14377064 -0.14672732 0.2210224 -0.28858957
0000f0 24 e2 1d be fe 99 55 3e 10 b5 da bd 9c 18 40 be
       -0.15418297 0.20859525 -0.10679066 -0.18759388
000100 de 8e 87 3e ad 17 07 3e 52 9a 7f 3e 76 05 18 3e
       0.26476187 0.13192625 0.24961212 0.14845833
000110 54 f0 35 bd c8 98 fa 3d 83 17 40 3e e7 39 90 bc
       -0.044418648 0.12236172 0.18758969 -0.017605735
000120 4b 75 0a be 83 29 52 3d df c2 45 3d c5 e1 d5 bd
       -0.13521306 0.05130912 0.048281547 -0.10443453
000130 39 bd ab 3e b4 90 83 bd b0 db 5e 3d 9e 4c 8f bd
       0.33542803 -0.06424084 0.05440873 -0.069970354
000140 44 03 f5 bd 65 e1 2b be 12 bf b2 3e 72 ac a2 bd
       -0.119635135 -0.167852 0.349114 -0.079430476
000150 f3 0c 97 be 4d 23 95 be ec 8c cb bd b6 38 41 3e
       -0.29502067 -0.29128495 -0.09938988 0.1886929
000160 f9 ac 95 bd 46 db 4b be 82 5c 85 be 3a 17 87 be
       -0.073083825 -0.19907865 -0.2604714 -0.26384908
000170 fd 68 09 3e ad f0 79 3e ea a1 ab 3d 66 dd ce bd
       0.13418956 0.24408217 0.08380492 -0.10100822
000180 f5 d1 65 3e 64 bc 75 3e 7a cc e2 3d ab 21 90 3e
       0.22443374 0.23997647 0.11074157 0.28150687
000190 2d 47 09 3d 4d 1e 59 3d 40 38 86 3d 53 81 0b 3e
       0.033515144 0.053007413 0.065536976 0.13623552
0001a0 24 10 7b 3e 97 bc e6 bd 84 2b 83 3e 51 90 75 3d
       0.24517876 -0.112664394 0.25619137 0.059952084
0001b0 3c 11 0f be a4 c4 8a be 4b d3 e6 3d c5 bb a4 bd
       -0.13971418 -0.2710315 0.1127077 -0.08043627
0001c0 15 9f 8f be c7 31 55 bd 87 fa e3 bd 3d 3c 5a be
       -0.28051057 -0.052049424 -0.11131769 -0.21312042
0001d0 ba ce 06 be f2 b1 1f 3d 9d 6b 39 be 8e 42 40 3e
       -0.13164797 0.03898806 -0.18107457 0.18775389
0001e0 ce 95 f3 bd 19 9c 12 be 3a 60 6b 3e 46 ea 1b be
       -0.11893807 -0.14317359 0.22985926 -0.15226087
0001f0 a7 c6 49 be c9 1b d2 bc b0 fa 71 3e 6a dd 39 3e
       -0.19704686 -0.025648015 0.23630786 0.18150869
000200 f2 ce 27 be 3a 70 61 be 9f 05 05 3d fb 22 ad 3a
       -0.16387537 -0.22015467 0.032476064 0.0013209278
000210 ca 90 34 3e e9 e4 32 3e 29 9a e9 3d 2d 5d d4 bd
       0.17633358 0.17470135 0.11406357 -0.10369334
000220 db 62 3d be 8b 7b dc 3d ca b5 d6 bd ca 89 45 be
       -0.18494742 0.107657515 -0.10483892 -0.19290844
000230 b0 86 de 3d 96 97 01 be 94 41 91 3e 30 07 88 3e
       0.10865533 -0.12655482 0.28370345 0.26567984
000240 52 b6 f4 3d da 1f 38 be 1f 48 5e 3e 54 ab 7e be
       0.11948837 -0.179809 0.217072 -0.24870044
000250 96 ca 5d be e7 ad 4a 3e f7 22 1b be 4a be 0a 3e
       -0.21659312 0.19792901 -0.15150057 0.13549152
000260 be 63 f1 bd aa 39 76 3c 9c 88 25 be 64 e6 6a bd
       -0.117866024 0.015028397 -0.16165394 -0.057348624
000270 06 fa f1 bd bc 4c f5 bd f1 1b 12 be 9b 4a 91 be
       -0.11815266 -0.119775265 -0.14268471 -0.28377232
000280 e7 5a 1d bd 58 46 e1 bd e1 20 bd 3d b1 04 76 be
       -0.03841677 -0.10999745 0.09234787 -0.24025227
000290 7d 3e 28 bc 16 5a 5f 3e 6e 8d 3c bd 42 10 19 3e
       -0.010268805 0.21811709 -0.046033315 0.14947608
0002a0 c9 79 44 be 69 9c 8f 3e 44 6d 47 be fc d0 04 3a
       -0.19187082 0.2804902 -0.19475275 0.00050665415
0002b0 00 97 c5 bc ab 78 6e be ec b4 05 bd 10 df ca bd
       -0.024119854 -0.23288219 -0.032643244 -0.09905827
0002c0 05 1f 94 bd 31 df d9 bc 6f f3 2b 3e 7e e9 6e be
       -0.07232479 -0.026595684 0.16792081 -0.23331258
0002d0 fb 7f 25 3e 01 a8 4e be cd df 9d 3d 4f 3c 83 3d
       0.16162102 -0.20181276 0.07708702 0.06407987
0002e0 77 c7 51 3e bc 16 09 3e bc cb 4f 3d d9 e1 2d be
       0.20486246 0.13387579 0.050731406 -0.16980685
0002f0 df 02 86 3d f7 17 49 3e ed bd 8b 3e 97 e9 2e 3c
       0.06543516 0.19638048 0.2729334 0.010675809
000300 fe 8b 91 3d 2f 68 50 3e 52 f0 7f be 6c f5 5d be
       0.071067795 0.20352243 -0.24994019 -0.21675652
000310 49 01 27 be 99 74 b7 3d ba 98 86 be 63 b9 9a 3d
       -0.16309084 0.08957786 -0.26288396 0.07554891
000320 56 57 9f bd cb 4d 9f be ee 6a 0a 3e a9 57 9a be
       -0.0778033 -0.3111404 0.13517353 -0.30145004
000330 5b 2d 01 3e 17 12 1d 3e 70 8b 38 be 5d 4d 25 bd
       0.12614958 0.15338932 -0.18021941 -0.040356982
000340 04 a9 1b 39 ca b3 ec 3d d5 27 fe 3c 07 30 5c 3e
       0.00014844915 0.115577295 0.031024853 0.21502696
000350 f5 b0 47 3e 1f ec 65 3e cc 65 32 3e 04 6c 80 3e
       0.19501098 0.22453354 0.17421645 0.2508241
000360 15 80 13 3e 83 86 8b bd 37 0f 8d 3d e9 75 15 3e
       0.14404328 -0.068127654 0.068876676 0.1459576
000370 84 76 5a be 45 a2 85 3e bf e4 d6 bd 53 74 18 3a
       -0.21334273 0.26100364 -0.104928486 0.00058156735
000380 6a bc 9c 3b 43 3e a7 3e 73 56 09 be 35 83 53 be
       0.004783203 0.3266469 -0.13411884 -0.2065552
000390 71 77 84 3d 3b 9b 7e 3e 2a 67 9f be 61 d1 b4 3d
       0.06468094 0.24863903 -0.31133395 0.08828998
0003a0 55 d4 a8 3d 86 68 59 3e 68 7b 8f 3e 30 bd bf 3d
       0.08243624 0.21231279 0.2802384 0.093622565
0003b0 eb b3 54 3e fe 36 fc bc 6a 76 a0 3e d5 45 55 3e
       0.20771758 -0.030787941 0.31340343 0.2082742
0003c0 7f ea b2 bc f0 d4 70 3e 4d af 35 3e b6 b9 81 3d
       -0.021840332 0.23518729 0.17742653 0.0633425
0003d0 1b 3e 89 bd 3c ef 87 bd 29 f4 26 3e 68 c4 fb 3c
       -0.06701299 -0.06637427 0.16304077 0.030733302
0003e0 a7 fc 22 3e cb c3 94 bc 3d 60 25 bd 64 3b 51 be
       0.15916692 -0.018159768 -0.040374983 -0.20432812
0003f0 bf ea 47 3e 95 35 1d 3e 68 87 83 be e9 b2 cf 3d
       0.19523142 0.15352471 -0.25689244 0.10141546

W f4 [512, 128]
000000 79 4a 03 3e 10 a6 65 be fc 27 4d be a2 97 46 be
       0.12821378 -0.22426629 -0.20034784 -0.19393781
000010 73 57 14 be b4 56 f4 3c 7d bf 00 be aa d1 0d be
       -0.14486484 0.0298265 -0.12573047 -0.13849512
000020 19 d7 45 3e b3 af 5c 3e 8a c4 75 be 5c 55 4b 3e
       0.19320334 0.21551399 -0.24000755 0.19856781
000030 22 eb 4f 3e 17 d6 2d be 69 22 15 3e ee 16 53 3e
       0.2030454 -0.169762 0.14563908 0.20614216
000040 f2 6e 78 be 78 98 52 3e 1c 4b 26 3e 36 48 80 3e
       -0.24261072 0.20565975 0.1623959 0.25055093
000050 18 68 25 3e 9e f4 3f 3e 8d 34 ec 3d 76 59 51 3e
       0.1615299 0.18745658 0.11533461 0.20444283
000060 1a e7 21 bd fa 9c 52 be 73 c2 35 be a0 e1 47 be
       -0.039527036 -0.20567694 -0.17749958 -0.19519663
000070 9e bc 58 be bd 47 e1 bd 40 bc 4b be 60 e5 2a 3e
       -0.21165702 -0.11000011 -0.1989603 0.16689062
000080 9f 22 94 3c 29 a3 a0 bd 71 0a 4f be 15 8e 46 3e
       0.018082915 -0.0784362 -0.20218827 0.19390137
000090 4c 9f 34 3e cf 7a 4c be d7 c8 90 3d a3 d4 25 3e
       0.17638892 -0.19968723 0.07069557 0.16194396
0000a0 2e 23 39 be 99 36 57 be 5e 81 cf 3d ba 92 44 be
       -0.18079826 -0.21016921 0.10132097 -0.19196597
0000b0 35 71 2e 3e 07 f1 35 be c1 d2 1d 3e 03 c8 34 3e
       0.17035373 -0.17767726 0.15412427 0.17654423
0000c0 8c e1 02 be aa e3 72 be 9d e9 41 bd 78 ff 35 be
       -0.12781352 -0.2371966 -0.04734193 -0.17773235
0000d0 3e 39 0f be f2 95 72 be 60 f7 70 bc 50 a0 62 be
       -0.1398668 -0.23690012 -0.014707416 -0.22131467
0000e0 8d 19 54 be 4b fb 2a be fa bf 27 be b8 3e 77 3e
       -0.20712872 -0.16697423 -0.16381827 0.24145019
0000f0 72 df 1f 3e 6a d9 59 3e b8 c3 4f be e5 1b 2d 3e
       0.15612581 0.21274343 -0.20289505 0.16905172
000100 5b 16 25 be 86 93 53 3e 4a 48 54 3e e8 96 30 be
       -0.16121809 0.20661744 0.20730701 -0.17245066
000110 f6 4a 4a be 6d 4a 3f be 44 19 40 3e be 59 0e 3e
       -0.19755158 -0.18680735 0.18759638 0.13901421
000120 57 de 83 3e 2f 2e 47 be 66 33 52 3e 5d 74 62 be
       0.2575557 -0.19451211 0.2052742 -0.22114702
000130 47 89 36 3e 94 05 9d 3c 3b 87 5b be 51 59 2c 3e
       0.17825805 0.019167699 -0.21438305 0.16830947
000140 5d ba 46 3e c2 b8 30 3e b0 a1 80 3d a6 30 61 be
       0.1940703 0.1725798 0.062808394 -0.21991214
000150 54 41 17 be 26 93 43 be cd ba 4b 3e 6e ee 09 be
       -0.14771014 -0.19099101 0.19895478 -0.1346986
000160 4c 12 58 3e b2 3c 10 be ba e6 48 be 8b 3e 10 be
       0.2110073 -0.14085653 -0.19619265 -0.14086358
000170 c1 7d 37 be b3 f7 66 3e 55 e9 2f 3e 7a dd 5d be
       -0.17919065 0.22555427 0.17178853 -0.21666518
000180 9a 82 54 be 74 fe 1b 3e 7a f4 37 be fa 09 37 3e
       -0.20752946 0.15233785 -0.17964354 0.178749
000190 40 c1 02 3e fa 7e 54 be 69 45 4b 3e 78 74 2a 3e
       0.12769032 -0.20751563 0.19850697 0.16645992
0001a0 78 c0 f6 33 ce 4e 46 3e 7a 4e 44 be 8b 62 73 3e
       1.14902775e-07 0.19365999 -0.19170561 0.2376806
0001b0 08 dd 02 3e 8d 80 64 3e ea f4 3d be a0 81 7a 3e
       0.12779629 0.22314663 -0.18550459 0.2446351
0001c0 1d a6 51 3e ad d6 55 3e 63 28 25 3e a7 89 35 3e
       0.20473523 0.20882674 0.16128688 0.17728291
0001d0 d2 3a 57 3e 37 6b 3e be ee 17 41 3e 8e 2c 5a 3e
       0.21018532 -0.18595587 0.18856785 0.21306059
0001e0 d8 3c 0f be e2 d5 61 be 2b 29 50 3e 94 04 5e be
       -0.13988054 -0.22054246 0.20328204 -0.21681434
0001f0 77 a3 cd 3d 50 38 20 be c0 79 3f be 61 a3 9e bd
       0.10040944 -0.15646482 -0.18698788 -0.07746006
000200 b6 49 5c bd dc 5f 53 be c5 0a 5b 3e 0b ce 78 be
       -0.053781234 -0.20642036 0.21390827 -0.24297349
000210 4f 1a de 3d 55 6a 41 3e b5 1c 4a 3e 55 83 75 3e
       0.10844862 0.18888219 0.19737513 0.2397588
000220 9f 3e 60 3e fd 57 4e 3e 1f d8 6e 3e 98 36 74 3d
       0.21898888 0.20150752 0.23324631 0.059622377
000230 46 00 11 be 0f 52 2c be 13 58 49 3e 2a 7d f1 3d
       -0.1416026 -0.16828178 0.19662504 0.11791451
000240 f1 9b 76 be da ab 39 3e b1 0d 26 3e ac 36 dc 3d
       -0.24082924 0.18131962 0.1621616 0.10752615
000250 b3 ba 08 be 23 cb 2f 3e f7 ed 43 be 50 8b 46 be
       -0.1335247 0.17167334 -0.19133745 -0.19389081
000260 64 b3 76 be d0 c1 73 3e 66 4e 19 3e 06 35 41 3e
       -0.2409187 0.23804402 0.14971313 0.18867883
000270 1c 46 42 be c8 05 9c 3d 0e 77 63 be f0 f7 54 3e
       -0.18972057 0.0761829 -0.22213385 0.20797706
000280 71 74 19 be 6e f8 3b be c4 c8 34 3e 7b e9 2e 3e
       -0.14985825 -0.18356487 0.17654711 0.17081253
000290 5c bb 21 3e 1c a8 2a 3e 30 c9 42 3e b7 19 20 3e
       0.15794128 0.16665691 0.1902206 0.1563481
0002a0 a7 9e 09 3e 8e 8c 1d 3e 14 60 59 be 0e c5 5f be
       0.13439427 0.15385649 -0.21228057 -0.21852514
0002b0 75 d1 0e be c3 77 75 3e 37 9a 22 be e0 df 22 3e
       -0.13947089 0.23971467 -0.15879141 0.15905714
0002c0 79 d3 70 be 44 9e 7d 3e 42 8d 1e 3e 9f 6e 53 3e
       -0.2351817 0.24767405 0.15483573 0.20647667
0002d0 88 72 cd bd f7 60 7b 3e f4 a3 4b be f9 db 89 be
       -0.10031611 0.24548708 -0.19886762 -0.26925638
0002e0 67 2d 10 3e 4c e9 4d be 11 e4 7d 3e f5 5a 0a 3e
       0.1407982 -0.20108527 0.24794032 0.1351126
0002f0 7b ef 0e 3e 2a 07 50 be 3c 16 1a be cf f3 22 be
       0.13958542 -0.20315233 -0.15047544 -0.15913318
000300 54 d3 43 3e 54 10 35 3e ff 88 29 be 42 65 ff 3d
       0.19123584 0.1768201 -0.16556166 0.12470485
000310 b9 82 26 be 2e d2 00 3e 30 af 5c be 08 f8 5f 3e
       -0.16260804 0.12580177 -0.21551204 0.2187196
000320 f2 37 22 bd 2e a3 66 be 1d 71 6c be 18 ca 8c be
       -0.039604135 -0.22523186 -0.23090024 -0.27497935
000330 d8 7c 0b be 79 60 f7 bd 4a ca 2f 3e 50 94 2c be
       -0.13621843 -0.120789476 0.17167011 -0.16853452
000340 a0 79 1c 3d f5 31 52 3e 2c 44 43 be 0f 5a 5d be
       0.03820193 0.2052687 -0.19068974 -0.21616386
000350 8c c8 f0 3d 92 8e 37 3e bb c7 26 be 5c 80 77 be
       0.11757001 0.1792548 -0.16287129 -0.24170059
000360 bc 91 f3 bd f0 94 d5 bd b2 14 5b 3e 8a 98 d5 bd
       -0.11893031 -0.10428798 0.21394613 -0.10429485
000370 7a ab 89 be ae b9 2f be 6a 05 58 3e f2 a7 43 be
       -0.2688864 -0.17160675 0.21095815 -0.19107035
000380 aa 3f 0c be 82 af 26 be c1 af 0f 3e 3a 93 3b be
       -0.13696161 -0.16277888 0.14031889 -0.18317881
000390 5b 7e 07 be 48 74 6a 3e 70 b6 3c 3e 74 be 50 3e
       -0.13231795 0.2289592 0.1842897 0.20385152
0003a0 04 9c 9f 33 ad 00 8c 3d 37 78 63 be c1 61 e3 3d
       7.4323935e-08 0.068360664 -0.22213827 0.111026295
0003b0 1a f1 44 be 55 a3 54 3e 47 fc 3a 3e 83 b7 7e be
       -0.19232598 0.20765431 0.18260299 -0.24874692
0003c0 13 d9 4b 3e 75 16 02 3d 6b 7a 0f be 09 40 21 be
       0.19907026 0.031759698 -0.14011542 -0.15747084
0003d0 b6 eb f6 3d 6e e2 12 be 2f 8b 49 3e e7 3e 19 be
       0.12056677 -0.14344189 0.19682 -0.14965402
0003e0 52 73 cd bd 3b 35 0b be 43 df 1f 3e 64 be 5d be
       -0.10031761 -0.13594525 0.15612511 -0.2165466
0003f0 d3 34 5a be 86 6e dc 3d 6e 4e 70 be c1 06 21 3e
       -0.21309213 0.10763268 -0.23467419 0.15725233

W_U f4 [128, 113]
000000 dc 26 9b 3e 87 e2 de be 71 af ea 3d 02 fd e3 3e
       0.30303085 -0.43532202 0.11459244 0.44528967
000010 5c 9e 32 be 3b af 3b be 28 48 a7 3e 53 db 4c 3e
       -0.17443222 -0.18328564 0.32672238 0.2000554
000020 c5 27 fb be be 20 8b 3e f7 6b d4 3e bf 70 d5 be
       -0.4905378 0.27173418 0.4148862 -0.4168758
000030 bf 70 87 3d ef e5 d1 3e 3c d4 7b bd 9d 68 77 be
       0.066133015 0.40995738 -0.0614817 -0.24161
000040 1b 2c c8 3e 83 0e e8 3d 84 5e e5 be eb a6 5d 3e
       0.3909615 0.11330893 -0.44798672 0.21645705
000050 bf 7e b1 3e 6b 1f df be 2e 42 7c 3d b8 3d c3 3e
       0.34667012 -0.43578658 0.06158655 0.38133025
000060 b9 85 66 be 4e d3 64 be 31 de b7 3e d6 81 65 3e
       -0.22511949 -0.22346231 0.35911706 0.2241281
000070 3e 76 f3 be 3c 6d a1 3e 34 ee 88 3e b9 97 f4 be
       -0.4755115 0.31528652 0.26744235 -0.47772005
000080 3e 17 c5 3d 5a 9d 9d 3e 37 11 60 be 7b 7f 6d be
       0.09623574 0.30784112 -0.21881567 -0.23193161
000090 30 fa 78 3e f4 46 af 3d 3d 98 d9 be c3 ef 78 3e
       0.24314189 0.08558455 -0.4249896 0.24310212
0000a0 72 48 a4 3e e5 d0 f9 be 20 91 1d 3e f7 cf 94 3e
       0.3208652 -0.48792186 0.15387392 0.29064915
0000b0 bf 5a 88 be 87 80 36 be 9c bc ad 3e 43 2b a6 3d
       -0.26631734 -0.17822467 0.3393296 0.0811372
0000c0 fc 47 d4 be 2f 76 af 3e d7 6f 9f 3e 59 da ef be
       -0.4146117 0.34269854 0.31140015 -0.46846274
0000d0 a9 22 3d 3e 17 0b b8 3e 6c 56 97 be 47 15 15 bd
       0.18470253 0.3594596 -0.29558122 -0.036397245
0000e0 57 e0 a6 3e 4e 9d ea 3d 29 85 c5 be 14 f6 ab 3e
       0.32593033 0.11455785 -0.38578156 0.3358618
0000f0 55 56 ce 3e db e5 03 bf 4d 7d 60 3e c4 1e c9 3e
       0.4030024 -0.51522607 0.21922798 0.39281285
000100 5b 77 99 be ca 03 0e be e0 32 bf 3e b0 2f ca 3d
       -0.29973873 -0.13868633 0.37343502 0.09872377
000110 7b c7 bd be 49 49 b6 3e 77 d8 95 3e 23 28 fa be
       -0.37066254 0.35602787 0.29266712 -0.48858747
000120 f8 c2 21 3e d7 9b 96 3e b6 b0 b1 be f4 b0 9e bc
       0.15797031 0.2941577 -0.34705132 -0.019371487
000130 5e 96 54 3e 91 ee 27 3b 78 81 b4 be 67 08 bb 3e
       0.20760486 0.0025624374 -0.35255027 0.36529848
000140 39 7f 3e 3e bd 4f 00 bf 28 84 42 3e 39 c6 a9 3e
       0.18603219 -0.5012167 0.18995726 0.33159044
000150 44 77 a6 be 69 8a a4 bd a7 a6 b0 3e 5c ac d6 bd
       -0.32512867 -0.08034212 0.34502146 -0.10482094
000160 0b 6c a0 be 2b 0c 7f 3e a8 9a 50 3e 5a 7c 0f bf
       -0.3133243 0.24906985 0.20371497 -0.5604912
000170 2c 6f 20 3e fe 88 bd 3e 73 f3 ba be bf 89 51 bd
       0.15667409 0.3701858 -0.36513862 -0.051156756
000180 12 f1 5a 3e 7a 01 79 bd 3a ef b8 be 22 8e a1 3e
       0.21381024 -0.060792424 -0.36120015 0.3155375
000190 50 04 30 3e 6c ec 02 bf 3d 9d 8c 3e 78 76 b9 3e
       0.17189145 -0.51142 0.27463713 0.36223197
0001a0 5f eb c9 be 66 f8 0d 3d 3a c6 a6 3e 5a fa e5 bd
       -0.39437386 0.03466072 0.3257311 -0.112293914
0001b0 f9 f9 6c be c9 e0 bf 3e fd 67 94 3e 73 e7 01 bf
       -0.23142232 0.37476185 0.28985587 -0.5074379
0001c0 fd 61 34 3e 6b e1 b9 3e e9 84 5b 3d df 4a d2 be
       0.17615505 0.36304793 0.05359355 -0.41072747
0001d0 4e 94 01 bf 19 10 49 be 39 5d 84 3e ce 00 bf 3e
       -0.5061692 -0.19635047 0.25852373 0.373053
0001e0 ff 52 c5 3e e9 3d b3 3e c4 c0 fb bc 79 1c cc be
       0.38539883 0.3500817 -0.030731566 -0.39865473
0001f0 da 55 14 bf 84 fc 76 be 36 e0 3d 3e c3 2f ca 3e
       -0.579435 -0.24119765 0.18542561 0.39489564
000200 e8 0b aa 3e 4a 6a c0 3e ac 8f b4 3d 17 98 ac be
       0.3321221 0.37581092 0.08816466 -0.33709785
000210 2a d0 14 bf 76 19 9c be 2e 93 0f 3e 39 f1 d2 3e
       -0.58130133 -0.30488175 0.14020988 0.41199663
000220 32 a4 d5 3e f0 5e d9 3e 57 75 07 3e 09 e0 c2 be
       0.41726834 0.42455244 0.13228355 -0.3806155
000230 af 30 11 bf d8 da a4 be 0f 6e d7 3d 00 b7 b7 3e
       -0.5671491 -0.32198215 0.10519039 0.35881805
000240 7d f0 d3 3e e7 51 c6 3e bf 55 1a 3e 12 15 9f be
       0.41394415 0.38734362 0.15071772 -0.31070763
000250 ae f2 12 bf 36 cf a9 be 62 95 c1 3d 33 b2 ad 3e
       -0.5740155 -0.33165902 0.09452321 0.33925018
000260 07 ed b5 3e 9e 19 bb 3e 67 2a 1d 3e 0d 32 96 be
       0.355324 0.36542982 0.15348206 -0.2933506
000270 64 1e 14 bf 60 9d 9e be 25 2b f1 3d 1c 42 8f 3e
       -0.5785887 -0.30979443 0.11775807 0.27980125
000280 17 4d 80 3e 06 69 bc 3e 67 ec 32 3e 79 d3 90 be
       0.25058815 0.36798877 0.17472993 -0.2828634
000290 02 9e 04 bf 21 34 ce be 10 b7 ad 3d d7 1a a8 3e
       -0.518036 -0.40274146 0.08482182 0.32832977
0002a0 d2 0c bd 3e 0a 6c bc 3e cf 22 6c 3e ce 80 60 be
       0.36923844 0.36801177 0.23060153 -0.21924135
0002b0 bc 26 0b bf 04 6f bf be 1b 30 23 3d a7 88 c8 3e
       -0.5435598 -0.37389386 0.0398408 0.39166757
0002c0 fb ca d7 3e b5 5c ca 3e f6 8b 48 3e c5 f1 41 be
       0.4214705 0.39523855 0.19584641 -0.18939884
0002d0 fc ca 0d bf 2d a0 d4 be 03 f9 ff bb f7 88 a6 3e
       -0.55387855 -0.41528454 -0.007811667 0.3252637
0002e0 64 d5 dc 3e b1 24 c8 3e 3a 40 23 3e 24 6f b1 bd
       0.43131554 0.39090493 0.15942469 -0.086637765
0002f0 8e df fb be 1b 48 ec be b3 f4 a0 bd 2f f2 a8 3e
       -0.49193996 -0.46148762 -0.07859173 0.3299727
000300 1a 93 fc 3e 68 38 f2 3e 79 7f 3e 3e 04 a6 28 be
       0.4933098 0.4730866 0.18603314 -0.1646958
000310 66 18 02 bf 41 3c ea be 28 95 9b bd bb f9 99 3e
       -0.5081848 -0.45749095 -0.07596809 0.30073342
000320 f2 57 c0 3e df 0b df 3e 51 90 9c 3e 58 c0 dc bd
       0.37567097 0.43563744 0.30578855 -0.10778874
000330 23 1b 00 bf 5e 85 fc be 66 ee d6 bd e9 f0 9a 3e
       -0.5004141 -0.493205 -0.1049469 0.30261925
000340 ab 39 de 3e 19 5b fb 3e 7b 77 9d 3e 7a f8 15 bd
       0.43403372 0.4909294 0.3075522 -0.03661392
000350 97 0e eb be 08 b4 07 bf 8c 8d 06 be 20 e5 8d 3e
       -0.4590957 -0.5300908 -0.13139933 0.2771387
000360 85 3b bd 3e 4d 71 b8 3e b0 42 b6 3e 71 c9 43 bc
       0.36959472 0.36023942 0.35597754 -0.011949883
000370 75 1b ed be e8 07 06 bf 21 de 32 be 22 83 92 3e
       -0.4631001 -0.52355814 -0.17467548 0.2861567
000380 6d 2f ba 3e b5 0a de 3e 44 20 7e bd 1e 05 67 3e
       0.36364308 0.43367544 -0.06204249 0.22560546
000390 84 1f b1 bd f0 ba 3a 3e 6b 0b 13 3e bc 04 9e bd
       -0.08648589 0.18235373 0.14359824 -0.07715747
0003a0 74 6d de 3d a6 7a 98 bd 6d 14 50 3e 4c 7e 48 be
       0.1086072 -0.07445268 0.20320292 -0.19579428
0003b0 05 28 87 3e 4e 7f 94 be b4 e9 a1 3e 4c f0 ab be
       0.2639772 -0.29003376 0.31623614 -0.3358177
0003c0 1d 5b 96 3e ed 49 c7 be de 07 cb 3e 1b c7 dc be
       0.2936639 -0.38923588 0.3965444 -0.43120655
0003d0 ec e0 a0 3e 06 bb ee be db 83 d5 3e 77 ea 06 bf
       0.31421602 -0.46627063 0.4170216 -0.52701515
0003e0 7f 22 e4 3e 6c aa 03 bf 0f b1 c8 3e ef 07 ef be
       0.44557568 -0.5143192 0.39197585 -0.4668574
0003f0 a4 35 c9 3e 0a a6 f1 be 4f 60 c4 3e 15 9e c8 be
       0.39298737 -0.4719699 0.38354728 -0.39183107
