rep_theory/batch_experiments/S5_MLP_hidden_dim_32_seed10/model.pt (torch, 94687 bytes, 4 tensors)

W_x f4 [120, 64]
00000000: 1950 38be a01e 73be db46 a5be 0538 aebe
00000010: d0a5 7a3e 9945 40be 2030 6f3e 3be5 c7be
00000020: 94c7 d73e bacf 2fbf 25e6 323f 3f97 423f
00000030: e7f1 343f e83f b33e ff1c 4c3f 9461 613e
00000040: faff c7be d47c 9c3e 32d3 463f f699 f63e
00000050: 7e06 0cbf f991 b4be 280c 353e 28be 243d
00000060: f116 83be 7084 573e e080 8b3c 2961 36bf
00000070: a0f6 0b3f a3de 503f 1775 c13d 8a6b 2e3f
00000080: 0b1f 963b f84e ed3d 5453 3bbf b635 1bbf
00000090: f37e 273f 4de9 babe 179b e1be 3c1a 423f
000000a0: d40c 1d3f 08dd b43e d028 d63e d2e8 6c3e
000000b0: bf70 26be a691 3dbf f94d 20bf ddb4 11bf
000000c0: 4659 483e 7961 0b3f bd54 63be c8bc d43e
000000d0: 8361 0b3f af81 54bd a6c6 323f b73e 07bf
000000e0: 938a 29bd 1bc7 353f 2099 113f 923d b2be
000000f0: 0f37 063f 1bc8 38bf aac6 813e efd3 1f3f
00000100: 9ad7 d23c bef4 183f 9e41 303f 48e7 20bf
00000110: bba9 c43e a19e 2dbf 976a eebe a8aa f8be
00000120: 58bd 243f 231e 1dbf 938f 17bf ff5c bb3d
00000130: 4e95 d9be 9c6f b3be 3a48 4a3e 0401 d93e
00000140: d42d 9c3d 1fc6 81bd 6c62 47bf 7641 403f
00000150: 95ea 5c3e 9abd ecbe efd9 19bf bca6 cabe
00000160: 52b2 0a3d 0536 9cbe dd10 3fbf 4d20 903d
00000170: ab2f 4a3f a346 a1bd 19b5 923b 2db8 023f
00000180: 0eca bebd 9f32 63be 8ade a43e 4196 04bf
00000190: 7c18 d3be 31e9 453f 1ceb 2f3f a4eb 213f
000001a0: e2b4 e03e 9c79 19bf f608 3e3f d699 603f
000001b0: 6d66 f5be a394 e83e fd0a b53e 5445 f5bc
000001c0: c223 21bf 7f06 0abe 00f7 87bd 2491 2d3e
000001d0: 6046 d43e 814e 80be 2db8 b9be 5ff7 e3be
000001e0: c326 f93e 3074 63be 98c5 13bd 8390 f23e
000001f0: 8291 c03e 2bab 3d3f a666 fa3e e15b 843e
00000200: 8907 cb3e 248c 873e 46b4 433f 77fe 013f
00000210: 2707 6fbc d453 2bbf d656 b2be fc72 d8be
00000220: f253 523e 33b8 383f 135f 3bbb 2c38 493f
00000230: 06bd 42bf 2e5a e03e 351b 38bf 9422 943e
00000240: 9b8e 0d3f 9ff2 3b3f 4ea6 35bf 0cf9 9c3b
00000250: 7188 aabe 2e05 abbe ce76 323f e6fa 3d3d
00000260: bc6b 2abf 0940 f0bd 5d26 033f bdc2 883e
00000270: 5ba3 0e3f 5c4e d83d d1d2 c2bc 3bca a2be
00000280: ca7d 1c3c f4a0 f8be 1f9b c4be c1c8 ef3e
00000290: 573d 5d3e d935 babe debd 253e 43db 07be
000002a0: 80c9 d53e d794 ea3e 0baf 133e 5032 a23e
000002b0: bfcc 9f3d a930 d6be 8207 25be d78b e43d
000002c0: 50f3 b53d d2ac 963e a20e 05bf d971 55bf
000002d0: b28d 4e3f 1a1b a6bc 69cd 8e3e d8ee ebbe
000002e0: 2a52 1c3f 6531 41bf 600c 52be acbd 1d3f
000002f0: a24b 383f 129b 01bf 6f67 44bf 7ed9 d03d
00000300: edcb cb3e aa7e 19bf f8a6 72be 3090 83be
00000310: 8741 853e a1dd c2bc 7701 31bf c94b 323f
00000320: 05c9 a53e 40b1 04bf fd6f 2bbf 3d20 9abe
00000330: 0d73 26bf a101 033f 3a0c 41be 3724 ce3e
00000340: 0e1b 043f b08c 1fbf 1e8f 1cbe 2164 2fbf
00000350: 1215 68bd 07f3 c3be bcd8 abbe c15d ef3e
00000360: 2543 87be 8c0c 0c3f 2308 823e 3fab f83e
00000370: c500 53be 9b15 093f a8ef e43e ab2a 2cbf
00000380: b493 0dbf 1431 e2be 7127 47bd c90a 403e
00000390: 4924 843e 3ede d3be 8f5a 3abf b1c7 073f
000003a0: 6ff8 7dbd a74b 3cbe 5123 12bf 5063 0c3f
000003b0: 7494 47bf 4a02 d53e 463c b43e 2058 113e
000003c0: 022f b33e 24c0 443f bf99 55be 16a0 7bbe
000003d0: 898b dd3e 09cf 063f 60d1 21bf 6012 e93c
000003e0: 7e91 153f f81b bc3e ab04 cd3e 6658 8c3e
000003f0: 188b c0be 59ea dcbe 0e67 2dbf b890 033f
-0.17999305 -0.23742151 -0.3228062 -0.34027115 0.24477315 -0.1877655 0.23358202 -0.39042076
0.42144454 -0.6867634 0.6988242 0.76012033 0.70681614 0.35009694 0.79731745 0.2200988
-0.39062482 0.30563986 0.7766601 0.48164338 -0.54697406 -0.35267618 0.17680418 0.04022041
-0.2560344 0.21046615 0.017029226 -0.71242005 0.54673195 0.81589717 0.09446161 0.6813284
0.0045813373 0.11587328 -0.73174024 -0.6062883 0.65428084 -0.3650612 -0.44063637 0.7582128
0.613477 0.35324883 0.41828012 0.23135689 -0.16253947 -0.74050367 -0.62618977 -0.569166
0.19565305 0.54445606 -0.22200294 0.4155028 0.54445666 -0.05188149 0.69834363 -0.5283007
-0.04139192 0.71006936 0.56874275 -0.348126 0.5242776 -0.72180337 0.2534688 0.6243276
0.025737572 0.59748447 0.68850124 -0.6285291 0.38410744 -0.67820174 -0.46565697 -0.485677
0.64351416 -0.6137411 -0.5920345 0.09148597 -0.42496723 -0.3504609 0.19754115 0.42383587
0.076259285 -0.06336617 -0.77884555 0.75099885 0.21573861 -0.46238405 -0.60098165 -0.39580333
0.033861466 -0.30509964 -0.74635106 0.07037411 0.78978986 -0.07874801 0.004477155 0.5106228
-0.093158826 -0.22187279 0.32201034 -0.5179177 -0.41229618 0.77308947 0.68718123 0.63250184
0.43888003 -0.59951186 0.74232423 0.87734735 -0.47929707 0.454259 0.35359946 -0.029940285
-0.6294519 -0.1347904 -0.066389084 0.16949898 0.41459942 -0.25059894 -0.36273327 -0.44524667
0.48662385 -0.22212291 -0.036077112 0.4737588 0.37611014 0.74089307 0.4890644 0.25851348
0.39654186 0.26474106 0.7644695 0.5077891 -0.014589108 -0.66924787 -0.34831876 -0.42275226
0.20539835 0.72156066 -0.0028590604 0.78601336 -0.76069677 0.43818802 -0.71916515 0.2893263
0.55295724 0.73417085 -0.70956886 0.004790431 -0.33307222 -0.3340239 0.6971253 0.046381854
-0.6657064 -0.11730964 0.5123041 0.26711074 0.5571801 0.10561821 -0.023782166 -0.31794915
0.009551475 -0.48560297 -0.38399598 0.4683285 0.2160543 -0.36369208 0.1618571 -0.13267235
0.41755295 0.4581668 0.14422242 0.3167901 0.07802724 -0.41834 -0.16116145 0.11159485
0.08884299 0.29428726 -0.5197545 -0.8337684 0.8068496 -0.020276595 0.2789109 -0.4608066
0.6106287 -0.75465995 -0.20512533 0.6161754 0.71990407 -0.50627244 -0.7672033 0.10197733
0.3980402 -0.599589 -0.23696506 -0.25695944 0.26026556 -0.023787322 -0.6914286 0.6964689
0.32379928 -0.5183296 -0.66967756 -0.3010272 -0.65019304 0.5117436 -0.1885232 0.40262005
0.5160378 -0.6232405 -0.1528897 -0.6851216 -0.05666072 -0.38271353 -0.33563793 0.46751216
-0.26418415 0.54706645 0.25396833 0.4856815 -0.20605762 0.5354859 0.44714093 -0.67252606
-0.553035 -0.4417807 -0.0486216 0.18754114 0.25808933 -0.41380495 -0.7279443 0.5303908
-0.062004503 -0.18388234 -0.5708514 0.5483904 -0.77960896 0.4160331 0.35202235 0.14193773
0.34996802 0.76855683 -0.2085943 -0.24572787 0.4327052 0.5265966 -0.63210106 0.028451145
0.5842513 0.36740088 0.40042624 0.27411193 -0.3760612 -0.43147543 -0.67735374 0.513927

W_y f4 [120, 64]
00000000: 2b22 173f 689f 08be 1593 e93e e981 35bf
00000010: 2dfd f8be d4ad 9bbd a0d0 05bf 3442 00be
00000020: e53e 013e 50df 56be bb6e 02bf 20a9 37bf
00000030: e3d2 a3be 0c5c 0cbf 3031 3cbf 5a41 0ebf
00000040: 8254 053f c065 0bbf 4e44 e2be 244e fc3e
00000050: 3817 053f 8077 31bf 5b9d 28bf 142b 383e
00000060: 7fc6 cdbe b8e6 b73e 702e a1be c944 fa3e
00000070: 045a 51bf 1723 063f 9181 fabe bb43 84be
00000080: a901 e4be de7b 543f 1908 32bf dd68 08bd
00000090: 7c08 bdbd fc3a cebe 9f86 1ebf 8c23 3dbf
000000a0: 1d71 c03e 0640 08bf 9b74 aabe e9c2 4dbf
000000b0: 7bde 3d3f 9002 f03d b268 e93e 4e6c 153f
000000c0: 9f92 2cbf f814 91bc 207a b1be 90a0 b0bc
000000d0: 27ca 1d3f 2c11 d3be ecd7 e23e 8570 27bf
000000e0: 4c9b 8b3c 8a7a 14bf b02b 6fbe 0005 fdbd
000000f0: 69d1 79be ccdd cabe ff81 eabd 28bd f7bd
00000100: ee46 0d3f 8f74 44bf f503 04bf 2c1a 5e3d
00000110: e177 0a3f 8dc9 2c3e c804 0c3f ae61 97bd
00000120: 962a 8a3e 0a95 b7bd a028 3ebf 4302 9d3e
00000130: ea20 983e 2a92 e93d f5c8 0cbf 3cf6 8b3d
00000140: 353e 2a3f c1a2 ec3e 85c0 ee3e 99aa 1e3f
00000150: bfe8 263e ca87 c43e 8f35 31bf 7407 2b3f
00000160: 6271 103f 321e 16be 02c7 39bf ada9 d6be
00000170: 3366 9ebe 5d6d 28bf 103f ddbe 073a 023f
00000180: dc5d 083f a399 2abf 1a1e 1cbf 6c54 17bd
00000190: 5465 f9be 6f1a 2fbf d311 33bf 877e 093e
000001a0: e4d5 733e 72ce 3d3f 6501 143f abe1 14bf
000001b0: 522b ab3e 7399 2c3f 89d3 5f3e 5d6f 47be
000001c0: 0934 f53e 443b 3bbe 4e2b b23d 8786 1bbf
000001d0: d51d 41be c27e 063e 14ad b33e d6d1 c53d
000001e0: 10fc 9dbe c4c5 4ebd 0aac 353e 4937 e63e
000001f0: da5d a3bd 5ed6 dbbe ae41 cb3d 9bb8 a4be
00000200: 4d40 f83e 7dcc 4cbf 28e5 1b3f bdd4 ff3c
00000210: b1a0 0bbf 6329 2b3f 7c54 c2be b1c0 493f
00000220: c6c2 55bf c909 2fbe 27d4 11bf 1a92 eabd
00000230: 86bc 19be 32f7 093f 1b1a 36bf ea9b 85be
00000240: 5901 4a3f 978c 213e f9eb 4fbe e281 53bf
00000250: 402a 3bbf 5d6b 073f 732a fbbe 928a e4be
00000260: 6418 ebbd 6c39 14bf 2eed 1d3f 885b 0dbf
00000270: e38b 413f 93e1 febd b51b 183f b4e7 3a3f
00000280: dace b23e 1599 9a3c 606d 42bf d377 033f
00000290: e813 683e 58a2 863e 4e80 dc3e 081a 2ebf
000002a0: c89f 023f 5079 3e3f 6306 163f 8844 38be
000002b0: ebc4 403f 21e4 27bf fa51 9c3e 04af 9e3e
000002c0: 9cd9 0e3f d247 58bf 03a4 b13e 7e58 343f
000002d0: 4d9f 3ebf fb35 d6be f96d cc3d 04e7 ff3d
000002e0: 0c38 06bf acb7 fabe e3cf 02bf a98c f2bd
000002f0: e13a 2dbf 1ac4 0b3f d3a8 94be 0d63 d5bd
00000300: 65aa c2bd b5bf 743e 9d28 5cbe ad41 053f
00000310: 01e6 843e c5e0 063d a196 dabe f02f 06bf
00000320: a255 5f3e ab05 de3d 5893 a43e 50fb 01bf
00000330: 70d4 cbbe 2689 2e3f 93e8 7d3e db38 3c3f
00000340: 75aa 33bd dd8a 36bf 13a9 a53e 4f78 3a3f
00000350: 8158 a03d e59f 8c3e b7a7 dfbd b249 f6be
00000360: 221f f4bd 9bd9 873e 71a3 d4be 84ec fb3e
00000370: 29ff f23e 4530 173f be2b febe 04c1 c6be
00000380: 25f0 01bd 59a1 2e3e 9b62 b4be 7cc9 1d3e
00000390: 05a3 b03e 951e 94bb 6989 09be 82e0 b53e
000003a0: 57ad 88be ea44 31be 10fc bebe e604 8f3e
000003b0: 1f4e 903d cd68 dfbe a80c 4c3f 4f38 4d3e
000003c0: 60b5 16bf 32b2 d2bd 3a1c a63d 7068 08bf
000003d0: 9b1e c4be e7cf fabe 8af9 0ebf 4db3 c8be
000003e0: 7036 68bd 3065 babe 78c5 8b3d 8a35 4a3e
000003f0: 19ef 193f c609 ecbe c75b 19be 7fb0 0e3f
0.5903651 -0.13342059 0.45620027 -0.7090135 -0.48630658 -0.076015145 -0.5227146 -0.12525254
0.12621649 -0.20983624 -0.5095021 -0.7174244 -0.3199683 -0.5482795 -0.73512554 -0.5556847
0.52082074 -0.54452133 -0.44192737 0.49278367 0.51988554 -0.6932297 -0.65865105 0.17985183
-0.40190503 0.35918212 -0.31480742 0.48880604 -0.8177798 0.5239729 -0.48926976 -0.25832924
-0.44532517 0.83001506 -0.69543606 -0.03330313 -0.09230134 -0.40279377 -0.61924165 -0.73882365
0.375863 -0.5322269 -0.33292088 -0.80375534 0.74167603 0.11719239 0.4558769 0.58368385
-0.67411226 -0.017710194 -0.34663486 -0.021560937 0.61636585 -0.4122404 0.4430536 -0.65406066
0.017041825 -0.5799948 -0.23356509 -0.12354469 -0.2439629 -0.39622343 -0.11450576 -0.120966256
0.55186355 -0.76740354 -0.5156854 0.05422418 0.5408917 0.1687376 0.54694796 -0.07391678
0.26985615 -0.08963974 -0.7428074 0.30665788 0.2971261 0.11404832 -0.54994136 0.06834075
0.6650117 0.4621792 0.46631256 0.6197906 0.16299723 0.3838485 -0.6922235 0.6680825
0.5642301 -0.14659956 -0.72569287 -0.41926327 -0.30937347 -0.65791875 -0.43212175 0.5086979
0.5326822 -0.6664068 -0.6098343 -0.036945745 -0.4871012 -0.6839971 -0.6994907 0.13427173
0.23812062 0.74143136 0.5781463 -0.5815684 0.33431488 0.67421645 0.21858038 -0.19476075
0.47891262 -0.18284327 0.08699666 -0.6075215 -0.18859036 0.13134292 0.35092986 0.09659164
-0.3085637 -0.050481573 0.17741409 0.44964054 -0.07976885 -0.42936987 0.09924637 -0.32172093
0.48486558 -0.79999524 0.6089654 0.031229371 -0.5454207 0.66860026 -0.3795508 0.7880965
-0.83500326 -0.17093576 -0.56964344 -0.11453648 -0.15013322 0.53892815 -0.71133584 -0.26095515
0.78908306 0.15776287 -0.2030486 -0.8262006 -0.73111343 0.528982 -0.49055824 -0.4463697
-0.114792615 -0.5790012 0.6169003 -0.5521779 0.75604075 -0.124453686 0.5941728 0.730098
0.3492344 0.018871823 -0.75948143 0.5135471 0.22663844 0.26295733 0.4306664 -0.6800847
0.51025057 0.7440386 0.58603495 -0.17994893 0.7530047 -0.6558247 0.30531293 0.309929
0.55800796 -0.8448459 0.34695444 0.7044753 -0.74461824 -0.4183806 0.09981913 0.124952346
-0.5242927 -0.48968256 -0.5109846 -0.11843235 -0.6766797 0.545961 -0.29035053 -0.10419283
-0.095051564 0.23901255 -0.21499868 0.5205334 0.2595673 0.0329292 -0.42693046 -0.52416897
0.2181001 0.10840925 0.32143664 -0.507741 -0.39810514 0.6817802 0.24795751 0.73524255
-0.043863732 -0.7130564 0.32355556 0.72839826 0.07829381 0.2746574 -0.10920661 -0.481031
-0.119200006 0.26533207 -0.41530946 0.49203885 0.47460297 0.5905803 -0.49642748 -0.38819134
-0.03172316 0.17053737 -0.3523148 0.15408891 0.34499374 -0.004520247 -0.13431324 0.35522848
-0.26694748 -0.17311445 -0.37301683 0.27933425 0.070461504 -0.43634644 0.7970681 0.20041011
-0.58870506 -0.10287894 0.081108525 -0.5328436 -0.383046 -0.48986742 -0.55849516 -0.39199296
-0.05669254 -0.36405325 0.068247736 0.19746986 0.6013046 -0.46101207 -0.14976417 0.5573806

W f4 [128, 32]
00000000: a643 613f 1b85 2e3f 5c7a 4a3f 9389 2fbf
00000010: de53 5cbf 4151 5f3f 6638 543f 70e3 393f
00000020: e22d 1e3f 1ee5 2abf c0d9 373f fb76 31bf
00000030: d620 3b3f 198b 673f 7a46 2e3f 8c38 19bf
00000040: 3203 bdbe e1d4 4bbf 8ac9 c53e 0b7f 3f3f
00000050: 6dd2 0f3e c889 183f 10d3 a13e 182e 49bf
00000060: 2c29 0a3f 02c7 96be 5917 3a3f 462a 7a3f
00000070: 1552 93be 9473 3d3f a392 523f 02b2 c6be
00000080: e343 0e3f 6f7a 353f 53da e23e 368a 3bbf
00000090: 0553 5cbf 4032 6a3f 2a4d 06bf a6c1 0f3f
000000a0: 9f1b 3bbf 6784 37bf dfea 903e ff94 19bf
000000b0: 2677 48be 32cd 77bf 60ff dc3e 7f27 4abf
000000c0: 3669 25bd ecd7 58bf 99d8 253f c965 4fbf
000000d0: 1092 30bf 3f00 19bf e470 2a3e e44f 44bf
000000e0: 73c4 bf3e c2b2 3b3f e6d5 21bf 486e 76bf
000000f0: a3f5 143f cfca 64bf 9a30 563f 5fa2 10bf
00000100: f03c 5e3f 91de 4a3f 4bbe 28bf a904 bbbe
00000110: a3c9 66bf 1d7c 6cbf d358 49bf 8a4b 42bf
00000120: 0d20 f23e cdee 36bf 5022 2b3f 6ef3 223f
00000130: 0649 b53e 1d06 69bf 6151 20bf 332d 3bbf
00000140: 6eb0 e23e 8b72 3ebf f6f9 923e 33fe 49bf
00000150: 7349 523f a268 f2be 40a5 f4be cb6d 2f3f
00000160: 88ba 0e3f c008 023d 4893 4d3f e22a 783f
00000170: 15c4 29bf ee8b 5abf 609e 4e3f b321 5fbe
00000180: a672 453f 4328 4c3f cdc7 30bf fe39 f43e
00000190: e21a 5cbf f60a 6a3f 4ff9 223f ae0b 2d3f
000001a0: 2309 323f 3ae1 22bf 9e39 083f 7c73 003f
000001b0: 87bb 3b3f 76f5 603f a2e0 50bf 16ac 22bf
000001c0: 596d ea3e 8c1b 593f 59b3 3fbf e22d 243f
000001d0: 6550 1bbf 973d af3e eb6d fd3e 15d5 45bf
000001e0: 293b 243f 068b 41bf cc4b 093f a317 773f
000001f0: ca70 1f3f 25d7 51bf 3f80 5abf 2f5a ca3e
00000200: 65f3 533f 008e 4cbf 0c00 ff3e 7fe7 0fbf
00000210: 1fd3 563f 8989 6cbf 087a 333f 9e1c 0a3f
00000220: d6be 243f 687c 1e3f bd2d 433f c73a 4cbf
00000230: 8d9d 41bf 2a3c 52bf d09d 273f 8c0e 1c3f
00000240: 8fad 0b3f cc32 5d3f 1998 1d3f 9114 3abf
00000250: 55b7 133f 84d4 14bf 80b0 4c3f effc 413f
00000260: 9e45 143f 7270 433f 402d 3d3f aa24 713f
00000270: bab6 d0bc 11b1 3f3f eac4 3c3f bdbc 0dbf
00000280: 1177 6bbf 2e82 2b3f 576d 18bf bc14 133f
00000290: 7727 5ebf 9b92 6a3f 6fcb 2fbf 8ba5 0c3f
000002a0: 3402 3f3f c709 28bf 24c9 e53e d0a6 313f
000002b0: 8a24 07bf 754b 543f 28e2 f73e 2868 293f
000002c0: d5d3 22bf b005 513f fb09 353e 20a6 4dbf
000002d0: 44be 21bf 46e8 013f e2e0 2d3f 6818 4a3f
000002e0: 782b 0fbf 9353 3cbf 3b8c 393f a25b 62bf
000002f0: d9a0 13bf 261e 54bf 4bcf 53bf 1924 fcbe
00000300: d1d2 5c3f 9e7f 5dbf d2ae 0ebf c650 ae3e
00000310: 435e 533f e835 6c3f f0cd 1f3f 79fb 073f
00000320: 1df0 3abf 70d7 323f 90d1 d5be 7fce 2cbf
00000330: e688 2f3f bdf3 5cbf e34d 183f 2acb 423f
00000340: 2ada cd3d d02b d5be 1cf5 2b3f 71dd 3a3f
00000350: 4b7c 52bf d30b f7be 8da1 f8be 536d 4c3f
00000360: 3774 073f f16b 3bbf e1d6 35bf 1f52 693f
00000370: abf5 35bf ffa9 5abf bcc1 5f3f 0570 e4be
00000380: 7cd6 4c3f 55f8 24bf 552f 193f c4e9 20bf
00000390: c5e0 5b3f 1345 6fbf 13a6 523c 19b1 383f
000003a0: 7343 443f 31dd 093f 8ab9 50be 961e 08bf
000003b0: e9ee 1cbf 0454 753f 8577 0c3f 434d 063f
000003c0: 0eb9 653e 9329 493f c84d 07bf ac91 2dbf
000003d0: bd2a 3c3f f844 253e 724b 0ebf fc54 083d
000003e0: 9e80 30bf 8877 013e c834 46bf 6fd9 763f
000003f0: 3947 2b3f 54e5 693f 4ecd 59bf 6726 153f
0.8799385 0.6817185 0.79092956 -0.68569297 -0.8606547 0.8723336 0.8289856 0.7261267
0.6178876 -0.66755855 0.71816635 -0.69322175 0.7309698 0.9044662 0.6807629 -0.5985191
-0.369165 -0.796217 0.38630325 0.7480323 0.14045115 0.5958524 0.3160634 -0.7858596
0.53969073 -0.29448706 0.72691876 0.97720754 -0.2877356 0.74004483 0.82255 -0.38807684
0.55572337 0.70889944 0.44307193 -0.7325777 -0.8606418 0.91482925 -0.52461493 0.5615486
-0.7308902 -0.71686405 0.28304192 -0.59992975 -0.19576702 -0.9679748 0.43163586 -0.78966516
-0.04038354 -0.8470447 0.64783627 -0.81014687 -0.68972874 -0.59766 0.16644627 -0.76684403
0.37454566 0.7331964 -0.6321701 -0.96262026 0.5818731 -0.8937196 0.8366791 -0.5649776
0.86811733 0.7924586 -0.65915364 -0.36526993 -0.90151423 -0.9237688 -0.7865116 -0.75896513
0.47290078 -0.7145813 0.6684923 0.63652694 0.35407275 -0.91024953 -0.62624174 -0.73115844
0.4427523 -0.7439353 0.2870633 -0.789035 0.82143325 -0.47345454 -0.47782326 0.68526906
0.55753374 0.031746626 0.8030286 0.96940434 -0.6631482 -0.85369766 0.8071041 -0.21790199
0.77128065 0.79748935 -0.6905487 0.47700495 -0.8597852 0.91422975 0.63661665 0.67595947
0.6954519 -0.6362492 0.53212917 0.50176215 0.7333302 0.87874544 -0.8159276 -0.6354383
0.4578655 0.8480766 -0.7488304 0.6413251 -0.6066955 0.34226677 0.49497923 -0.7727826
0.6415277 -0.7560276 0.5363128 0.9652044 0.6228148 -0.8196891 -0.8535194 0.3952193
0.82793266 -0.79904175 0.49804723 -0.5621261 0.83915895 -0.9239736 0.7010808 0.53949916
0.6435369 0.6190858 0.76241666 -0.7977719 -0.7563103 -0.82123053 0.6547518 0.60959697
0.54561704 0.86405635 0.6156021 -0.7268763 0.5770162 -0.58136773 0.7995682 0.7577657
0.5791873 0.7634345 0.7389717 0.9419657 -0.025477756 0.74879557 0.73737967 -0.55366117
-0.91978556 0.66995513 -0.5954184 0.57453513 -0.8677897 0.9162995 -0.6866979 0.549401
0.74612737 -0.6563992 0.4488002 0.6939516 -0.5279013 0.8292764 0.4841473 0.66174555
-0.6360448 0.81649303 0.17679588 -0.8033161 -0.6318095 0.50745046 0.6792127 0.7894349
-0.55925703 -0.73565024 0.724796 -0.8842107 -0.5766731 -0.828585 -0.8273818 -0.4924629
0.8625918 -0.86522853 -0.55735505 0.34046 0.82565707 0.92269754 0.6242361 0.5311809
-0.73022634 0.6985998 -0.41761446 -0.6750259 0.68568265 -0.86309415 0.59493846 0.76091254
0.10051377 -0.4163499 0.6717088 0.7299414 -0.82220906 -0.4825121 -0.48560753 0.79854316
0.52911705 -0.7321158 -0.71031004 0.9114093 -0.71077985 -0.85415643 0.8740499 -0.44616714
0.8001478 -0.64441425 0.5983785 -0.628567 0.85889846 -0.93464774 0.012856978 0.7214523
0.7666542 0.53853136 -0.20383278 -0.5317167 -0.6130205 0.9583132 0.5486987 0.5246164
0.22433874 0.7857906 -0.5285306 -0.678004 0.73502713 0.1613959 -0.5558387 0.033284172
-0.68946254 0.12643254 -0.7742429 0.9642553 0.6690555 0.9136555 -0.85078895 0.5826172

W_U f4 [32, 120]
00000000: 5ce7 773f 1e08 5bbf edb4 2a3e 0a8b 70bf
00000010: 89c5 733f fdef 66bd bff0 76bf 22a7 4cbf
00000020: 8474 303e a105 613e 5f44 63bf cfb2 7fbf
00000030: 45fc b03d ab0b 5b3f b25a 71bf c69f 5c3e
00000040: 44d9 55bf 51a9 783f b91b 0e3f 2e93 a83d
00000050: c992 2e3f 89a2 71bf 8b67 70bf f30a 40be
00000060: 3000 803f 20af 0c3d 83f7 7fbf 53ee 39bd
00000070: 5521 77bf fce3 8bbc 7d69 10be b790 61bf
00000080: 403d 8fbd 39f5 683f b44c 993e deaa 963e
00000090: fb02 71bf 6fe4 7f3f e5d7 5bbf 7bdb 163e
000000a0: 1992 7d3f 8b83 50bf 7014 863e e978 56bf
000000b0: d4c4 453f 1316 5f3e 0f71 3ebf e85d 68bf
000000c0: 42c7 0c3e 8dd3 dd3e f549 69bf f7a7 70bf
000000d0: bdab 153e 5549 793f b660 71bf 00f1 17bd
000000e0: c336 4dbf 2155 103f fd42 4b3e cee5 633e
000000f0: 8248 5f3f 14e9 03bf f315 4ebf 8995 7c3e
00000100: 8c16 7b3f 6ec4 3e3e 5d61 3fbf e2ea 023f
00000110: 2fb5 64bf 4818 5fbd f7fb a93d 878f 58bf
00000120: 1637 773e 4af7 7f3f 8c1e 973d 151f 0c3d
00000130: b8d5 75bf e1c4 7f3f b273 7fbf 889e f93e
00000140: 3288 553f f704 4bbf f322 0f3e 6787 173f
00000150: 1cf5 283f 1cb0 57bf f441 56bf c8bf 813e
00000160: d234 a43d cff8 7fbf c007 913e ae61 29bf
00000170: a106 6bbf d096 7e3f 0e9b 203e 9a75 7bbf
00000180: a8f1 77bf d25d 5e3f 84db b83e 1273 53bf
00000190: 161a 523f 7bf5 62bf b148 5f3d 6c33 623e
000001a0: c8b7 743f 3062 7dbf 9d69 79bf e043 c33d
000001b0: 8087 f03c bcbf 33bf 9ffa a8bd 9ff4 6dbf
000001c0: f4d9 54bf 4f28 f63e a7eb b53e 924d 61bf
000001d0: e5ef 7fbf 0347 6c3f 0641 3c3e 75ef 7fbf
000001e0: 1f0c d53d 1057 6d3f 3c0b 213d a59b cf3d
000001f0: 609d 6a3f b2f5 493e 26fd 7fbf 8f8b 0a3f
00000200: f79b 21be b6b5 783f 9d24 413e 894a 38bf
00000210: 12a7 ae3e b24f 08bf 82a8 db3e 0b40 3abf
00000220: acf6 7f3f 2363 e03d 7d31 aabe cf22 23be
00000230: b034 60be cbf9 2d3e ab95 cd3e 6736 1fbf
00000240: 8bee 8c3e 69be 19bf d271 12bf e945 123e
00000250: fc8f 48bf 4b7d 83bc 9a53 fa3e 90a6 8e3e
00000260: d6ff 333e f0df a73e f8a0 6c3f cec5 7f3f
00000270: 68d9 4dbf b1ec 92be c700 803f 2eb5 033f
00000280: 4be9 7f3f 8a0a 443f 052e f53e 29e7 e43b
00000290: c233 2abf f55a 553c e77a 2d3e 947c 293e
000002a0: 066a 133f efb5 4e3f 706a 46bf 37ac 913d
000002b0: a104 e93e f892 08be 7316 76bf f1e6 7fbf
000002c0: 6d69 0f3f 1fdd 4abf 3f77 6bbf ba9c 74bf
000002d0: 5789 053f 3ade 7f3f d35e 653f 39ee 2d3e
000002e0: d999 1d3f 83b0 33bf aab2 f0be a7da 6f3f
000002f0: df71 863d d501 f2be 8292 673f e536 d23e
00000300: 05f6 35bf 2d4d 22be 6837 f63e d4f8 7f3f
00000310: 3ee8 9ebe a5b9 083f eaee a7be a2a7 623f
00000320: 9bf0 02be 38a4 49bf 12a0 353f 53d7 1f3f
00000330: 7478 48bf c21b c03e bde3 453f 9834 bbbe
00000340: 4143 3ebc 5f3b afbe 4a86 113f ec6e 3b3f
00000350: 35f4 fdbe aad3 11be c3d0 10bf e7c5 3a3f
00000360: a62e 66bf 4151 16be 433d e73d 31a6 b93e
00000370: 68bc 0cbe a7a6 5cbf d8e8 1d3c 52df 973e
00000380: 4dfb 7fbf 7095 173f 5b4f bf3e f235 4abf
00000390: 444e 78be 089c 7e3f f0ff 7fbf 4ae6 96be
000003a0: 94b4 13bf f0af 75bf e6b6 02bf 4d36 55bf
000003b0: 732e c4be 41fc bfbd d949 443e 8d01 80bf
000003c0: 4f16 fc3e 57b8 02bf eec2 373f 73cb a6bc
000003d0: e558 2a3f 6522 41bd b7c9 5ebe 73d6 113e
000003e0: 9c59 dabe c6c9 9dbd 70dd 033f a2e5 29bf
000003f0: fadf 7e3f e5d3 debe f4ad 093f 4520 c7be
0.968374 -0.8555926 0.1667058 -0.93962157 0.9522329 -0.056381214 -0.964611 -0.79942524
0.17231947 0.21974804 -0.887762 -0.99882215 0.086418666 0.8556468 -0.94279015 0.21545324
-0.83534646 0.97133356 0.5551105 0.08231197 0.68192726 -0.94388634 -0.93907994 -0.18754177
1.0000057 0.0343467 -0.9998705 -0.0453933 -0.96535236 -0.017076485 -0.1410274 -0.8811144
-0.069941044 0.9099918 0.29941332 0.29427236 -0.9414517 0.99957937 -0.85876304 0.14732163
0.9905105 -0.8145072 0.26187468 -0.83778244 0.7725346 0.21785764 -0.74391264 -0.9076829
0.13747886 0.43325463 -0.91128474 -0.94006294 0.14616294 0.9737752 -0.94288194 -0.03709507
-0.80161685 0.56379896 0.19849773 0.22255632 0.87220013 -0.51527524 -0.8050224 0.24666418
0.9808128 0.1862962 -0.7475794 0.5113965 -0.89338964 -0.054466516 0.083000116 -0.84594005
0.24142107 0.9998671 0.07378873 0.03420933 -0.96029234 0.9990979 -0.9978591 0.48753762
0.8341094 -0.7930445 0.13978176 0.5919098 0.6599901 -0.84253097 -0.83694386 0.2534163
0.08017887 -0.99989027 0.28326225 -0.6616467 -0.9180699 0.9944887 0.15684149 -0.9822632
-0.96853113 0.8686191 0.36104977 -0.8259746 0.82071054 -0.88655823 0.054512683 0.22089928
0.9559293 -0.9897795 -0.9742678 0.095344305 0.029361486 -0.7021444 -0.08250927 -0.9295139
-0.8314507 0.48077628 0.3553135 -0.8800899 -0.99975425 0.92295855 0.1838418 -0.9997476
0.104027025 0.9271097 0.039317355 0.10137109 0.91646385 0.19722632 -0.9999565 0.541192
-0.15782152 0.9715227 0.18861623 -0.7198873 0.3411184 -0.53246605 0.42902 -0.7275397
0.99985766 0.10956409 -0.33240882 -0.15931247 -0.21895099 0.1698982 0.4015325 -0.62192386
0.27525744 -0.6005617 -0.57204926 0.14284481 -0.783447 -0.016050955 0.48891908 0.27861452
0.17578062 0.32788038 0.9243312 0.999112 -0.8040986 -0.28696206 1.0000237 0.51448333
0.9996535 0.7657858 0.47886673 0.0069855643 -0.66485226 0.013022174 0.16941415 0.16551429
0.57583654 0.8074636 -0.7750616 0.071129255 0.45511344 -0.13337314 -0.96128005 -0.99961764
0.5602024 -0.79243654 -0.9197883 -0.95551646 0.5216269 0.99948466 0.89597815 0.16985406
0.6156288 -0.7019121 -0.4701131 0.9369301 0.06564688 -0.47267023 0.9045793 0.41057506
-0.7107852 -0.15849753 0.48089147 0.99989057 -0.31036562 0.5340827 -0.32799464 0.8853704
-0.12787096 -0.787662 0.7094737 0.62437934 -0.78308797 0.37521178 0.77300626 -0.36563563
-0.011612714 -0.34224984 0.56845534 0.7321613 -0.49600378 -0.142409 -0.56568545 0.72958225
-0.8991493 -0.14679433 0.112909816 0.36259606 -0.13743746 -0.8619179 0.009638034 0.29662567
-0.9999283 0.592124 0.3736523 -0.78988564 -0.24248606 0.99456835 -0.99999905 -0.29472572
-0.57697415 -0.95971584 -0.5106033 -0.8328598 -0.38316688 -0.093742855 0.19168796 -1.0000473
0.4923577 -0.5106253 0.71781814 -0.020360684 0.6654189 -0.04715194 -0.21756636 0.14241962
-0.42646492 -0.07704501 0.5150976 -0.66366017 0.9956051 -0.43521038 0.53781056 -0.38891807
