rep_theory/1L_MLP_sym_S4_cached/model.pt (torch, 325151 bytes, 4 tensors)

W_E_a f4 [24, 256]
0	0x3e42c0aa	0.19018808
1	0xbe868cc9	-0.26279286
2	0x3e81cfca	0.25353843
3	0xbe6f8af3	-0.23392849
4	0x3e61abf6	0.22038254
5	0x3dab97c3	0.083785556
6	0xbe36b9b3	-0.17844276
7	0xbe639d10	-0.22227883
8	0xbe839681	-0.25700763
9	0xbd436e92	-0.04771287
10	0x3e4d07b1	0.20022465
11	0xbe2aaaf1	-0.16666771
12	0xbe3f2b0c	-0.18668765
13	0xbda9a63a	-0.08283658
14	0xbe898c61	-0.26864913
15	0x3d1e9154	0.038712814
16	0xbe6d4881	-0.2317219
17	0x3e68c51e	0.22731444
18	0xbca1c848	-0.019748822
19	0x3e5b6ac1	0.21427442
20	0xbe984469	-0.29739693
21	0x3e29af60	0.16570807
22	0xbe0e9d7b	-0.13927262
23	0x3e7d849f	0.24757622
24	0xbe391157	-0.18073021
25	0x3dd9bbc0	0.106315136
26	0xbd85316d	-0.06503568
27	0x3e1c32e2	0.15253785
28	0x3e933817	0.2875373
29	0xbce66736	-0.028125387
30	0xbd850bbc	-0.06496379
31	0x3c8fb0f9	0.017540442
32	0xbe6eb016	-0.23309359
33	0x3d6e9f92	0.058257647
34	0xbe5b6237	-0.21424185
35	0x3d988556	0.07447307
36	0x3e63466c	0.22194833
37	0x3dd645ef	0.104625575
38	0xbe8ae8a1	-0.27130607
39	0x3e7606cb	0.24026029
40	0xbdcb1d6c	-0.09917721
41	0x3d7535f5	0.05986591
42	0x3e8dbde9	0.27683952
43	0xbe0c5798	-0.1370529
44	0x3d0d3e85	0.03448345
45	0xbc8c1953	-0.01710192
46	0xbe8db027	-0.27673456
47	0xbdff7550	-0.124735475
48	0xbe240724	-0.16018349
49	0x3e50f4aa	0.20405832
50	0x3e91e4f9	0.28495005
51	0xbd1b4de2	-0.03791607
52	0x3e6f76d5	0.23385175
53	0x3e90d94c	0.28290784
54	0x3e117fe8	0.14208949
55	0xbd32a450	-0.04361373
56	0x3e126068	0.14294589
57	0x3e6a283e	0.22866914
58	0x3e59cd25	0.21269663
59	0x3e1f144a	0.15535083
60	0x3e5b24c4	0.21400744
61	0x3e3cd4ad	0.18440504
62	0x3e7560d1	0.23962714
63	0x3e5bfbdb	0.21482794
64	0x3dfc8313	0.12329688
65	0xbe400d61	-0.18755104
66	0xbd24ad12	-0.040204115
67	0x3e243bdd	0.16038461
68	0xbe6a0fbd	-0.22857566
69	0x3e685d94	0.22691947
70	0x3e2d6b6f	0.16935514
71	0x3e17840a	0.14796463
72	0xbe7c6db7	-0.24651228
73	0xbe120e2c	-0.14263219
74	0xbe8191ec	-0.25306642
75	0xbe668af9	-0.22513951
76	0x3e6ae6dd	0.2293963
77	0x3e69d84d	0.22836418
78	0xbe4eec9a	-0.20207444
79	0x3e4be7a5	0.19912584
80	0x3e57abb1	0.21061589
81	0x3dbc3ce0	0.091912985
82	0x3ea26807	0.31719992
83	0xbe3db915	-0.18527634
84	0xbe0d5d9e	-0.13805243
85	0x3e4e3c26	0.20140132
86	0x3e8bf3a9	0.27334335
87	0xbe890bac	-0.26766717
88	0xbe6857da	-0.22689763
89	0xbe5ce8d6	-0.21573195
90	0x3e6a2fe0	0.22869825
91	0x3e717525	0.23579843
92	0x3e6e8eee	0.23296711
93	0x3e9e6778	0.30938315
94	0x3cb5e6c5	0.022204766
95	0x3e2a9a32	0.16660383
96	0x3e4dc680	0.20095253
97	0x3de30b79	0.110861726
98	0x3e81cd61	0.25352004
99	0x3e5bed1b	0.21477167
100	0x3e5a40c7	0.21313773
101	0xbe61aa43	-0.22037606
102	0x3e3b92d5	0.1831773
103	0x3db9a055	0.09063784
104	0x3e345123	0.17609076
105	0x3c434fd2	0.011920886
106	0x3e8feee8	0.28111959
107	0xbdcea8c3	-0.100907825
108	0x3db09b70	0.08623397
109	0xbe5b6350	-0.21424603
110	0x3e812d36	0.25229806
111	0x3e4bf2cf	0.19916843
112	0x3d95faaf	0.07323205
113	0xbe63a072	-0.22229174
114	0x3e4bdcb9	0.19908418
115	0x3d297766	0.041373633
116	0xbe3b91a7	-0.1831728
117	0xbe69f077	-0.22845636
118	0x3e244f4f	0.16045879
119	0x3e438754	0.19094592
120	0x3e6cfcf3	0.23143367
121	0xbdde7bcd	-0.10863457
122	0x3defa108	0.11700636
123	0xbe0c1180	-0.1367855
124	0x3e3ac011	0.1823733
125	0x3e9323dd	0.287383
126	0xbe5b21c8	-0.21399605
127	0xbe37f03a	-0.17962733
128	0xbe02ed69	-0.12785877
129	0x3e618af4	0.22025663
130	0x3d51e7f9	0.051246617
131	0x3e88b79e	0.2670259
132	0xbdf60331	-0.120123275
133	0x3e3fab1a	0.18717614
134	0xbe927f9d	-0.28612986
135	0x3e3e9792	0.18612507
136	0xbe34f6fd	-0.17672344
137	0x3de02a97	0.10945623
138	0x3e81199d	0.25214854
139	0x3d9dbbe6	0.077018544
140	0x3e309104	0.17242819
141	0x3e67502b	0.22589175
142	0xbe3c2b9f	-0.18376015
143	0x3e587b2a	0.21140733
144	0xbe9327d5	-0.28741327
145	0x3e76a144	0.24084955
146	0xbdce5867	-0.10075455
147	0xbe3dc23a	-0.18531123
148	0x3e76ab94	0.2408889
149	0x3ca878fb	0.0205655
150	0xbe6e7cb6	-0.23289761
151	0x3e3cc418	0.18434179
152	0x3e2d2e7f	0.16912268
153	0xbe757550	-0.23970532
154	0xbe41ad30	-0.18913722
155	0x3e80e3fc	0.25173938
156	0xbe27da57	-0.16391884
157	0xbe25b58c	-0.16182536
158	0xbdc495d9	-0.09598894
159	0xbe6f6a86	-0.23380479
160	0xbe5084fb	-0.20363228
161	0xbdd8a7fe	-0.10578917
162	0xbe8355fc	-0.25651538
163	0xbe83445b	-0.2563809
164	0x3e1724cf	0.14760135
165	0x3e48d1d9	0.196113
166	0x3e7331ab	0.23749416
167	0xbca2690f	-0.019825486
168	0xbe44a277	-0.192026
169	0x3d925422	0.07144953
170	0x3da59348	0.08084732
171	0x3e89df93	0.26928386
172	0x3e792ddc	0.243339
173	0xbe383dca	-0.1799232
174	0x3d0d66f2	0.034522004
175	0x3dc4a7aa	0.09602292
176	0xbddd0766	-0.10792427
177	0x3e5d495a	0.21610013
178	0xbe86b12b	-0.26307043
179	0xbe2c328d	-0.16816159
180	0x3e623b9f	0.22093056
181	0x3e408acb	0.18802945
182	0xbe272508	-0.1632272
183	0xbbfae30d	-0.007656461
184	0x3e66e6a3	0.22548918
185	0x3d9886b3	0.07447567
186	0x3e660c89	0.2246572
187	0x3e781a39	0.24228753
188	0x3e1e1acb	0.15439908
189	0xbe9378da	-0.2880314
190	0xbd760dd0	-0.060071766
191	0x3ddce465	0.1078575
192	0xbe102e16	-0.1408008
193	0x3e8215d0	0.25407267
194	0xbdd26aff	-0.10274314
195	0xbe922a19	-0.28547743
196	0x3e711755	0.23544057
197	0xbe30b9e4	-0.17258412
198	0x3e942531	0.28934625
199	0xbdd03f6d	-0.101683475
200	0xbe77bb54	-0.24192554
201	0x3e4b68eb	0.19864242
202	0x3dfbdd4e	0.1229807
203	0xbdf51e33	-0.11968651
204	0xbe637a85	-0.22214706
205	0xbe60f205	-0.21967323
206	0xbe33a17f	-0.17542075
207	0xbe5b0639	-0.21389093
208	0x3e5b453f	0.21413134
209	0xbd959620	-0.07304025
210	0xbe7ca4f2	-0.24672297
211	0x3e5e7047	0.21722518
212	0x3e6acd79	0.22929944
213	0x3e716d79	0.23576917
214	0xbe61585d	-0.22006364
215	0x3e075569	0.13216175
216	0x3e6b877c	0.23000902
217	0xbd8ded54	-0.06930032
218	0xbe5649e2	-0.20926622
219	0x3d58a4b1	0.052891437
220	0x3e2acf8b	0.16680734
221	0xbe54b64d	-0.20772667
222	0x3d4e3290	0.05034119
223	0xbe6701ab	-0.2255923
224	0x3e9b9b02	0.303917
225	0xba1dbec6	-0.0006017502
226	0xbe8535a4	-0.26017487
227	0x3dae3f4b	0.08508166
228	0xbe0fa4f2	-0.14027765
229	0xbe4162af	-0.18885301
230	0x3d32ee1e	0.043684117
231	0xbe8e1007	-0.27746603
232	0xbe4cb194	-0.19989616
233	0xbdacba7d	-0.08434007
234	0xbe2bb1e5	-0.1676708
235	0xbe732f43	-0.23748498
236	0x3e3968d8	0.18106401
237	0xbe5d6c32	-0.21623304
238	0xbe4decba	-0.20109835
239	0xbe4aacc4	-0.19792467
240	0x3e7044ab	0.23463695
241	0x3dd126f5	0.102125086
242	0xbe414d83	-0.18877225
243	0x3d70bfcd	0.058776665
244	0x3e7360fb	0.23767464
245	0xbdf7b55e	-0.1209514
246	0xbb65f241	-0.0035087022
247	0xbe124fd5	-0.14288266
248	0xbe959f53	-0.29223117
249	0x3e8bbd46	0.27292842
250	0x3e910eb3	0.28331527
251	0x3e91c001	0.284668
252	0x3e31c738	0.17361152
253	0xbe90d25c	-0.2828549
254	0x3e487b7a	0.19578353
255	0x3e31f9ca	0.17380443

W_E_b f4 [24, 256]
0	0x3e1688ce	0.14700624
1	0xbe30943b	-0.17244045
2	0x3e66a6f9	0.22524633
3	0xbe0a658b	-0.13515298
4	0xbe0b5469	-0.13606419
5	0xbe28521b	-0.16437571
6	0x3e0b066c	0.13576669
7	0xbe71b22b	-0.23603122
8	0xbada6636	-0.0016662541
9	0xbe141ae7	-0.14463387
10	0xbe66f83e	-0.22555634
11	0x3e9aea4d	0.30256882
12	0xbe4e0bf9	-0.20121755
13	0xbd02b9de	-0.031915538
14	0xbd7f1609	-0.062276874
15	0xbe1ae988	-0.15128148
16	0x3de23478	0.11045164
17	0x3e2dfc81	0.16990854
18	0xbda13183	-0.07870772
19	0xbe834efc	-0.25646198
20	0xbd177c65	-0.036983866
21	0x3d9cb050	0.076508164
22	0x3e6461fd	0.22303005
23	0x3e174613	0.14772825
24	0x3e80c989	0.2515376
25	0x3e712f92	0.23553303
26	0x3e8a7b6f	0.27047297
27	0x3e542fa2	0.20721295
28	0x3e7296d5	0.2369035
29	0xbd243e92	-0.040098734
30	0x3e1070b5	0.14105494
31	0xbe743dce	-0.23851702
32	0xbdadb59e	-0.08481906
33	0xbe3199e1	-0.17343856
34	0xbe1c93be	-0.15290734
35	0x3e85cc5a	0.2613247
36	0xbe1b0114	-0.1513713
37	0xbd12e5d0	-0.035863698
38	0xbe1f443a	-0.1555337
39	0x3e8ef437	0.27920696
40	0x3e0d4f95	0.1379989
41	0xbe308461	-0.17237999
42	0x3e2323a5	0.15931566
43	0x3e7a0898	0.24417341
44	0xbe52623d	-0.20545287
45	0x3e017ab7	0.12644468
46	0xbe1821b9	-0.14856614
47	0xbe6ed1d6	-0.23322234
48	0xbe6d1b1b	-0.23154871
49	0x3e3e5620	0.18587542
50	0xbe0bcbcd	-0.13651963
51	0x3e1644f3	0.1467474
52	0xbe6ba981	-0.2301388
53	0xbe2df81f	-0.16989182
54	0xbe8eb64f	-0.27873465
55	0x3e4309f0	0.1904676
56	0x3e6ab2cf	0.22919773
57	0x3e4ff19b	0.20307009
58	0xbe12486a	-0.14285436
59	0xbe8328e2	-0.2561713
60	0xbe8c3964	-0.27387536
61	0x3e200628	0.15627348
62	0xbdeff97b	-0.117175065
63	0x3dc120a4	0.09430054
64	0xbe8fbf4c	-0.28075635
65	0x3e64f16d	0.22357722
66	0x3e96b63a	0.29435903
67	0x3e0d76e1	0.1381488
68	0x3e0266d6	0.12734541
69	0xbde4ced3	-0.11172261
70	0x3e319dd6	0.17345366
71	0xbe567b1e	-0.20945403
72	0xbe79ebe0	-0.24406385
73	0xbe750723	-0.23928504
74	0x3e85829b	0.26076207
75	0x3e7211ce	0.23639604
76	0xbdfdb0f3	-0.12387266
77	0x3e7903e8	0.24317896
78	0xbe61cdd8	-0.2205118
79	0x3e3521f7	0.17688738
80	0x3e641695	0.2227424
81	0x3e3ed672	0.18636492
82	0xbe6be68e	-0.23037168
83	0xbd8038ad	-0.0626081
84	0xbe521887	-0.20517169
85	0xbd5da707	-0.054114368
86	0xbdd5b6b0	-0.104352355
87	0xbe7091ab	-0.23493068
88	0x3e3f8c1d	0.18705793
89	0x3d079f51	0.03311092
90	0xbe8aca0d	-0.27107278
91	0x3e337e15	0.17528565
92	0x3dd95884	0.10612586
93	0x3e96b71c	0.29436576
94	0xbe50e471	-0.20399643
95	0xbe116aea	-0.1420094
96	0xbdfdedc1	-0.123988636
97	0x3e10ea07	0.14151774
98	0x3e795a69	0.24350895
99	0xbc068123	-0.0082094995
100	0x3e229abb	0.15879337
101	0x3e754b7d	0.23954578
102	0xbe742c16	-0.23844942
103	0xbe78b2a0	-0.2428689
104	0xbea7dc76	-0.32785386
105	0x3e04ab77	0.12956034
106	0xbe665c52	-0.22496155
107	0x3e81e115	0.25367036
108	0x3e4465db	0.1917948
109	0xbe607e18	-0.21923101
110	0x3e89367c	0.2679938
111	0x3df76d00	0.12081337
112	0xbe90517b	-0.28187165
113	0x3d54bdf4	0.051938966
114	0xbd61dfa7	-0.055144932
115	0xbdd7fdf1	-0.10546482
116	0xbe07af08	-0.13250363
117	0xbe5337a7	-0.20626698
118	0xbdfcce85	-0.12344078
119	0xbe2fe115	-0.17175706
120	0xbe7977c6	-0.24362096
121	0xbe3e6c53	-0.1859601
122	0x3d7b99b2	0.061425872
123	0x3da3d175	0.07998935
124	0x3de47f36	0.11157076
125	0x3e4c38ac	0.19943494
126	0x3e68ac33	0.22721939
127	0x3d8737a7	0.06602412
128	0xbdf8cf26	-0.121488854
129	0x3e4f4d63	0.20244364
130	0xbe78537c	-0.24250597
131	0x3e7675fb	0.24068443
132	0x3e80fe7e	0.25194162
133	0xbe4d0b81	-0.2002392
134	0xbe642a03	-0.22281651
135	0x3e86fc2f	0.26364276
136	0x3d86ef74	0.06588641
137	0xbe210cdd	-0.15727563
138	0xbe8eb96d	-0.27875844
139	0xbe62c322	-0.2214475
140	0x3e71ffa1	0.23632671
141	0x3e3a62ef	0.18201803
142	0x3e86d2d6	0.2633273
143	0xbe14a852	-0.14517334
144	0xbe38833b	-0.1801881
145	0xbe1d49c4	-0.1536017
146	0x3e6c94de	0.23103663
147	0x3e4c62d3	0.19959573
148	0xbe21ff72	-0.15820101
149	0x3d913e6a	0.07091983
150	0xbe919308	-0.28432488
151	0x3e685f2c	0.22692555
152	0xbe484af0	-0.19559836
153	0xbdf154ef	-0.11783778
154	0x3e1f0ea9	0.15532936
155	0xbe9b46fb	-0.3032759
156	0xbe4e26e6	-0.20132026
157	0xbe6c1792	-0.23055866
158	0x3e90c823	0.28277692
159	0x3d78dc44	0.060756937
160	0x3d3fbf55	0.046813328
161	0x3e6490fe	0.22320935
162	0xbda95ba9	-0.08269436
163	0x3e67caeb	0.22636001
164	0xbe45c01a	-0.19311562
165	0xbe65cddb	-0.22441809
166	0xbe208a4b	-0.15677755
167	0xbe912606	-0.28349322
168	0x3e137c80	0.14402962
169	0x3e5c1a67	0.21494447
170	0xbe89b90d	-0.26898995
171	0xbe6cfeda	-0.23144093
172	0xbe1a290c	-0.1505472
173	0xbe14db7d	-0.14536853
174	0x3df6cd3d	0.12050865
175	0xbdf98ca7	-0.121850304
176	0xbe634d79	-0.22197522
177	0x3df6c431	0.12049139
178	0x3e8a4068	0.27002263
179	0x3e61aed4	0.22039348
180	0xbda74959	-0.08168287
181	0xbe789022	-0.24273732
182	0xbe3a019e	-0.1816468
183	0x3e682846	0.22671613
184	0xbe827681	-0.25481036
185	0xbe8c9915	-0.27460542
186	0x3cbc8d4c	0.023016594
187	0xbe707825	-0.23483332
188	0xbdcc242e	-0.09967838
189	0xbe396862	-0.18106225
190	0x3e2e9345	0.17048366
191	0xbe64c066	-0.22339019
192	0xbb7a7b16	-0.0038220338
193	0x3e9278e7	0.28607866
194	0xbe2f448a	-0.1711599
195	0x3e98fa23	0.2987834
196	0xbda105c0	-0.07862425
197	0xbe809ee7	-0.25121233
198	0xbe359c82	-0.17735484
199	0xbe838ab6	-0.25691766
200	0x3e0c5f91	0.1370833
201	0xbe63aefa	-0.22234717
202	0xbd50f2e9	-0.051012907
203	0xbe31725d	-0.17328782
204	0xbe13c5d9	-0.14430942
205	0xbe6f6b4c	-0.23380774
206	0x3e587cd7	0.21141373
207	0xbe51ea36	-0.204995
208	0xbe84512e	-0.25843185
209	0xbe289b3f	-0.16465472
210	0xbdb677f4	-0.08909598
211	0xbe51cc79	-0.20488156
212	0xbe6f4137	-0.23364721
213	0xbe71f73f	-0.23629473
214	0xbbd82946	-0.006596717
215	0x3e66ef46	0.22552213
216	0xbe32dcbd	-0.17467017
217	0x3e545317	0.20734821
218	0xbdeb6d0c	-0.114954084
219	0xbe144080	-0.1447773
220	0x3dc734b0	0.09726846
221	0xbd4d1dce	-0.050077252
222	0xbe6a7864	-0.22897488
223	0xbe61e68a	-0.220606
224	0x3e53b017	0.20672642
225	0xbe34f83e	-0.17672822
226	0x3b8b47f7	0.0042505222
227	0x3e353339	0.17695321
228	0x3d8af776	0.06785481
229	0x3e6ed021	0.23321582
230	0xbe6d9805	-0.23202522
231	0x3e3aa463	0.18226771
232	0x3e89f64f	0.2694573
233	0xbe6c0595	-0.23049004
234	0x3e64f3fd	0.22358699
235	0x3e41346a	0.1886765
236	0xbe866c30	-0.26254416
237	0xbe058f40	-0.13042927
238	0x3e80cb4d	0.25155106
239	0xbe608dc3	-0.21929078
240	0x3d9ea93b	0.07747122
241	0x3dfb8aed	0.12282357
242	0xbe4189ab	-0.18900172
243	0x3d906daa	0.07052167
244	0x3e851561	0.25992873
245	0xbe5d2b0e	-0.21598455
246	0xbe66be32	-0.22533491
247	0xbde92f9b	-0.11386033
248	0x3e1bf201	0.15229036
249	0xbe507b01	-0.20359422
250	0x3cf11200	0.029427528
251	0x3e0ff885	0.14059646
252	0xbe595bc9	-0.2122642
253	0x3e3dbf15	0.18529923
254	0x3e4375ab	0.19087856
255	0xbe933d92	-0.28757912

W f4 [512, 128]
0	0xbdc957f2	-0.09831227
1	0x3dc1a0ea	0.0945452
2	0xbe4b215d	-0.19836946
3	0xbda2b838	-0.07945293
4	0x3d6a5488	0.05720952
5	0x3d6a27ab	0.057166737
6	0xbda0aa38	-0.07844967
7	0x3d14398f	0.036187705
8	0xbc82eca7	-0.015981985
9	0x3e02f85a	0.12790051
10	0x3d58c845	0.052925367
11	0xbd58d9dd	-0.052942146
12	0x3db814b6	0.08988325
13	0xbd195f99	-0.037444685
14	0xbe4ffc58	-0.20311105
15	0x3d8cf8a3	0.06883361
16	0xbcf48ecd	-0.029853249
17	0xbda099a8	-0.078418076
18	0xbdc185ed	-0.094493724
19	0xbcc8e6d7	-0.024524136
20	0xbdac683b	-0.08418318
21	0xbe12a783	-0.14321713
22	0x3d89b40a	0.06723793
23	0x3d8fd33f	0.07022714
24	0x3c93e4d5	0.018053452
25	0x3e0dc550	0.138448
26	0xbddfe1d9	-0.10931749
27	0xbdd7536b	-0.105139576
28	0xbd866fa2	-0.06564261
29	0x3dbc3173	0.09189119
30	0x3e0dc093	0.13842992
31	0x3d96a75b	0.07356139
32	0x3e1282e8	0.1430775
33	0xbced62b4	-0.02897773
34	0xbd3256ef	-0.043539938
35	0x3e3c5ca7	0.18394719
36	0xbd154f38	-0.036452502
37	0x3de7c258	0.11316365
38	0xbd4440a5	-0.047913212
39	0xbce70a16	-0.028203052
40	0x3d193c0e	0.03741079
41	0xbd443b35	-0.047908027
42	0x3de7592a	0.112963036
43	0xbda8abd8	-0.082359016
44	0x3d48eeb7	0.04905578
45	0x3dc9a4f9	0.09845919
46	0xbd8a7cef	-0.067621104
47	0xbdac587c	-0.084153146
48	0xbc700a7d	-0.014650938
49	0xbc6fe494	-0.0146419
50	0x3d326616	0.043554388
51	0x3d5bb577	0.053639855
52	0xbdcf4abc	-0.10121676
53	0x3d2f6c7a	0.04282806
54	0xbda84774	-0.082167536
55	0x3dd3d6c1	0.103436954
56	0xbca34aa7	-0.019933058
57	0x3e1287a0	0.1430955
58	0xbdd341ff	-0.10315322
59	0xbd38016e	-0.04492324
60	0xbd134405	-0.03595354
61	0x3e00eb81	0.12589838
62	0xbe0c1f6f	-0.13683866
63	0xbd5c36d3	-0.053763222
64	0x3e07e044	0.13269144
65	0xbda1dc24	-0.079033166
66	0x3cccbfc3	0.024993783
67	0x3c45156e	0.012029035
68	0x3d8e5551	0.069498666
69	0xbdbf1ac8	-0.0933128
70	0x3e02f2a6	0.12787876
71	0xbc313ddd	-0.010817972
72	0xbd776e94	-0.06040819
73	0xbddfe822	-0.10932948
74	0x3de43220	0.11142373
75	0xbcdd5186	-0.027016412
76	0x3e00e74b	0.12588231
77	0xbda40d68	-0.080103695
78	0xbdc95064	-0.098297864
79	0xbda8add0	-0.08236277
80	0x3de4d771	0.11173905
81	0x3cc6654a	0.02421822
82	0xbd45400c	-0.048156783
83	0xbdf010fe	-0.11721991
84	0x3d506a0b	0.05088238
85	0xbd2a83a8	-0.041629463
86	0xbb69cc29	-0.0035674667
87	0xbdc18766	-0.09449653
88	0xbdd0881b	-0.1018221
89	0x3dc18a14	0.094501644
90	0xbc8dfb3a	-0.017331708
91	0x3c8b6ce7	0.017019702
92	0x3d98f93d	0.074694134
93	0x3db82282	0.08990957
94	0xbcdc1271	-0.026864262
95	0x3dd3d90b	0.10344132
96	0x3df1118d	0.11770926
97	0x3d8fd59e	0.07023166
98	0x3d9ce842	0.07661487
99	0x3d8a37e1	0.06748939
100	0xbda8a945	-0.082354106
101	0xbe12a9c5	-0.14322574
102	0xbd453a95	-0.04815157
103	0xbda40a86	-0.0800982
104	0xbd1e73e0	-0.038684726
105	0x3d89ad5a	0.06722517
106	0xbdc2b4d8	-0.095071495
107	0xbe14d5b5	-0.14534648
108	0x3c93ebde	0.018056806
109	0xbdf00ae4	-0.11720827
110	0x3d58f75b	0.05297027
111	0xbcb3e464	-0.021959491
112	0x3d98f181	0.07467938
113	0x3dcdcbba	0.100486234
114	0x3d8e597f	0.06950664
115	0xbda9b34b	-0.082861505
116	0xbc314bc6	-0.010821288
117	0x3dbf5e8c	0.09344205
118	0xbdd748b9	-0.105119176
119	0x3e07e0a3	0.13269286
120	0x3d0e573f	0.034751173
121	0x3df522ad	0.119695045
122	0x3dd3d1e9	0.103427716
123	0x3dc3f2d3	0.095677994
124	0xbd867296	-0.06564824
125	0xbc8d3804	-0.017238624
126	0x3d8fd880	0.07023716
127	0x3d8e44e4	0.069467336
128	0x3d22fd0e	0.039792113
129	0xbd1ee8b6	-0.03879615
130	0xbc108063	-0.008819672
131	0x3d351e7b	0.04421852
132	0xbe07ee7f	-0.13274573
133	0xbe07e84b	-0.13272206
134	0x3bf83d52	0.0075756693
135	0x3cb26eb8	0.02178131
136	0xbd5a6554	-0.05331929
137	0x3dbb1e34	0.0913662
138	0xbe06c43f	-0.131608
139	0xbd7d781e	-0.06188213
140	0xbde5cc96	-0.11220662
141	0x3e254546	0.16139707
142	0xbc352ee4	-0.011058543
143	0x3da2f868	0.07957536
144	0xbd8061a9	-0.06268627
145	0x3bf80ede	0.0075701317
146	0x3d1f32d1	0.03886682
147	0xbd6996cf	-0.057028588
148	0x3b45caee	0.003018077
149	0xbbe3117f	-0.006929576
150	0x3def1ccf	0.11675417
151	0xbc0e3fc3	-0.008682194
152	0x3d4b7415	0.04967125
153	0x3bee4994	0.007271955
154	0xbdaee0f1	-0.08538998
155	0x3d208146	0.039185785
156	0xbde698f1	-0.1125964
157	0x3e237e82	0.15966228
158	0x3bedd754	0.007258335
159	0xbe311720	-0.17293978
160	0x3b8fe962	0.004391835
161	0xbd26326a	-0.040575422
162	0xbd70971a	-0.05873785
163	0x3c1b95d2	0.009496169
164	0xbd92eb50	-0.071737885
165	0xbd324e36	-0.04353162
166	0x3df4eaef	0.119588725
167	0xbd0a0c9d	-0.033703435
168	0xbe1dc179	-0.15405835
169	0x3df4f6dd	0.11961148
170	0xbd3a52d6	-0.045489155
171	0x3d0d81a3	0.03454746
172	0x3d0e3555	0.03471883
173	0xbbf0f663	-0.0073535903
174	0x3e282a3b	0.1642236
175	0x3b4642b2	0.0030252156
176	0x3de14754	0.10999933
177	0x3de142de	0.10999082
178	0x3d05b4c4	0.032643095
179	0x3cb80716	0.022464316
180	0x3e029dc6	0.12755498
181	0x3da2d831	0.079513915
182	0x3d358d0b	0.044323962
183	0x3d94ac64	0.072594434
184	0xbd82b5eb	-0.06382354
185	0x3b8fee00	0.0043923855
186	0x3e07542f	0.13215707
187	0xbcc49164	-0.023995109
188	0xbc8b449c	-0.017000489
189	0x3dbdb7ab	0.092635475
190	0xbddf144e	-0.10892545
191	0xbd7d6e1a	-0.06187258
192	0x3dd072d9	0.101781555
193	0xbe0f880b	-0.1401674
194	0x3d5e6f3f	0.05430531
195	0x3d4ba30b	0.049716037
196	0xbcddf16d	-0.02709266
197	0x3d93864a	0.07203348
198	0x3dbb217e	0.091372475
199	0xbd47a23d	-0.048738707
200	0x3e16d614	0.14730102
201	0xbdaee639	-0.08540005
202	0xbe131002	-0.14361575
203	0xbc956d8e	-0.018240716
204	0x3dbdaf83	0.09261992
205	0x3bc96819	0.0061464426
206	0x3d230483	0.039799225
207	0x3d0d8401	0.034549717
208	0xbd631db6	-0.055448256
209	0xbe058717	-0.13039814
210	0x3e032031	0.12805249
211	0xbdbd01d6	-0.09228866
212	0x3d143c14	0.036190107
213	0xbd86822c	-0.06567797
214	0x3e1486ba	0.14504519
215	0x3d1ef3c2	0.038806684
216	0x3c1a2c9f	0.009410053
217	0xbd1ee28f	-0.03879028
218	0x3e0f599f	0.13999031
219	0x3d52bf09	0.051451717
220	0xbd259c82	-0.04043246
221	0xbde5db56	-0.11223476
222	0xbcc1ec28	-0.023672178
223	0x3d94a850	0.072586656
224	0xbd7b4008	-0.06134036
225	0xbc0e6dab	-0.008693139
226	0xbd2b885f	-0.0418781
227	0xbe21abdb	-0.15788214
228	0x3d0d923e	0.034563296
229	0xbbe244ca	-0.006905173
230	0x3e032883	0.12808423
231	0x3bc9e9d2	0.0061619068
232	0xbd60af2b	-0.054854553
233	0x3def17ee	0.11674486
234	0x3dfa419c	0.12219545
235	0xbde5b77c	-0.112166375
236	0x3d4b6e29	0.049665604
237	0xbdbd0276	-0.09228985
238	0xbe06c72e	-0.13161919
239	0xbd79f620	-0.06102574
240	0xbd259963	-0.040429484
241	0xbc04fb66	-0.008116579
242	0xbcddd02d	-0.027076805
243	0xbe1658d8	-0.14682329
244	0xbd47c8b5	-0.048775394
245	0x3e210f73	0.1572855
246	0x3d205d4e	0.039151482
247	0x3dd06be6	0.1017683
248	0xbc87de6a	-0.016585547
249	0xbe163001	-0.1466675
250	0x3d94a39c	0.072577685
251	0xbbc6afd1	-0.0060634394
252	0xbde6929f	-0.112584345
253	0xbc95a0f7	-0.01826523
254	0xbc0e8e71	-0.008700953
255	0xbcddedc2	-0.02709091

W_U f4 [128, 24]
0	0x3bb04443	0.005379231
1	0x3d888d5c	0.06667587
2	0xbf332785	-0.69982177
3	0x3d8e3168	0.06943017
4	0x3c3ce439	0.011529022
5	0xbf2a7a60	-0.6659298
6	0x3da39a2d	0.07988391
7	0x3cfe04ee	0.03100821
8	0xbf250001	-0.6445313
9	0x3b8348fa	0.004006502
10	0x3d85a295	0.06525151
11	0x3d94a6bb	0.07258364
12	0x3d3ec12a	0.046570934
13	0xbdbe667d	-0.09296892
14	0xbf3385ec	-0.70126224
15	0xbcd62110	-0.026138812
16	0xbd9021f8	-0.07037729
17	0xbf33881b	-0.70129555
18	0x3c8c531d	0.017129475
19	0x3d149a2b	0.03627984
20	0xbf2211ae	-0.6330823
21	0xbd90f9fe	-0.07078932
22	0xbdc4fd35	-0.09618608
23	0xbd83d9a8	-0.06437999
24	0x3aaba8de	0.0013096591
25	0x3ddc3046	0.10751395
26	0xbf220d4e	-0.6330155
27	0xbd259897	-0.040428724
28	0x3c12cf7a	0.008960599
29	0xbf1870ca	-0.595471
30	0x3dfcfe16	0.123531505
31	0x3b1d092f	0.0023961773
32	0xbf101b42	-0.5629159
33	0x3c98c24a	0.018647332
34	0x3cce6b6e	0.02519771
35	0x3d21712d	0.039414573
36	0x3cf46217	0.02983193
37	0x3d6e55de	0.058187358
38	0xbf216b87	-0.630547
39	0x3c110eb6	0.008853605
40	0x3d6b0f7e	0.05738782
41	0xbf22fbb4	-0.6366532
42	0x3c4fc13a	0.012680346
43	0x3d145c8f	0.036221083
44	0xbf13ec4b	-0.5778243
45	0xbc6fa88e	-0.014627589
46	0x3b80c7b6	0.0039300574
47	0xbda97e41	-0.08276034
48	0x3e1cb92f	0.15305017
49	0xbf1ea9ca	-0.6197783
50	0x3e056615	0.13027222
51	0x3e2db615	0.1696399
52	0xbf19259e	-0.59823024
53	0xbd8d2681	-0.0689211
54	0xbf18e20e	-0.5971993
55	0x3e6d7ebe	0.2319288
56	0x3e94db65	0.29073635
57	0x3e82e2ac	0.25563562
58	0x3e236839	0.15957727
59	0xbf262a93	-0.64908713
60	0x3e39bc76	0.18138298
61	0x3e67c848	0.22634995
62	0x3dbdfe8e	0.09277068
63	0xbf2c786f	-0.6737127
64	0x3b7727e1	0.0037712979
65	0xbf1d4eb2	-0.61448205
66	0x3e7e2a5e	0.2482085
67	0x3e509868	0.20370638
68	0xbf2047c1	-0.6260949
69	0x3d3e24c2	0.046421774
70	0xbf1b9087	-0.60767406
71	0x3e562a65	0.2091461
72	0x3e5ee489	0.21766867
73	0xbe7af32b	-0.24506824
74	0xbef445fe	-0.4770965
75	0xbe1201e3	-0.14258532
76	0x3db83a73	0.08995523
77	0x3e760f32	0.24029234
78	0xbb20a961	-0.002451502
79	0xbe86560b	-0.2623752
80	0xbef37349	-0.47548893
81	0xbe32ddac	-0.17467374
82	0xbdc03f14	-0.09387031
83	0xbe96707b	-0.2938269
84	0xbe9141ab	-0.28370413
85	0x3cfc4071	0.030792447
86	0x3ec8cbb3	0.3921791
87	0x3e899fb0	0.26879644
88	0xbe9569c1	-0.29182246
89	0xbefbcc0b	-0.4917911
90	0xbe458727	-0.19289838
91	0xbdf14801	-0.11781312
92	0x3ebe299e	0.37141126
93	0x3dd1136e	0.10208784
94	0xbe80ceb0	-0.2515769
95	0x3dd51e25	0.1040614
96	0x3cd04b4a	0.025426526
97	0xbf27ed8f	-0.6559686
98	0x3e26c546	0.16286191
99	0xbf184fc5	-0.5949672
100	0x3a957473	0.0011402502
101	0x3e4d1a03	0.20029454
102	0x3d8f2032	0.06988563
103	0xbd71f934	-0.05907555
104	0x3dac6a27	0.084186845
105	0x3d30aa30	0.043131053
106	0xbf22a432	-0.6353179
107	0x3dc26cca	0.09493406
108	0x3d2a2b80	0.04154539
109	0x3bf7201c	0.0075416695
110	0xbf242bcb	-0.6412932
111	0x3d30a0bb	0.043122035
112	0xbd854856	-0.065079376
113	0xbf2cf73b	-0.67564744
114	0x3dbc2a27	0.091877274
115	0xbf3163f1	-0.69293123
116	0x3d9770c8	0.07394558
117	0xbca2b331	-0.019860836
118	0x39a3a980	0.0003121607
119	0xbce57dcb	-0.028014084
120	0x3cd04d52	0.025427494
121	0xbf27edea	-0.65597403
122	0x3e26c66c	0.1628663
123	0xbf18503b	-0.5949742
124	0x3a951898	0.0011375127
125	0x3e4d1b2e	0.200299
126	0x3d8f2139	0.069887586
127	0xbd71f902	-0.059075363
128	0x3dac6c28	0.08419067
129	0x3d30a7bb	0.04312871
130	0xbf22a48e	-0.6353234
131	0x3dc26ce8	0.094934285
132	0x3d2a2a27	0.041544106
133	0x3bf73489	0.0075441045
134	0xbf242c58	-0.64130163
135	0x3d30a385	0.043124694
136	0xbd854878	-0.06507963
137	0xbf2cf7ba	-0.675655
138	0x3dbc2b27	0.09187918
139	0xbf316462	-0.69293797
140	0x3d97716b	0.0739468
141	0xbca2b48a	-0.019861478
142	0x39a3ab00	0.00031217188
143	0xbce57b57	-0.028012915
144	0xbb8db0fc	-0.0043240767
145	0x3d8f6b4d	0.07002888
146	0xbf2e529a	-0.6809479
147	0x3d494382	0.049136646
148	0xbd7ec77b	-0.06220196
149	0xbf14ea3a	-0.581699
150	0xbcc825e8	-0.024432138
151	0xbf2c3cde	-0.67280376
152	0x3c61827f	0.013764023
153	0x3e04249c	0.1290459
154	0xb945031f	-0.00018788547
155	0x3c8bb3d1	0.017053517
156	0xbc9ac3b8	-0.018892154
157	0xbf29c9f2	-0.6632377
158	0x3d479a4b	0.04873113
159	0xbf36b2a5	-0.7136634
160	0x3d215272	0.039385267
161	0xbd81b72b	-0.06333765
162	0x3afc44d5	0.0019246588
163	0xbc42e68a	-0.011895785
164	0xbe0c04da	-0.13673726
165	0x3d7a44c6	0.061100744
166	0xbf2d4602	-0.6768495
167	0xbc7cdc73	-0.015433419
168	0xbee88058	-0.4541042
169	0xbe8463b5	-0.2585732
170	0x3c0a8f3b	0.008457
171	0xbeb7f55a	-0.35929376
172	0xbbe38381	-0.0069431667
173	0xbe7cf6ce	-0.24703524
174	0xbedda663	-0.43291005
175	0xbe3f8e43	-0.18706612
176	0x3d64bc41	0.055843595
177	0x3eac3b7c	0.33639133
178	0x3e4b9f1d	0.19884916
179	0xbea1efbf	-0.31628224
180	0xbe8fe825	-0.281068
181	0xbf08fc30	-0.5350981
182	0xbea5129c	-0.3224076
183	0x3bd4df75	0.0064963647
184	0x3eba60bd	0.3640193
185	0x3dbfbbb0	0.093619704
186	0xbe2a4271	-0.16626908
187	0x3df279fe	0.118396744
188	0xbe09270f	-0.13393806
189	0x3d76e8c8	0.06028059
190	0x3ead5f3f	0.3386173
191	0x3e198681	0.14992715
192	0xbf038a75	-0.51383144
193	0x3e46c2d1	0.19410254
194	0xbf0c026c	-0.54691195
195	0x3eb37374	0.3504902
196	0xbf06a5dd	-0.5259684
197	0x3e877643	0.26457414
198	0xbf086b11	-0.5328837
199	0x3e9a9fbc	0.30199993
200	0xbf0a9c20	-0.5414448
201	0x3ea06f46	0.31334895
202	0xbf0a4c79	-0.5402294
203	0x3e51aed8	0.20476854
204	0x3ec9fda3	0.39451322
205	0xbefc7a77	-0.49312183
206	0x3ed02a12	0.40657097
207	0xbf03c39a	-0.5147034
208	0x3e97909f	0.29602525
209	0xbf02afb7	-0.5104937
210	0x3eed08bf	0.46295735
211	0xbf07329b	-0.5281159
212	0x3e9887d1	0.2979112
213	0xbf02d853	-0.51111335
214	0x3ece7472	0.40323216
215	0xbf02b738	-0.5106082
216	0x3dbddb63	0.0927036
217	0x3c5bd188	0.013416655
218	0xbda4c7c0	-0.08045912
219	0xbf162cef	-0.58662313
220	0x3d999cbc	0.07500598
221	0xbd5179c4	-0.051141515
222	0xbab6eb9d	-0.0013955716
223	0xbf238af4	-0.638839
224	0x3db09215	0.08621613
225	0x3e7a5246	0.24445447
226	0x3d04d598	0.03243026
227	0xbf2b9798	-0.6702819
228	0x3d36df56	0.044646583
229	0x3d1af3b0	0.037830055
230	0xbce1e136	-0.02757321
231	0xbf35a813	-0.70959586
232	0xbd8e4496	-0.069466755
233	0x3dbfc4db	0.09363719
234	0x3e0665c8	0.13124764
235	0xbf1f7e12	-0.62301743
236	0x3d69c9ba	0.057077147
237	0x3cf39fb8	0.029739246
238	0x3e1ba974	0.1520136
239	0xbf302602	-0.68807995
240	0xbc7469f4	-0.014917839
241	0x3ceb416b	0.028717717
242	0xbf1e9dd7	-0.61959594
243	0x3da86569	0.082224675
244	0xbf223d82	-0.63375103
245	0x3d0a8ba0	0.033824563
246	0x3daf0310	0.08545506
247	0xbf2fc43f	-0.6865882
248	0x3bfc3877	0.007697161
249	0x3db7b9ba	0.089709714
250	0x3d2bdae8	0.041956812
251	0xb9865dca	-0.0002562835
252	0x3d28f2fa	0.041247346
253	0x3ce21788	0.027599111
254	0x3dd23b43	0.102652095
255	0x3b831c3e	0.0040011695
