rep_theory/batch_experiments/C118_MLP_seed2/model.pt (torch, 565727 bytes, 4 tensors)

W_x f4 [118, 256]
0.19716033 0.057202972 -0.0045852643 -0.2383146 0.22761273 -0.074423544 0.09292527 0.075346135
-0.2048633 0.18051958 0.23228446 0.1760201 0.16143781 0.05991455 -0.1694129 0.20317572
-0.2580741 0.22078861 0.22446391 0.16094564 -0.019169047 -0.1728239 0.27154467 0.21737698
0.20731372 0.28310594 0.22592627 -0.07032165 -0.12950857 0.33968562 0.1207892 -0.118365034
-0.17344041 0.047435574 0.18591481 -0.06744529 0.10173416 0.14379638 0.0045817085 -0.23729636
-0.03613921 -0.17783847 0.15453024 0.18726967 0.21660897 -0.14681682 0.016602745 0.3158637
-0.22868556 -0.055001073 0.28752932 0.12702493 0.2135354 -0.18103085 0.083560236 -0.072658636
-0.13314104 0.15080114 0.21168828 -0.26152918 0.14717342 -0.0873212 0.083037995 -0.10953723
-0.2885729 -0.120420195 -0.24148288 -0.08627238 -0.066735856 0.19270857 0.0617436 0.090094134
0.13055874 0.25200248 0.1239547 -0.22000404 -0.08885095 0.2719453 0.16379073 0.12563953
0.25198513 -0.16190863 -0.14032657 -0.2525709 -0.1352265 -0.089846835 -0.20154957 0.15709174
-0.2483581 -0.047333084 -0.18630005 0.19053453 0.1683857 -0.28299356 -0.07912329 -0.17477277
0.10695906 0.29778358 -0.14613767 0.12796755 -0.077235706 0.21897414 0.014350374 -0.1590548
0.0861581 -0.30048066 0.23648347 -0.09468807 -0.33304572 -0.13862446 0.21429278 0.13923289
0.1902254 0.235567 0.12609003 -0.318112 -0.08465248 0.14872707 -0.2831596 -0.24458458
0.17586434 -0.25467458 0.054239634 -0.025874825 -0.24227658 0.08408611 0.18073662 0.21153258
-0.18708943 -0.18636964 -0.2854909 -0.26102516 0.31288555 0.05320119 -0.2392357 -0.08968116
0.25482976 0.22904128 -0.2805994 0.005531667 -0.19606107 0.008100553 0.120229885 -0.2889117
0.25343025 -0.20455657 0.19423297 -0.115462594 -0.28257868 0.055080652 0.30295262 0.21666615
0.16962966 0.19189388 0.19803993 0.0889363 0.19943485 0.044978175 0.12616302 0.20018671
-0.011528632 -0.14335465 -0.25477058 0.018882254 0.18497285 -0.048129138 -0.020112094 -0.3086814
-0.1699384 -0.025625907 0.21540034 0.1998842 -0.09873885 0.26261112 0.12657544 0.18587749
-0.15232724 0.16216096 0.17594779 0.12441814 0.12663776 -0.19837147 -0.078391284 -0.15334879
0.12946667 0.10579364 0.16759701 0.237367 -0.076182485 -0.20953853 0.19885974 0.2964904
0.1604523 0.107492246 -0.080325924 -0.2227788 -0.10055397 0.15959318 -0.09066038 -0.22346403
-0.1727248 0.15459764 0.002335493 0.114032775 -0.2573264 0.027604848 -0.29771492 -0.0024410922
-0.09463412 0.13649243 -0.13741592 0.22929314 -0.06469826 -0.12722999 0.07882087 0.07316757
-0.09454418 -0.02282873 -0.12581682 -0.20735207 0.22168349 0.082047194 -0.19385506 0.24625641
0.14923774 0.22216111 0.16505274 -0.14572123 -0.1869271 0.23957446 0.12179958 0.18599036
-0.006984966 -0.20748335 -0.27949765 0.0044612465 0.097903766 0.22634162 0.13651966 0.2076976
0.10885785 -0.13894306 0.12526669 0.26448312 0.011767763 0.042160224 -0.20108205 -0.0039714943
0.1838165 0.17733814 -0.20818125 -0.055035222 -0.2186319 -0.11775306 0.24026448 0.18042195
00000000: 66e4 493e aa4d 6a3d fc3f 96bb be08 74be
00000010: 5013 693e 5f6b 98bd 9b4f be3d 134f 9a3d
00000020: afc7 51be 20da 383e fadb 6d3e 9d3e 343e
00000030: f44f 253e f668 753d 937a 2dbe 4c0d 503e
00000040: 4a22 84be 6916 623e ded9 653e efce 243e
00000050: 6808 9dbc c0f8 30be e707 8b3e 1298 5e3e
00000060: 0c4a 543e 43f3 903e 3759 673e cc04 90bd
00000070: e59d 04be 46eb ad3e 5460 f73d 5e69 f2bd
00000080: 5d9a 31be ce4b 423d 7460 3e3e c220 8abd
00000090: 005a d03d 5c3f 133e 2822 963b d1fd 72be
000000a0: b506 14bd 4a1b 36be 2d3d 1e3e 9fc3 3f3e
000000b0: bece 5d3e 2657 16be 7b02 883c e3b8 a13e
000000c0: 8c2c 6abe ce48 61bd 0b37 933e d312 023e
000000d0: 06a9 5a3e 2760 39be a121 ab3d 0dce 94bd
000000e0: 2056 08be 9d6b 1a3e d0c4 583e 27e7 85be
000000f0: a1b4 163e 75d5 b2bd d30f aa3d 0e55 e0bd
00000100: d4bf 93be dd9e f6bd 4a47 77be 93af b0bd
00000110: cfac 88bd 6555 453e dbe6 7c3d 4683 b83d
00000120: 31b1 053e 7806 813e f6db fd3d bd48 61be
00000130: 7df7 b5bd 6a3c 8b3e c2b8 273e a6a7 003e
00000140: 3204 813e 60cb 25be c5b1 0fbe f950 81be
00000150: d178 0abe 9e01 b8bd 0363 4ebe a8dc 203e
00000160: 9651 7ebe 56e0 41bd 71c5 3ebe 7c1b 433e
00000170: 4d6d 2c3e 88e4 90be 640b a2bd a2f7 32be
00000180: 5a0d db3d 1777 983e 1da5 15be ed09 033e
00000190: c12d 9ebd c23a 603e d51d 6b3c 43df 22be
000001a0: a873 b03d 9ad8 99be b928 723e d2eb c1bd
000001b0: f884 aabe 92f3 0dbe 916f 5b3e 1193 0e3e
000001c0: 72ca 423e 7a38 713e bf1d 013e 93df a2be
000001d0: 485e adbd e94b 183e 4cfa 90be 6174 7abe
000001e0: c815 343e b564 82be 612a 5e3d 71f7 d3bc
000001f0: 5a17 78be 5735 ac3d 0513 393e ff9b 583e
00000200: 5f94 3fbe afd7 3ebe dd2b 92be 17a5 85be
00000210: 8932 a03e 7ee9 593d 34fa 74be c2aa b7bd
00000220: 0c79 823e cc89 6a3e b9aa 8fbe fc42 b53b
00000230: 3cc4 48be 2fb8 043c 163b f63d 3cec 93be
00000240: 9cc1 813e 4777 51be 02e5 463e a777 ecbd
00000250: 27ae 90be 409c 613d 9b1c 9b3e bbdd 5d3e
00000260: 66b3 2d3e d47f 443e fbca 4a3e 3c24 b63d
00000270: a638 4c3e 093b 383d e130 013e bffd 4c3e
00000280: 96e2 3cbc 90cb 12be 4a71 82be f5ae 9a3c
00000290: 8669 3d3e 0f23 45bd 1ec2 a4bc 7d0b 9ebe
000002a0: 5504 2ebe 6ced d1bc e891 5c3e 72ae 4c3e
000002b0: 9837 cabd f774 863e fe9c 013e ab56 3e3e
000002c0: acfb 1bbe 860d 263e a82b 343e f0ce fe3d
000002d0: 54ad 013e e421 4bbe 9c8b a0bd 7707 1dbe
000002e0: e992 043e 56aa d83d 8d9e 2b3e 5610 733e
000002f0: 9005 9cbd 4591 56be e3a1 4b3e 97cd 973e
00000300: 9c4d 243e e524 dc3d eb81 a4bd 2020 64be
00000310: 3def cdbd 656c 233e 26ac b9bd c1d3 64be
00000320: c5de 30be d84e 1e3e 120f 193b 048a e93d
00000330: 49c0 83be 9023 e23c 176e 98be bbfa 1fbb
00000340: 89cf c1bd acc4 0b3e c2b6 0cbe d2cb 6a3e
00000350: 8580 84bd 9448 02be d66c a13d e1d8 953d
00000360: 61a0 c1bd 5103 bbbc 20d6 00be 1a54 54be
00000370: ff00 633e 5c08 a83d f181 46be a42a 7c3e
00000380: c7d1 183e 347e 633e 9603 293e f237 15be
00000390: d169 3fbe 0253 753e 0f72 f93d 4274 3e3e
000003a0: 24e2 e4bb 8476 54be 511a 8fbe a62f 923b
000003b0: c581 c83d 19c6 673e cfcb 0b3e aeae 543e
000003c0: ddf0 de3d 1747 0ebe e945 003e 556a 873e
000003d0: 93cd 403c 33b0 2c3d 74e8 4dbe 4f23 82bb
000003e0: 643a 3c3e 2198 353e 772d 55be 9d6c 61bd
000003f0: 0ae1 5fbe 8428 f1bd e407 763e 88c0 383e

W_y f4 [118, 256]
-0.23723134 -0.29501462 0.112139545 -0.23034734 -0.020231482 -0.13503566 0.23350902 -0.13795103
0.26151398 -0.008746901 -0.18044049 0.25570938 -0.1432553 0.09343719 0.19833876 0.14278892
0.22880116 0.1687531 0.22255093 0.013781328 -0.19900146 0.21386 0.078513615 0.13820271
-0.22119437 0.054842893 0.1406121 -0.04833354 0.27790755 -0.049873136 -0.020398322 -0.20454812
0.15085115 0.02110131 0.27079248 0.1520407 0.22350433 -0.1747659 -0.23425445 0.316162
-0.1947966 -0.08295948 -0.09191009 0.15962699 -0.011345604 -0.13803576 -0.22790219 -0.020883868
0.06781358 0.05805585 0.2409407 0.06766843 0.20470788 -0.13983205 0.020618582 -0.15377186
-0.03633923 -0.09664267 0.17626299 -0.13399419 -0.20157279 0.1837961 0.13800468 -0.22474673
0.30491117 -0.23333845 0.21838127 -0.16616978 -0.023897737 -0.17680117 -0.21309209 0.15201814
0.066908225 -0.13668174 0.25544164 -0.212819 -0.009177965 -0.13515899 -0.18132949 0.15711848
0.21836187 0.22534138 0.17475672 -0.058565296 0.19250828 0.16300817 0.21243376 -0.051602177
0.19658184 -0.056622468 -0.13926491 0.17307232 -0.077426694 -0.19793235 -0.093686014 -0.24835584
0.15648217 -0.19894095 -0.15986067 -0.2007706 -0.09357818 -0.13684301 0.030012542 0.17509249
-0.03692234 0.12935182 0.2771425 0.27338997 0.17331988 0.21080196 0.20209211 0.20882055
0.019899976 -0.09048605 0.14434132 0.12452395 -0.12073614 0.039831944 0.25772196 0.06381293
0.13533464 0.22069222 0.13826759 -0.32519627 -0.20099564 0.15718293 0.045955356 -0.12126647
-0.16921794 0.20245433 -0.17038041 0.17445299 -0.17863363 0.20662493 -0.16193672 0.04802355
0.20471962 0.23353752 0.0046148994 0.059874576 0.19476101 0.22559974 -0.2309896 -0.09702236
0.16218585 -0.2846417 0.1747587 0.1545563 0.043894976 -0.06390908 -0.116501346 0.10064671
0.110985376 -0.24686696 -0.15631503 -0.19894715 0.25508726 0.05040555 0.23965468 0.10629601
0.026244098 -0.097006574 0.3402338 0.17495309 -0.23925279 -0.19373396 -0.23028427 -0.19061014
0.2016092 0.16053346 0.019700289 0.26497695 0.12958454 -0.29462287 -0.16214716 0.10752013
-0.2352018 0.12779796 -0.18633385 0.18611667 -0.041856106 -0.30155212 0.14100988 0.19025269
0.27101502 -0.19637185 -0.024018383 0.31114742 0.18538465 -0.102854595 0.18561392 0.060334273
0.08275393 0.21834716 -0.2325274 0.29622588 0.13096896 0.22359334 -0.22965394 0.07266311
0.2709211 -0.230153 0.29462317 0.16032788 -0.17954487 -0.14015405 -0.24224113 -0.21052302
-0.20279403 -0.1386343 0.23165275 -0.2060285 -0.22672871 0.21383409 -0.12962154 -0.14264083
-0.18304232 0.112586774 -0.33203408 0.13208838 0.17293495 -0.03656373 -0.1995726 0.12047348
0.032911766 -0.073118955 0.16549645 -0.23999783 -0.0494135 -0.2438945 0.1101406 0.047789745
-0.02130663 0.23984297 -0.03087422 -0.08002581 0.13281038 0.30747786 0.23644532 -0.28254998
0.0948727 0.2521242 0.18245614 -0.13352275 -0.1310724 -0.22021271 0.09591291 0.067895494
0.13996288 0.16338074 -0.14035508 0.25247055 -0.012570551 -0.16219486 -0.15344328 0.21569303
00000000: c6ec 72be 280c 97be 6ba9 e53d 2ce0 6bbe
00000010: 7ebc a5bc ca46 0abe fd1c 6f3e 0943 0dbe
00000020: 29e5 853e 294f 0fbc 64c5 38be 57ec 823e
00000030: 84b1 12be ff5b bf3d 5119 4b3e 4237 123e
00000040: da4a 6a3e 9dcd 2c3e 64e4 633e 14cb 613c
00000050: 0ac7 4bbe 1efe 5a3e bfcb a03d 0385 0d3e
00000060: c780 62be f1a2 603d 9efc 0f3e 64f9 45bd
00000070: e649 8e3e c647 4cbd 621a a7bc 1075 51be
00000080: b978 1a3e a8dc ac3c 50a5 8a3e 8fb0 1b3e
00000090: 52de 643e d5f5 32be 66e0 6fbe fcdf a13e
000000a0: c378 47be a9e6 a9bd 5b3b bcbd 4275 233e
000000b0: eae2 39bc 3f59 0dbe 315f 69be a514 abbc
000000c0: d9e1 8a3d f9cb 6d3d 29b9 763e bf95 8a3d
000000d0: f19e 513e 2230 0fbe 4de8 a83c 5f76 1dbe
000000e0: 72d8 14bd 98ec c5bd 497e 343e c635 09be
000000f0: 1969 4ebe 0b35 3c3e 1951 0d3e 0224 66be
00000100: 511d 9c3e 46f0 6ebe 579f 5f3e 6928 2abe
00000110: 30c5 c3bc 5e0b 35be d034 5abe a5aa 1b3e
00000120: 2e07 893d 4cf6 0bbe 3fc9 823e 39ed 59be
00000130: 2d5f 16bc 1e67 0abe 70ae 39be abe3 203e
00000140: 419a 5f3e e4bf 663e 6df3 323e 2ae2 6fbd
00000150: e420 453e 9deb 263e 3c88 593e ce5c 53bd
00000160: c04c 493e f6ec 67bd 769b 0ebe df39 313e
00000170: e391 9ebd c7ae 4abe 74de bfbd fe50 7ebe
00000180: dd3c 203e 2db7 4bbe 84b2 23be cf96 4dbe
00000190: eba5 bfbd 9320 0cbe dddc f53c 724b 333e
000001a0: e13b 17bd ce74 043e 9fe5 8d3e c5f9 8b3e
000001b0: c47a 313e 78dc 573e 3cf1 4e3e 0ed5 553e
000001c0: 4605 a33c c050 b9bd 36ce 133e 6a06 ff3d
000001d0: 8244 f7bd d226 233d 22f4 833e 5ab0 823d
000001e0: 2a95 0a3e 24fd 613e 0596 0d3e 2080 a6be
000001f0: cdd1 4dbe 90f4 203e af3b 3c3d 8e5a f8bd
00000200: 7847 2dbe 3050 4f3e 3478 2ebe cea3 323e
00000210: bceb 36be 7c95 533e bdd2 25be 58b4 443d
00000220: 05a2 513e 7624 6f3e 9538 973b 0b3f 753d
00000230: 6e6f 473e 9e03 673e 8a88 6cbe a9b3 c6bd
00000240: 0c14 263e 8fbc 91be f2f3 323e 0244 1e3e
00000250: 38cb 333d c4e2 82bd 4298 eebd dd1f ce3d
00000260: 4d4c e33d b1ca 7cbe 0c11 20be cdb8 4bbe
00000270: cc9a 823e 0d76 4e3d 0968 753e b9b1 d93d
00000280: ddfd d63c 62ab c6bd 2033 ae3e e726 333e
00000290: affe 74be 3262 46be a4cf 6bbe 4e2f 43be
000002a0: a472 4e3e e262 243e 8062 a13c 0fab 873e
000002b0: cfb1 043e cfd8 96be e809 26be 8433 dc3d
000002c0: bed8 70be 78dd 023e 4dce 3ebe 5e95 3e3e
000002d0: 4f71 2bbd 0a65 9abe e564 103e 9ad1 423e
000002e0: 7bc2 8a3e b415 49be 33c2 c4bc b74e 9f3e
000002f0: 79d5 3d3e 6ea5 d2bd 9311 3e3e 1221 773d
00000300: e47a a93d 6696 5f3e aa1b 6ebe ebaa 973e
00000310: ba1c 063e a7f5 643e 672a 6bbe 66d0 943d
00000320: 2cb6 8a3e 3aad 6bbe d9d8 963e fe2c 243e
00000330: 9cda 37be 8b84 0fbe 0f0e 78be 5993 57be
00000340: 3da9 4fbe 26f6 0dbe 6136 6d3e 23f9 52be
00000350: 922b 68be 53f7 5a3e 82bb 04be 7010 12be
00000360: 726f 3bbe e593 e63d 5f00 aabe 2d42 073e
00000370: dc15 313e dac3 15bd c25c 4cbe cdba f63d
00000380: 7dce 063d 64bf 95bd e777 293e fec1 75be
00000390: cf65 4abd 7bbf 79be 6591 e13d 2ebf 433d
000003a0: 3e8b aebc 6599 753e efeb fcbc 92e4 a3bd
000003b0: 72ff 073e bd6d 9d3e b91e 723e 64aa 90be
000003c0: 9e4c c23d 6c16 813e c8d5 3a3e 30ba 08be
000003d0: d837 06be 717f 61be fd6d c43d cb0c 8b3d
000003e0: 6e52 0f3e 484d 273e 3eb9 0fbe d243 813e
000003f0: b6f4 4dbc 6916 26be 3c20 1dbe a2de 5c3e

W f4 [512, 128]
-1.8679665e-12 -0.18838339 0.20178524 -0.19986683 0.2617037 -0.2038534 -3.9132e-13 0.22853623
0.025785625 0.19775717 -0.2240037 0.19920348 0.18296543 -0.16971195 -0.06367562 -0.1472482
-0.18352194 -0.05236327 -0.1820203 -0.1638461 -0.19785015 -0.23596817 -0.2301177 2.7336762e-09
-0.20029132 1.236409e-10 0.20779787 -0.08808387 0.10372683 -0.09121224 -0.17181744 0.2327833
0.05106485 0.26139557 -0.10778547 0.20811602 -0.21316677 -0.20145838 -7.776919e-13 -0.115217485
-0.20219731 0.19709039 -0.043973155 0.21257317 -0.19107588 0.1727818 0.11857949 0.19396244
-0.1185036 0.22809453 -0.20469922 0.20535652 0.16881116 0.06594678 -0.18069223 0.15652269
0.114677124 -0.06370236 0.1355446 0.24044266 0.24922846 0.17398612 0.2211765 -0.16971718
0.18292037 -0.18985415 0.107166246 0.14386868 -0.10173251 0.15397425 -0.20045371 -0.2072476
-0.047711127 -0.21833456 -0.047165748 0.06725745 0.22220698 -0.12425478 0.20707062 0.21014462
0.04228106 -0.21121798 0.19754681 0.05835359 -0.18870537 0.022270683 -0.21111527 -0.15978914
-8.9395207e-13 0.18078542 -0.195933 0.19401807 0.080390535 -0.18743783 0.23511663 0.19468667
5.6873104e-13 0.10040476 -0.1733383 -0.17257138 -4.2406874e-16 -0.20809199 -0.2288796 0.23971698
-0.12195919 -0.09889491 -0.22904341 -0.08273807 -0.098771796 -0.21268152 -0.2293531 0.19813664
-0.16532284 0.21158755 0.2404229 0.050336197 -0.23591246 -8.6775075e-13 0.25753844 -0.19548833
0.2551375 -0.21144117 -0.22128263 -0.17707139 0.21888785 0.2148566 0.21306549 0.12870082
-5.520647e-13 0.21329322 0.14278264 0.14117312 -0.058582615 -0.14259516 1.8190735e-12 -0.25087002
0.19056985 0.16817568 0.09028785 -0.17943707 0.08515798 0.17056242 0.21746369 -0.2446678
0.18745196 0.21554506 -0.25085804 0.18249458 0.21434292 0.19235097 0.17851864 5.0561115e-09
0.103285186 -1.3591184e-10 0.21872641 0.055918667 0.17159976 -0.19278945 -0.2263339 0.15077531
-0.24709632 -0.02022475 0.2033034 0.03803265 -0.16755253 -0.20572565 1.6241731e-13 -0.20683584
0.15246715 -0.23297602 0.06605558 0.13974206 0.2130158 -0.18438968 -0.08783285 0.066758774
0.21677427 -0.06962832 0.22134402 0.14058164 0.15235776 -0.100706466 0.18356648 0.2029402
0.20336398 -0.19594485 0.17075756 -0.24279195 -0.028894251 0.22488138 -0.23599812 0.17046142
0.10676338 -0.054171458 0.2001385 0.14310522 0.19465466 0.2402269 -0.025556618 0.20485848
0.22622263 0.15552525 0.24249934 -0.09851304 -0.22076237 -0.17552792 0.17083973 0.051654104
-0.08979118 0.21309422 -0.15752158 0.20492601 -0.082470104 -0.19596367 -0.24124664 -0.21744263
-1.2465496e-12 0.060715273 -0.19108503 -0.18621421 -0.20433639 -0.19668806 0.16035788 -0.1959262
-5.7796557e-13 -0.21517365 -0.21309605 -0.25128657 1.0698378e-15 -0.1310586 -0.20599055 0.19327955
0.16805333 0.23215087 0.1879407 0.030018155 -0.20132756 -0.16153838 0.06858037 -0.02152599
-0.17007035 -0.22330622 -0.07389252 -0.23621987 0.06286238 1.8998258e-13 -0.20581222 0.19455774
-0.21123327 -0.13885678 0.20106564 0.19004434 -0.07787153 -0.17925897 -0.21395698 -0.23239928
00000000: 4b72 03ac 93e7 40be caa0 4e3e e4a9 4cbe
00000010: 07fe 853e f2be 50be 284b dcaa 6705 6a3e
00000020: 603c d33c db80 4a3e 3a61 65be fffb 4b3e
00000030: 4a5b 3b3e f8c8 2dbe 5d68 82bd 3bc8 16be
00000040: 2ded 3bbe de7a 56bd 8863 3abe 46c7 27be
00000050: 3b99 4abe a4a1 71be f9a3 6bbe 57db 3b31
00000060: 2b19 4dbe d2f1 072f f7c8 543e 5165 b4bd
00000070: bb6e d43d 7ccd babd e9f0 2fbe bf5e 6e3e
00000080: 6029 513d a4d5 853e a1be dcbd 5e1c 553e
00000090: 6448 5abe 1b4b 4ebe 9be6 5aab 25f7 ebbd
000000a0: d00c 4fbe 10d2 493e 321d 34bd c8ac 593e
000000b0: 65a9 43be b6ed 303e ced9 f23d 179e 463e
000000c0: 04b2 f2bd 9d91 693e ac9c 51be fb48 523e
000000d0: d5dc 2c3e 1b0f 873d 6207 39be 7c47 203e
000000e0: d7db ea3d 6276 82bd 34cc 0a3e 9a36 763e
000000f0: bf35 7f3e 6b29 323e 187c 623e 57ca 2dbe
00000100: 7a4f 3b3e 2069 42be fa79 db3d 5052 133e
00000110: 2259 d0bd 6dab 1d3e bd43 4dbe b738 54be
00000120: be6c 43bd 1893 5fbe df30 41bd 46be 893d
00000130: 3a8a 633e 4a79 febd 520a 543e 2730 573e
00000140: e82e 2d3d 8749 58be b649 4a3e 2d04 6f3d
00000150: fb3b 41be 0271 b63c 9a2e 58be c49f 23be
00000160: 09a0 7bab d01f 393e a9a2 48be acac 463e
00000170: cba3 a43d b4ef 3fbe 6ac2 703e f15b 473e
00000180: 6415 202b 03a1 cd3d 987f 31be 8db6 30be
00000190: 8075 f4a5 1116 55be 6a5f 6abe 5e78 753e
000001a0: bdc5 f9bd 6a89 cabd 5b8a 6abe 9472 a9bd
000001b0: de48 cabd 2fc9 59be 8adb 6abe 55e4 4a3e
000001c0: 644a 29be 68aa 583e 6c31 763e 542d 4e3d
000001d0: 0993 71be 0840 74ab 14dc 833e 182e 48be
000001e0: 62a1 823e 0984 58be ea97 62be 3452 35be
000001f0: 2324 603e 5e03 5c3e d72d 5a3e 26ca 033e
00000200: 7464 1bab 8a69 5a3e 9d35 123e b08f 103e
00000210: 53f4 6fbd 7704 12be 8401 002c 0972 80be
00000220: be24 433e 3f36 2c3e d6e8 b83d 5abe 37be
00000230: 4f67 ae3d eaa7 2e3e cdae 5e3e 328a 7abe
00000240: 68f3 3f3e d8b7 5c3e 7770 80be dcdf 3a3e
00000250: b67c 5b3e a7f7 443e 97cd 363e 07ba ad31
00000260: 2f87 d33d c86f 15af d1f9 5f3e f90a 653d
00000270: d9b7 2f3e 996a 45be 13c4 67be d864 1a3e
00000280: d106 7dbe 60ae a5bc c42e 503e 20c8 1b3d
00000290: e492 2bbe bfa9 52be 9add 362a c6cc 53be
000002a0: 5920 1c3e 4491 6ebe 2648 873d 8b18 0f3e
000002b0: d020 5a3e a6d0 3cbe b6e1 b3bd d3b8 883d
000002c0: 13fa 5d3e 4b99 8ebd 02a8 623e a2f4 0f3e
000002d0: ac03 1c3e 313f cebd daf8 3b3e 8ecf 4f3e
000002e0: a63e 503e c4a5 48be 12db 2e3e 749e 78be
000002f0: a3b3 ecbc 4e47 663e 7ea9 71be 708d 2e3e
00000300: c2a6 da3d e4e2 5dbd 1bf1 4c3e 2d8a 123e
00000310: 8d53 473e 0afe 753e 1d5c d1bc 6cc6 513e
00000320: e8a6 673e 0342 1f3e bf51 783e 34c1 c9bd
00000330: 880f 62be 97bd 33be 9cf0 2e3e 4193 533d
00000340: 70e4 b7bd 5f35 5a3e 564d 21be 20d8 513e
00000350: 16e6 a8bd b3aa 48be 5c09 77be 48a9 5ebe
00000360: af6f afab 94b0 783d cbab 43be f0ae 3ebe
00000370: 8f3d 51be 9868 49be db34 243e e1a0 48be
00000380: cfae 22ab 7b56 5cbe da35 5abe a2a8 80be
00000390: 0c2e 9a26 3a34 06be 30ef 52be 13eb 453e
000003a0: 2c16 2c3e f5b8 6d3e 8773 403e a2e8 f53c
000003b0: d028 4ebe 516a 25be dd73 8c3d 4657 b0bc
000003c0: ec26 2ebe 63aa 64be f654 97bd 9fe3 71be
000003d0: febd 803d c0e6 552a 70c0 52be 253a 473e
000003e0: 894d 58be 7930 0ebe 27e4 4d3e fc9a 423e
000003f0: 1c7b 9fbd aa8f 37be 8a17 5bbe 14fa 6dbe

W_U f4 [128, 118]
-3.994874e-12 -5.292134e-12 9.489506e-13 3.0760511e-12 3.2376048e-12 2.7160706e-12 -2.5521096e-12 -6.571447e-12
3.220081e-13 2.3963151e-12 3.4970945e-12 2.3736165e-12 -1.4346494e-12 -8.082878e-12 -1.4132288e-12 2.2582233e-12
3.8018902e-12 2.3273247e-12 5.4170535e-13 -5.90898e-12 -2.634109e-12 2.1591318e-12 2.679536e-12 3.2451448e-12
8.110205e-13 -4.6427276e-12 -4.006711e-12 1.785325e-12 3.2651414e-12 3.308167e-12 2.5586553e-12 -4.123645e-12
-5.3388604e-12 1.4120964e-12 2.28129e-12 3.0172924e-12 3.3230658e-12 -2.1633591e-12 -6.8352676e-12 -3.871778e-13
1.9468136e-12 3.8640553e-12 3.022307e-12 -2.765798e-13 -6.913534e-12 -1.0227938e-12 1.9534869e-12 4.0724325e-12
2.4038495e-12 5.6011445e-13 -6.1936003e-12 -2.8289441e-12 1.904674e-12 3.7575776e-12 3.2604594e-12 1.0368166e-12
-4.617789e-12 -4.8454613e-12 2.0078837e-12 2.9435217e-12 3.1464909e-12 2.6994312e-12 -3.3692341e-12 -5.392748e-12
8.515375e-13 3.1288709e-12 2.8199214e-12 2.746235e-12 -1.6910403e-12 -7.510315e-12 -7.7033903e-13 2.166771e-12
3.6216362e-12 2.4270139e-12 -6.4120416e-13 -7.085556e-12 -2.3474636e-12 2.4526683e-12 4.4178073e-12 2.300811e-12
1.7311528e-12 -5.8945084e-12 -4.008749e-12 1.6579305e-12 3.6598923e-12 3.1612742e-12 2.2138031e-12 -4.0704133e-12
-5.3793736e-12 1.4577276e-12 2.8444888e-12 2.3649544e-12 1.885876e-12 -3.0441563e-12 -6.5669805e-12 -1.7736017e-13
3.2480986e-12 2.510437e-12 2.7190151e-12 -1.2952317e-12 -8.624486e-12 -1.0519501e-12 3.0943902e-12 4.7162933e-12
1.8176121e-12 -6.809836e-14 -7.725976e-12 -3.5875573e-12 2.6047031e-12 4.002839e-12 2.9409058e-12 1.6966248e-12
-5.742987e-12 -3.9246067e-12 2.1035435e-12 3.4141624e-12 2.2171605e-12 1.1324087e-12 0.0049502263 0.32920232
0.37232602 0.1466043 -0.50159407 -0.10222473 0.27611428 0.29178396 0.1859491 -0.46246353
-0.2144623 0.2645187 0.34230477 0.24822485 -0.33368123 -0.30314958 0.21641695 0.34878248
0.23714733 -0.29646257 -0.39799184 0.1959063 0.33799765 0.22353618 -0.21718216 -0.47222468
0.13038479 0.32339874 0.2760156 -0.06317 -0.5062633 0.16200623 0.28825283 0.30435774
0.022040073 -0.5464838 0.11748911 0.32782978 0.289437 0.09931489 -0.5255153 0.006940425
0.2539753 0.3538342 0.029936139 -0.49338564 -0.09211776 0.24734019 0.31986487 0.20993908
-0.44990152 -0.21498077 0.28909707 0.35508966 0.20962177 -0.36017224 -0.3110589 0.22258724
0.36618942 0.24822284 -0.26525155 -0.38968784 0.23238702 0.32441273 0.28341734 -0.17028223
-0.48149052 0.16250814 0.36915702 0.3319079 -0.06561922 -0.5067781 0.094293624 0.26573706
0.3145121 -0.024595745 -0.5573904 0.05826722 0.25980285 0.34874123 0.045255963 -0.5363928
-0.08485027 0.28231993 0.39084136 0.11574884 -0.47550303 -0.21466959 0.23085529 0.3842422
0.16987093 -0.3932374 -0.2575352 0.21474032 0.33330217 0.23371969 -0.33276027 -0.33613607
0.13467664 0.3374776 0.24809344 -0.2147046 -0.41889694 0.19640487 0.29030555 0.29228863
-0.1365951 -0.46488145 0.12149533 0.36290458 0.30854964 -0.04008891 -0.52942705 0.06673525
0.35631302 0.31017703 0.019954167 -0.53826666 0.35736746 0.29537272 -0.3547609 -0.20206532
0.32842427 0.28454292 -0.2849644 -0.22370844 0.2953381 0.3596297 -0.22816852 -0.31292027
0.31965643 0.30557647 -0.19768375 -0.34635958 0.3246489 0.26489517 -0.14675581 -0.41840792
00000000: a08e 8cac 4e33 baac 8c8d 852b 3675 582c
00000010: 81d3 632c 6120 3f2c b896 33ac 5536 e7ac
00000020: 4246 b52a 2da0 282c 0e16 762c 4607 272c
00000030: b1e8 c9ab 0c32 0ead efe4 c6ab 89e8 1e2c
00000040: 62c4 852c 5bc5 232c fc79 182b 5ce7 cfac
00000050: e45b 39ac 76ef 172c 3b8e 3c2c 555b 642c
00000060: 3048 642b f959 a3ac 3ff9 8cac 1d43 fb2b
00000070: 8fc3 652c a4ca 682c a30c 342c 7e16 91ac
00000080: 2ed8 bbac 22bc c62b 1188 202c b552 542c
00000090: 08d7 692c 9d3b 18ac 9e7e f0ac 34f6 d9aa
000000a0: adfe 082c 51f4 872c 0bad 542c 5ab3 9baa
000000b0: 943f f3ac 08f2 8fab e476 092c 3649 8f2c
000000c0: e727 292c 80a8 1d2b feea d9ac ba11 47ac
000000d0: 8e07 062c 4035 842c 376f 652c 41eb 912b
000000e0: 5879 a2ac 097c aaac d14a 0d2c c621 4f2c
000000f0: 246a 5d2c a1f4 3d2c ba16 6dac 8ebd bdac
00000100: beaf 6f2b ba2c 5c2c 306f 462c c63f 412c
00000110: 26fe edab 741f 04ad c7d4 58ab 1479 182c
00000120: 99d9 7e2c 32c9 2a2c a17b 34ab 044d f9ac
00000130: 2530 25ac 5897 2c2c 1270 9b2c bae7 212c
00000140: 5aa3 f32b 0365 cfac 9a0b 8dac 3e55 e92b
00000150: 61c5 802c 7474 5e2c 55c8 1b2c 0637 8fac
00000160: 1745 bdac 2c28 cd2b c129 482c 3b6b 262c
00000170: ecb4 042c a536 56ac 1a0e e7ac 97b0 47aa
00000180: 8b90 642c 03a8 302c 6c55 3f2c a449 b6ab
00000190: 3bb9 17ad 7f0c 94ab 94bf 592c 98f0 a52c
000001a0: 61ce ff2b 0858 99a9 b4ea 07ad b073 7cac
000001b0: 294a 372c 5ed6 8c2c a6f2 4e2c 5ac7 ee2b
000001c0: 3a10 caac b715 8aac 1206 142c 1540 702c
000001d0: d004 1c2c 535f 9f2b 8235 a23b 358d a83e
000001e0: 84a1 be3e 701f 163e 7868 00bf 335b d1bd
000001f0: da5e 8d3e b564 953e 7169 3e3e 05c8 ecbe
00000200: 019c 5bbe ff6e 873e 9242 af3e a82e 7e3e
00000210: 44d8 aabe 6c36 9bbe 689c 5d3e 9e93 b23e
00000220: c0d6 723e f1c9 97be 96c5 cbbe a99b 483e
00000230: 070e ad3e abe6 643e 0065 5ebe 6fc7 f1be
00000240: 9783 053e 8594 a53e eb51 8d3e 465f 81bd
00000250: 799a 01bf f6e4 253e e095 933e c7d4 9b3e
00000260: 628d b43c 5de6 0bbf 219e f03d 4ed9 a73e
00000270: 1631 943e 9b65 cb3d 2c88 06bf 816c e33b
00000280: 0d09 823e c229 b53e a23c f53c 0b9d fcbe
00000290: 3ca8 bcbd bf46 7d3e 54c5 a33e 45fa 563e
000002a0: 7e59 e6be eb23 5cbe 8804 943e 50ce b53e
000002b0: 17a7 563e 7f68 b8be 1d43 9fbe e9ed 633e
000002c0: 2e7d bb3e 212e 7e3e 0dcf 87be 2a85 c7be
000002d0: ddf6 6d3e 6d19 a63e 141c 913e 775e 2ebe
000002e0: ed85 f6be 8968 263e 2602 bd3e d5ef a93e
000002f0: 5f63 86bd 36bc 01bf 041d c13d b00e 883e
00000300: bb07 a13e 047d c9bc 23b1 0ebf 9ca9 6e3d
00000310: e104 853e 368e b23e 515e 393d 0a51 09bf
00000320: fac5 adbd 3d8c 903e 5c1c c83e ba0d ed3d
00000330: 2275 f3be 58d2 5bbe 5465 6c3e 65bb c43e
00000340: a5f2 2d3e 6a56 c9be a7db 83be e3e4 5b3e
00000350: 95a6 aa3e 3754 6f3e 8e5f aabe 071a acbe
00000360: ace8 093e ddc9 ac3e 350c 7e3e 86db 5bbe
00000370: a979 d6be 5c1e 493e eea2 943e dba6 953e
00000380: 96df 0bbe f104 eebe 8bd2 f83d a1ce b93e
00000390: 38fa 9d3e 4534 24bd 8888 07bf 7eac 883d
000003a0: a96e b63e 86cf 9e3e ec76 a33c d8cb 09bf
000003b0: def8 b63e 183b 973e 38a3 b5be 36ea 4ebe
000003c0: 3a27 a83e 9caf 913e dbe6 91be d313 65be
000003d0: 8e36 973e 6221 b83e 02a5 69be 1637 a0be
000003e0: 02aa a33e 8574 9c3e 9c6d 4abe 0b56 b1be
000003f0: 6138 a63e 57a0 873e 2847 16be 9039 d6be
