rep_theory/batch_experiments/S5_MLP_hidden_dim_80_seed4/model.pt (torch, 295903 bytes, 4 tensors)

W_x f4 [120, 160]
0	0x3f1c35b8	0.6101947
1	0x3f127adb	0.5721871
2	0x3f359755	0.7093404
3	0x3ef846d9	0.48491552
4	0x3ec86a67	0.3914368
5	0x3f2cb285	0.674599
6	0xbed69908	-0.4191363
7	0xbf105d48	-0.56392336
8	0xbf14865d	-0.5801752
9	0x3ed6251e	0.41825193
10	0xbf21758d	-0.63069993
11	0x3e6b6251	0.22986723
12	0x3ed6eee8	0.41979146
13	0x3e3340d5	0.175052
14	0xbf1c431e	-0.6103991
15	0x3dc8d058	0.098053634
16	0x3e540917	0.20706593
17	0xbeeb4541	-0.45951274
18	0x3f0fa07f	0.5610427
19	0xbe87e7cb	-0.26544032
20	0x3ebd8a79	0.3701971
21	0x3ec9d5ab	0.39420828
22	0x3ebef6e9	0.37297752
23	0xbf1ecc56	-0.6203054
24	0xbef5b7fc	-0.4799193
25	0xbef241dd	-0.47315875
26	0xbf1f7a85	-0.62296325
27	0x3f0febaf	0.56219
28	0xbe7c8015	-0.24658234
29	0x3f20e7fb	0.62853974
30	0xbf18a32c	-0.5962398
31	0xbf0c5786	-0.5482105
32	0x3dac54d2	0.08414616
33	0x3ec1667d	0.37773505
34	0x3ea0da6d	0.31416646
35	0x3ee68312	0.45021874
36	0x3f1a59da	0.6029335
37	0x3f0f1b75	0.5590127
38	0x3ef09b25	0.46993366
39	0xbf093020	-0.5358906
40	0xbf00809f	-0.5019626
41	0xbf3086f1	-0.68955904
42	0x3f0d8945	0.5528758
43	0x3f1bcaf3	0.6085655
44	0x3e802273	0.25026283
45	0xbea5ec03	-0.32406625
46	0xbeb3c54f	-0.35111472
47	0x3f1212b3	0.5705978
48	0x3f1be9bb	0.6090352
49	0x3ecc4af8	0.39900947
50	0x3e195109	0.14972319
51	0x3f05e994	0.52309537
52	0xbf2058fb	-0.62635773
53	0x3f260eda	0.6486641
54	0x3de946c2	0.11390449
55	0xbe92137e	-0.28530496
56	0xbf23588b	-0.6380698
57	0xbeef8655	-0.46782175
58	0x3ed6849a	0.41898042
59	0xbf14ed77	-0.5817484
60	0x3f09eb96	0.538751
61	0x3f1fd353	0.6243183
62	0xbeb23da6	-0.3481266
63	0xbf051142	-0.5197946
64	0xbe05551d	-0.1302075
65	0x3f1defaf	0.61693853
66	0xbf081ba5	-0.5316718
67	0xbf0f39de	-0.55947673
68	0x3efbab70	0.49154234
69	0xbecb81e3	-0.39747533
70	0xbf0b2810	-0.54358006
71	0x3f225d2a	0.6342341
72	0x3f204255	0.62601215
73	0xbeb6d5d3	-0.3571001
74	0x3f09e027	0.53857654
75	0x3f0cce32	0.5500213
76	0x3ecb2997	0.39680168
77	0xbf03d2af	-0.5149335
78	0xbde8a256	-0.11359088
79	0x3f2d9e79	0.67819935
80	0xbe91ee3c	-0.2850207
81	0x3f19854f	0.5996904
82	0xbf055a25	-0.52090675
83	0xbf145fa5	-0.5795844
84	0x3f105106	0.5637363
85	0x3f03d0a4	0.51490235
86	0x3f161b53	0.58635443
87	0xbe9f6ae5	-0.31136242
88	0xbef9c737	-0.487848
89	0x3f1bc482	0.6084672
90	0xbf1020c3	-0.5629999
91	0x3eeccdc5	0.4625074
92	0xbf1acdca	-0.6047026
93	0xbee08387	-0.43850347
94	0x3e849a15	0.25898805
95	0x3f2a6db3	0.6657364
96	0xbf2007fe	-0.62512195
97	0xbf1ff2ca	-0.6247984
98	0xbf0f7a44	-0.5604594
99	0x3f0331e1	0.51247984
100	0xbf2e6cb1	-0.681346
101	0xbf0e8f83	-0.5568773
102	0xbde54c68	-0.11196214
103	0x3f128fbf	0.5725059
104	0x3eb1a2f7	0.34694645
105	0xbf01a319	-0.5063949
106	0x3eed7452	0.46377808
107	0xbede951f	-0.43473145
108	0xbf0fe851	-0.5621386
109	0x3ef2a828	0.47393918
110	0xbf19eaaf	-0.60123724
111	0xbee79d95	-0.45237413
112	0x3eb6c178	0.3569448
113	0x3f0fb508	0.56135607
114	0xbf1b6bc6	-0.60711324
115	0xbf0d90a6	-0.5529884
116	0x3ee1f817	0.4413459
117	0xbf1e69c7	-0.61880153
118	0xbf1e9b46	-0.6195568
119	0x3f0ea443	0.55719393
120	0xbe85efc0	-0.26159477
121	0xbf192b1d	-0.5983141
122	0x3ee41915	0.44550386
123	0x3f1bd2a6	0.608683
124	0xbec39268	-0.38197637
125	0xbea468bf	-0.32111165
126	0xbedad24e	-0.42738575
127	0xbe438654	-0.19094211
128	0xbf193790	-0.59850407
129	0xbf0502e3	-0.5195753
130	0x3ef84490	0.4848981
131	0x3eefc6ff	0.4683151
132	0xbeecf25a	-0.4627865
133	0x3f1c9c29	0.6117578
134	0xbe223ac4	-0.1584273
135	0x3ef4addf	0.47788903
136	0xbec361e0	-0.3816061
137	0xbe299a20	-0.165627
138	0xbd33d692	-0.043905802
139	0x3edc978a	0.43084365
140	0xbeee72c7	-0.46571943
141	0xbf065612	-0.5247508
142	0xbe0327d1	-0.12808158
143	0xbf0382af	-0.5137128
144	0x3eff22f3	0.49831352
145	0xbf0c8858	-0.54895544
146	0x3ee4708e	0.44617122
147	0x3f23fa33	0.6405365
148	0x3ea9ed21	0.33188727
149	0xbf0f03e2	-0.558653
150	0xbf241d0b	-0.64106816
151	0xbe76948e	-0.24080107
152	0x3ec656fe	0.38738245
153	0xbf18b015	-0.5964368
154	0xbf0f5cc9	-0.56000954
155	0x3e488b0f	0.19584297
156	0x3efa9293	0.48939952
157	0x3d2965fd	0.04135703
158	0xbf0b8c3c	-0.54510856
159	0xbf1da9fe	-0.6158751
160	0x3f1039c3	0.5633814
161	0xbf0a06c9	-0.53916603
162	0x3ed349b9	0.41267183
163	0xbd45eafd	-0.048319805
164	0xbf19c101	-0.60060126
165	0x3ef86928	0.48517728
166	0xbf002f1a	-0.5007187
167	0xbeaf379c	-0.34222114
168	0x3e2992b7	0.16559874
169	0xbf1dc02a	-0.61621344
170	0xbe814e49	-0.2525504
171	0xbf0a8e24	-0.5412314
172	0xbf0e6d34	-0.5563538
173	0xbeffed56	-0.4998576
174	0x3f1a3473	0.6023628
175	0xbed74887	-0.4204752
176	0xbf010be3	-0.5040876
177	0x3f0cc3b0	0.54986095
178	0x3f0603cf	0.5234956
179	0xbf07bb3b	-0.53020066
180	0xbef8b4fe	-0.48575586
181	0x3f1b619d	0.6069582
182	0xbf043ac0	-0.51652145
183	0xbf028300	-0.5098114
184	0x3ce4b7de	0.027919706
185	0x3f1fc4ef	0.6240987
186	0x3ec8f344	0.39248097
187	0x3ed8bf89	0.4233363
188	0x3f28cb29	0.65935
189	0xbec67fc1	-0.38769343
190	0xbf1708b3	-0.5899765
191	0xbf19f0fb	-0.6013333
192	0xbef6ebf1	-0.48226884
193	0x3eac9a40	0.33711433
194	0xbe9360b1	-0.28784707
195	0x3f126604	0.57186913
196	0x3ef0bd92	0.4701963
197	0x3e9038c9	0.28168324
198	0xbd13c3d8	-0.036075443
199	0xbe5d6b98	-0.21623075
200	0xbee0dbd0	-0.43917704
201	0xbe9337bc	-0.2875346
202	0xbf08fdfa	-0.5351254
203	0xbeb1f8bb	-0.3476008
204	0x3f0b8324	0.5449698
205	0x3f04a2c6	0.5181087
206	0xbebe6b80	-0.3719139
207	0xbf1252ff	-0.5715789
208	0xbeef138d	-0.46694604
209	0xbec67ced	-0.38767186
210	0x3f1886ec	0.59580874
211	0xbe9f3ba2	-0.31100184
212	0x3ecdaa36	0.40168923
213	0x3f0a6a91	0.5406886
214	0xbf073b0a	-0.5282446
215	0xbf0c5cc1	-0.5482903
216	0x3ea3057a	0.31840116
217	0x3f10bd8c	0.56539226
218	0xbe87d835	-0.2653214
219	0x3efba054	0.49145758
220	0x3ebaf7a8	0.36517072
221	0x3ea745a5	0.32670322
222	0x3eaee80a	0.34161407
223	0x3f1e658c	0.618737
224	0xbef23970	-0.47309446
225	0x3e4d7930	0.2006576
226	0xbf2def44	-0.67943215
227	0xbed62e01	-0.41831973
228	0xbdaf3335	-0.08554689
229	0x3ed9ddf3	0.42552146
230	0xbf0f382e	-0.559451
231	0x3ec75267	0.38930055
232	0xbaae2c31	-0.0013288317
233	0x3ef9dd13	0.4880148
234	0xbf1fb2e8	-0.62382364
235	0xbe9c8e04	-0.305771
236	0x3ee21ee4	0.44164193
237	0xbef385b8	-0.47562957
238	0xbf11e07c	-0.5698316
239	0xbe84bac6	-0.25923747
240	0x3f07a41f	0.52984804
241	0xbf13854f	-0.5762529
242	0x3ec268a5	0.37970462
243	0x3e91522d	0.28383008
244	0x3edf1aab	0.43575034
245	0xbc997287	-0.018731369
246	0x3ef7d57e	0.4840507
247	0xbe873d12	-0.2641378
248	0xbf03369e	-0.51255214
249	0x3f246499	0.64216
250	0xbf010561	-0.5039883
251	0x3f238b97	0.6388487
252	0xbeef2d0c	-0.46714056
253	0x3f2ad7f4	0.6673577
254	0xbefb2309	-0.49050167
255	0x3f20c024	0.62793183

W_y f4 [120, 160]
0	0x3f07a54d	0.52986604
1	0x3f109857	0.5648245
2	0x3f289d11	0.65864664
3	0x3f0d98dc	0.5531137
4	0xbe0f93eb	-0.1402127
5	0xbf20d63a	-0.62826884
6	0x3ee77ae6	0.45210952
7	0xbf0e554c	-0.555989
8	0xbf29836b	-0.6621615
9	0xbf0343c0	-0.51275253
10	0x3d5354c3	0.051594507
11	0x3f1851f7	0.5950007
12	0x3f20099c	0.6251466
13	0xbf294073	-0.66113967
14	0xbea40719	-0.32036665
15	0xbf190c8d	-0.59784776
16	0x3f0b7eb4	0.5449021
17	0xbf11365c	-0.5672357
18	0x3e197df1	0.14989449
19	0x3f0221ef	0.5083303
20	0x3c336676	0.010949722
21	0x3d02dd5c	0.031949386
22	0x3ef55c41	0.47921947
23	0x3f18b1d9	0.59646374
24	0xbecaa5ab	-0.3957952
25	0xbec1a54d	-0.37821427
26	0xbeef80b1	-0.4677787
27	0xbf02271d	-0.5084093
28	0xbf03933b	-0.5139653
29	0x3f070523	0.52742213
30	0xbe9628a9	-0.29327896
31	0x3f1b0f61	0.6057034
32	0xbf1362e8	-0.57572794
33	0x3eb87716	0.36028355
34	0x3ec68c25	0.38778797
35	0xbed0c8ea	-0.40778285
36	0xbd76b6a6	-0.06023278
37	0x3f006f59	0.50169903
38	0xbe87e318	-0.26540446
39	0x3ec90b0f	0.3926625
40	0x3f1c12f7	0.6096644
41	0xbef11f51	-0.47094205
42	0xbef68ff4	-0.48156703
43	0x3f1076c9	0.5643125
44	0xbeffa36f	-0.49929377
45	0x3c456593	0.012048143
46	0xbed1d0d8	-0.40979648
47	0x3d90f52e	0.07078014
48	0xbdb0e8ca	-0.08638151
49	0xbf13290c	-0.5748451
50	0x3e21e1e8	0.15808833
51	0xbe4af0c6	-0.1981841
52	0xbecaa4f5	-0.39578977
53	0xbf1c20ad	-0.6098736
54	0xbf122b31	-0.57097155
55	0x3e9bc762	0.30425555
56	0xbf0eee37	-0.55832237
57	0xbf1593c6	-0.5842861
58	0x3f0f9359	0.5608421
59	0xbeec3fb4	-0.46142352
60	0x3f0d9fbc	0.5532186
61	0x3f28fc12	0.6600963
62	0x3d26c2e4	0.040713206
63	0xbd8275b5	-0.06370107
64	0xbf015ead	-0.5053509
65	0x3ec6875f	0.38775155
66	0x3eb59844	0.35467732
67	0xbf1c0311	-0.6094218
68	0xbf0e2478	-0.55524397
69	0x3f064328	0.5244622
70	0x3f0bb0f1	0.54566866
71	0x3f114986	0.5675281
72	0x3f06ea13	0.5270092
73	0x3ee68f21	0.45031074
74	0xbefcdc76	-0.49386948
75	0xbeb43a9f	-0.35200974
76	0xbee94090	-0.4555707
77	0x3ec6620f	0.38746688
78	0xbabcc4a0	-0.001440186
79	0xba8a327f	-0.0010543613
80	0xbf08f47a	-0.5349804
81	0xbf13acb8	-0.5768542
82	0xbe8fb551	-0.2806802
83	0xbf17c3e6	-0.5928329
84	0xbef65f3c	-0.48119533
85	0xbeb8b3e3	-0.36074743
86	0xbedea5c8	-0.43485856
87	0xbf166b1f	-0.58757204
88	0xbf032a10	-0.5123606
89	0x3e7fb62d	0.24971838
90	0xbebd0e8e	-0.36925167
91	0xbef66117	-0.4812095
92	0x3f07b9a4	0.5301764
93	0xbefc5d0e	-0.49289745
94	0xbf1d5aaf	-0.614665
95	0x3f12ded5	0.57371265
96	0x3f03a29a	0.51419985
97	0xbf1c3b96	-0.6102842
98	0xbed83f8a	-0.42235976
99	0xbe9e748f	-0.30948302
100	0x3efd1e71	0.49437287
101	0x3eccdba2	0.40011317
102	0x3f097959	0.53700787
103	0x3eefc4f6	0.46829957
104	0x3f0ed19b	0.5578858
105	0x3efa7926	0.48920554
106	0xbf0cc02d	-0.54980737
107	0xbf163483	-0.58673877
108	0xbf1f83f5	-0.62310725
109	0xbf14a8ee	-0.58070266
110	0x3eea888d	0.45807305
111	0xbeb0bb67	-0.34517977
112	0x3ef4b68a	0.47795516
113	0x3ec08fbe	0.37609667
114	0x3ef7e901	0.48419955
115	0xbe10bc67	-0.1413437
116	0x3ee0f35c	0.43935668
117	0xbede8072	-0.4345737
118	0x3ec19adf	0.3781347
119	0x3e7239d6	0.23654875
120	0x3f0de817	0.55432266
121	0xbeffebbb	-0.49984536
122	0x3f15de86	0.5854267
123	0xbf12f147	-0.5739941
124	0xbf06c2d4	-0.52641034
125	0x3eae4a2b	0.3404096
126	0x3f193ec8	0.5986142
127	0xbf1efa61	-0.621008
128	0xbea532d7	-0.3226535
129	0x3f10dcd3	0.5658695
130	0xbef11420	-0.47085667
131	0x3ec7c995	0.39020982
132	0xbe3610fd	-0.17779918
133	0x3f2a24cd	0.66462404
134	0xbeeaf306	-0.45888537
135	0x3f14ca4c	0.5812118
136	0xbedc1269	-0.42982796
137	0x3e939a58	0.28828692
138	0x3f0ae4b8	0.5425525
139	0x3f04eb2f	0.5192136
140	0x3de4c005	0.11169437
141	0x3eebb5d8	0.46037173
142	0xbf048dc3	-0.5177881
143	0x3f1a93d4	0.6038182
144	0x3efd6fd9	0.49499395
145	0xbf11033b	-0.56645554
146	0xbd6b7e5a	-0.057493545
147	0xbf0f29ca	-0.5592314
148	0x3ebd22c8	0.36940598
149	0x3f0fa858	0.5611625
150	0x3f104739	0.5635868
151	0xbf0d3657	-0.5516104
152	0xbef83ac7	-0.48482344
153	0x3f0b0d44	0.54317117
154	0xbe996685	-0.2996103
155	0x3f10387a	0.56336176
156	0xbed7ee77	-0.42174122
157	0x3f183555	0.5945638
158	0xbf224d39	-0.6339908
159	0xbf049098	-0.5178313
160	0x3f1bd894	0.60877347
161	0xbef4662d	-0.47734204
162	0xbf29f443	-0.6638834
163	0xbcb80777	-0.022464497
164	0xbead6bfd	-0.3387145
165	0xbef2893f	-0.47370335
166	0x3ecfa54e	0.40555805
167	0x3ef30c43	0.47470292
168	0x3f1091ce	0.5647248
169	0x3f16f54d	0.5896805
170	0xbea1e601	-0.31620792
171	0x3e108448	0.14112961
172	0xbe5c1c71	-0.21495225
173	0xbf1f2090	-0.6215906
174	0x3f1de426	0.6167625
175	0xbddd000b	-0.10791024
176	0x3ee03a19	0.43794325
177	0x3ecc2d18	0.39878154
178	0x3f0fd7bf	0.5618858
179	0x3f17b794	0.59264493
180	0x3eea9273	0.45814857
181	0x3f0a9f81	0.54149634
182	0xbea99b0d	-0.33126107
183	0x3f18cd2b	0.5968806
184	0x3e8a94bf	0.2706661
185	0x3f1affbc	0.6054647
186	0xbf1f351f	-0.6219043
187	0x3f089b28	0.5336175
188	0xbf1b27d5	-0.60607654
189	0xbefd89f8	-0.49519324
190	0xbe56b6f1	-0.20968224
191	0x3f106c74	0.56415486
192	0x3e847ed8	0.25878024
193	0xbf0edb4a	-0.5580336
194	0x3f0781ad	0.52932245
195	0xbeaeca29	-0.3413861
196	0x3dfb6056	0.12274234
197	0xbf160397	-0.5859923
198	0x3dcfd924	0.10148838
199	0xbf1b0974	-0.605613
200	0xbee247aa	-0.441953
201	0xbf03da05	-0.51504546
202	0x3e9801d2	0.2968889
203	0x3f183d1d	0.5946825
204	0x3eca08e1	0.394599
205	0xbe89328b	-0.26796374
206	0x3f15c91e	0.58510005
207	0x3eb47d70	0.3525195
208	0xbf1a8279	-0.60355335
209	0xbed0fdc4	-0.40818608
210	0x3ef77331	0.48330072
211	0xbee022b1	-0.43776467
212	0x3ee02383	0.43777093
213	0x3f06744f	0.5252122
214	0x3f00d514	0.5032513
215	0xbf0d4316	-0.5518049
216	0x3ed5bc50	0.41745234
217	0xbee50425	-0.44729725
218	0x3f03e07e	0.5151442
219	0x3ebb8691	0.36626104
220	0xbf0b5bb4	-0.544368
221	0x3d25a1db	0.04043756
222	0x3f1a78da	0.60340655
223	0xbf0d4e30	-0.5519743
224	0xbf15e2fb	-0.5854947
225	0x3f0e20e8	0.5551896
226	0xbee8918d	-0.45423546
227	0xbf21db80	-0.63225555
228	0xbeb96d36	-0.36216134
229	0x3f09d28e	0.53836906
230	0x3f13105e	0.5744685
231	0x3ef5b32d	0.47988263
232	0x3ee2bf09	0.44286373
233	0xbefdecae	-0.49594635
234	0xbf1b95b6	-0.60775316
235	0x3f1ffa1f	0.6249103
236	0xbcfacefd	-0.030616278
237	0x3f130eaa	0.5744425
238	0x3eac4060	0.33642864
239	0xbf2dfbc2	-0.67962277
240	0x3ede7b85	0.43453613
241	0xbf1145ff	-0.5674743
242	0x3e9f65f3	0.3113247
243	0xbefad116	-0.48987645
244	0xbf28f35f	-0.65996355
245	0x3f02f81e	0.51159847
246	0xbed56404	-0.41677868
247	0xbf0c6b5b	-0.5485131
248	0x3f1aff24	0.60545564
249	0xbe97c884	-0.2964517
250	0x3ee9b605	0.45646682
251	0xbf1d5e92	-0.6147243
252	0x3f10bdac	0.56539416
253	0x3f001878	0.50037336
254	0xbf0e5320	-0.5559559
255	0x3f202a31	0.6256438

W f4 [320, 80]
0	0xbee83215	-0.4535071
1	0x3f1ed641	0.62045676
2	0xbe78ea6a	-0.24308172
3	0xbf14a33b	-0.5806157
4	0x3ec51248	0.3849051
5	0x3f1321b2	0.5747329
6	0xbf20ad45	-0.6276439
7	0xbf1e0d5a	-0.6173912
8	0xbefdff4b	-0.49608836
9	0xbf021da0	-0.50826454
10	0x3f29f4af	0.6638898
11	0x3ea6518f	0.324841
12	0xbf13b28d	-0.5769432
13	0xbe6cf6cd	-0.23141022
14	0xbf21d003	-0.63208026
15	0xbf10e43d	-0.56598264
16	0xbf26b0dc	-0.65113616
17	0x3e849fc5	0.25903144
18	0x3eed73b0	0.46377325
19	0xbe7280af	-0.23681901
20	0xbf2ae29f	-0.66752046
21	0x3f1f6b01	0.6227265
22	0xbebaf277	-0.3651311
23	0x3f218143	0.6308786
24	0xbf0eded7	-0.55808777
25	0x3f107e32	0.5644256
26	0x3f0c096e	0.5470189
27	0x3ec32d81	0.38120654
28	0xbf3e740d	-0.7439583
29	0xbeba91d1	-0.36439374
30	0x3edef15f	0.43543527
31	0xbf1ff6b4	-0.62485814
32	0x3e8ecd3d	0.2789096
33	0x3f32b0f1	0.6980124
34	0x3f200c9c	0.6251924
35	0xbf039ac2	-0.51408017
36	0x3e279491	0.16365267
37	0x3f22c64d	0.6358383
38	0xbf225347	-0.6340832
39	0x3f21be8c	0.63181376
40	0x3f1e34cf	0.6179933
41	0x3f1ae7b7	0.6050982
42	0x3ee69848	0.45038056
43	0xbf0f1628	-0.5589318
44	0xbf0a45cb	-0.54012746
45	0xbf102f80	-0.5632248
46	0xbee4fc0e	-0.44723552
47	0x3f1d4b80	0.6144333
48	0xbee909df	-0.45515344
49	0xbeda6b4c	-0.42659986
50	0xbe2c7303	-0.16840748
51	0x3f0ecc14	0.5578015
52	0xbf148b81	-0.58025366
53	0x3f2a3a9b	0.66495675
54	0x3ef3042b	0.47464117
55	0xbed38f64	-0.41320336
56	0xbf0bb347	-0.5457043
57	0x3f05731a	0.52128756
58	0x3f27efec	0.65600467
59	0x3f2a623e	0.66556156
60	0x3f1bb913	0.60829276
61	0x3efae316	0.49001378
62	0x3f19766f	0.5994634
63	0x3e462966	0.1935173
64	0xbf22d750	-0.6360979
65	0xbef918d2	-0.4865175
66	0xbf09d088	-0.5383382
67	0x3f1f1a3c	0.62149405
68	0x3f163150	0.58668995
69	0x3f3b6873	0.7320625
70	0xbf1f1edc	-0.6215646
71	0x3f23a2fa	0.6392056
72	0x3ee32c35	0.44369665
73	0xbf1b0097	-0.60547775
74	0xbf1b205d	-0.6059626
75	0x3f14acbe	0.58076084
76	0x3f156877	0.58362526
77	0xbf134d01	-0.57539374
78	0x3f155cf4	0.5834496
79	0xbed8e88d	-0.42364922
80	0xbf11c7f3	-0.56945723
81	0x3ebb3dcc	0.36570585
82	0xbef41254	-0.47670233
83	0xbf1cd1c0	-0.61257553
84	0xbf069589	-0.5257192
85	0xbf05f836	-0.52331865
86	0xbf11b9c4	-0.5692408
87	0x3f1e9219	0.6194168
88	0x3eefda8c	0.46846426
89	0x3f2f3be8	0.68450785
90	0x3ebba507	0.36649343
91	0x3f0d0e08	0.55099535
92	0xbf12ec23	-0.57391566
93	0x3ef187fd	0.47174063
94	0x3f18de93	0.5971462
95	0x3eefdab1	0.46846536
96	0x3f0b8f90	0.54515934
97	0x3ee96354	0.45583594
98	0xbdd0251b	-0.10163327
99	0xbe709520	-0.23494387
100	0x3f1fec20	0.62469673
101	0x3eed4f2e	0.46349472
102	0xbf1009e5	-0.562651
103	0x3d687e6b	0.056761187
104	0x3f266312	0.6499492
105	0xbf13a38e	-0.5767144
106	0xbf149d5b	-0.58052605
107	0x3f2964ff	0.6616973
108	0xbf304119	-0.6884933
109	0xbf01eeb1	-0.5075484
110	0x3ec9098f	0.39265105
111	0xbf163655	-0.58676654
112	0x3f24b9e3	0.6434614
113	0xbf287ae8	-0.6581254
114	0x3f011f72	0.50438607
115	0xbeaa127b	-0.33217224
116	0xbefb9227	-0.49134943
117	0x3eb3dfed	0.3513178
118	0xbf16d77a	-0.5892254
119	0xbf0efff4	-0.55859303
120	0x3f0736d4	0.52818036
121	0xbf00f4af	-0.5037336
122	0xbf120f2d	-0.57054406
123	0x3f0b5bd6	0.54437006
124	0x3f13478f	0.57531065
125	0x3e95d798	0.29266047
126	0x3e74a34a	0.23890415
127	0xbf11c949	-0.5694776
128	0x3f1b1861	0.60584074
129	0xbf1c0b72	-0.60954964
130	0x3f157908	0.58387804
131	0x3f0d2f15	0.55149966
132	0xbf17a3ea	-0.5923449
133	0x3f24eafc	0.6442106
134	0xbf1f0cad	-0.62128717
135	0x3eeba583	0.46024713
136	0x3f2ad79b	0.6673524
137	0xbf08e7c8	-0.5347867
138	0x3f2b71c4	0.6697047
139	0xbf289d05	-0.6586459
140	0xbf1e8cb2	-0.61933434
141	0x3e74286f	0.23843549
142	0x3ec49b8d	0.38399926
143	0x3f10a486	0.5650104
144	0x3f32390b	0.6961829
145	0x3f1b3bde	0.60638225
146	0xbf28ed28	-0.6598687
147	0xbf13a1e7	-0.5766892
148	0xbf263dfb	-0.64938325
149	0x3f39def1	0.72605807
150	0x3f1fbf7f	0.62401575
151	0xbef07b47	-0.46969053
152	0xbeb2edfa	-0.34947187
153	0xbf227097	-0.6345305
154	0xbf0d7f67	-0.55272526
155	0x3db2e082	0.08734228
156	0x3f16f456	0.5896658
157	0x3f0b0d8e	0.5431756
158	0x3f233589	0.63753563
159	0x3f10a0ed	0.56495553
160	0xbd33c37c	-0.0438876
161	0xbf1bffe3	-0.6093733
162	0x3f105f56	0.5639547
163	0xbf13b0f1	-0.57691866
164	0xbf120c1b	-0.5704972
165	0xbee580b3	-0.44824752
166	0x3f03f25b	0.5154168
167	0xbf11b779	-0.5692058
168	0xbee2a0ef	-0.44263408
169	0xbf119fd5	-0.5688451
170	0x3f09a95d	0.5377405
171	0xbf2d2760	-0.67638206
172	0xbe814fc2	-0.25256163
173	0x3f247f11	0.6425639
174	0xbef2c06c	-0.4741243
175	0xbf16a201	-0.5884095
176	0x3f0fe05a	0.5620171
177	0xbed12723	-0.4085017
178	0xbef2eaa4	-0.47444642
179	0xbf22a3db	-0.63531274
180	0xbf10afce	-0.56518257
181	0xbf20efb4	-0.6286576
182	0xbf1b2e7f	-0.6061782
183	0xbf2b6ca5	-0.66962653
184	0x3f12cb4a	0.57341444
185	0x3f13408a	0.57520354
186	0x3eee542f	0.46548602
187	0x3effe9f2	0.49983174
188	0xbf306a81	-0.6891251
189	0x3f11c2bd	0.5693777
190	0xbf181eb8	-0.59421873
191	0x3f1cade6	0.6120285
192	0xbf19b051	-0.6003466
193	0xbf26c632	-0.6514617
194	0x3eadc845	0.33941856
195	0xbf1a3682	-0.6023942
196	0x3f1997af	0.59997076
197	0x3f0cde08	0.5502629
198	0x3f0b9f07	0.5453953
199	0xbf11b251	-0.56912714
200	0x3f119187	0.5686268
201	0xbf291a4f	-0.6605577
202	0xbf1862a3	-0.5952551
203	0xbeeaffd6	-0.45898312
204	0xbe8e8749	-0.2783759
205	0x3f0df868	0.5545716
206	0xbf2949be	-0.66128147
207	0x3ec7d59a	0.39030153
208	0xbee026ce	-0.43779606
209	0xbf1c1a11	-0.60977274
210	0xbefd40c6	-0.4946348
211	0x3f032394	0.5122616
212	0xbf1723dc	-0.5903909
213	0xbf0ba200	-0.5454407
214	0xbde9756c	-0.113993496
215	0xbf10d920	-0.56581306
216	0xbf1c22a4	-0.6099036
217	0x3f169035	0.5881379
218	0x3f110430	0.56647015
219	0x3f237bd8	0.63860846
220	0x3f20b457	0.62775177
221	0xbf26fca9	-0.6522928
222	0x3f14876b	0.5801913
223	0x3ee17f24	0.44042313
224	0x3f209292	0.6272365
225	0xbecb7a64	-0.39741814
226	0xbf07dd64	-0.5307219
227	0xbf1d6a8d	-0.6149071
228	0xbf022553	-0.508382
229	0x3f39475b	0.72374505
230	0x3f18d49a	0.59699404
231	0xbf08fb7f	-0.5350875
232	0xbf1965ec	-0.59921145
233	0xbf1b9585	-0.60775024
234	0xbf26e3a2	-0.6519109
235	0xbedb3ebf	-0.4282131
236	0x3dab12b9	0.083531804
237	0x3f06f8ad	0.527232
238	0xbf06e01f	-0.5268573
239	0xbf0af52c	-0.5428035
240	0xbf0f2cd7	-0.55927795
241	0x3f19abf7	0.6002802
242	0x3eba1954	0.3634745
243	0xbf1a6e16	-0.6032423
244	0xbf237c98	-0.6386199
245	0xbf18c0dc	-0.5966928
246	0x3f1f89d7	0.623197
247	0x3f17f8cd	0.59364015
248	0x3f1019ac	0.5628917
249	0x3f1e10dc	0.61744475
250	0x3f0b927a	0.5452038
251	0x3f066515	0.5249799
252	0xbe918576	-0.28422135
253	0x3ef6df96	0.48217458
254	0xbedfe69e	-0.43730634
255	0x3f0c13ef	0.54717916

W_U f4 [80, 120]
0	0xbd5dde93	-0.05416734
1	0x3e34689e	0.17618033
2	0xbf56a1cd	-0.8384064
3	0xbe861915	-0.2619101
4	0x3e384ca8	0.17997992
5	0x3f46f456	0.7771658
6	0xbf145158	-0.5793662
7	0x3e87bd9c	0.26511848
8	0x3f19a318	0.60014486
9	0x3f39be43	0.7255594
10	0xbf09a474	-0.5376656
11	0xbf21819c	-0.63088393
12	0xbebd1f12	-0.36937767
13	0x3f2f2741	0.6841927
14	0xbf6235d2	-0.88363373
15	0x3f131015	0.57446414
16	0x3f5a95a0	0.8538456
17	0x3f4e65e2	0.8062421
18	0xbf1f5d91	-0.62252146
19	0xbecdf2ea	-0.4022439
20	0x3f314898	0.69251394
21	0x3e866ffb	0.2625731
22	0x3df5ca0c	0.12001428
23	0xbf66bf2c	-0.90135455
24	0xbe265980	-0.16245079
25	0xbf2cacd2	-0.674512
26	0x3ed373f3	0.412994
27	0x3da16564	0.07880667
28	0xbe1fb1d6	-0.15595183
29	0xbf61d5f3	-0.88217086
30	0x3e9f96d5	0.31169763
31	0x3f52e84e	0.8238572
32	0x3f0d65ef	0.55233663
33	0xbf60bf8e	-0.8779229
34	0xbf289ff9	-0.658691
35	0xbe403f25	-0.18774088
36	0x3f51f738	0.8201785
37	0xbf6154c0	-0.88019943
38	0x3ea32a75	0.3186833
39	0x3f5820fc	0.8442533
40	0xbf3e8ec4	-0.74436593
41	0x3d335a2f	0.043787178
42	0xbf1e253c	-0.61775565
43	0x3f3e0267	0.74222416
44	0xbf2bae82	-0.6706315
45	0x3f35caf7	0.71012825
46	0xbe3439d4	-0.17600185
47	0xbf18c0e2	-0.59669316
48	0x3f14d7e5	0.5814193
49	0xbebe99f5	-0.37226835
50	0x3e383497	0.17988811
51	0xbf4bd9d5	-0.7962926
52	0x3f278eb7	0.6545214
53	0x3f583443	0.84454745
54	0xbeff470d	-0.49858895
55	0xbf687c47	-0.9081463
56	0x3eabbc0e	0.33541912
57	0x3f13fa03	0.5780336
58	0x3ee1dbdb	0.4411305
59	0xbf41131b	-0.7541978
60	0xbf6f1f22	-0.9340688
61	0x3f2299d1	0.63515955
62	0xbf619a78	-0.88126326
63	0x3f604642	0.87607205
64	0xbf144297	-0.5791411
65	0x3e5029c8	0.20328438
66	0x3e75ac1d	0.23991437
67	0xbe269914	-0.16269332
68	0x3d1a62fe	0.037692063
69	0xbf721781	-0.94567114
70	0xbe2e26d3	-0.17006998
71	0x3f14c0ca	0.5810667
72	0x3d4318bd	0.047631014
73	0x3edf7fb1	0.43652108
74	0xbf27d3f7	-0.6555781
75	0x3f253dc0	0.6454735
76	0x3f5bb2cf	0.85819715
77	0xbf0d83f0	-0.55279446
78	0x3f3b0261	0.73050505
79	0x3ef436bc	0.4769801
80	0x3f2ab444	0.66681314
81	0x3f02963b	0.51010484
82	0x3e1384d4	0.14406139
83	0x3f2c0996	0.67202127
84	0x3f575896	0.84119546
85	0x3f6330ed	0.8874653
86	0x3e970423	0.29495344
87	0xbf6f1c7e	-0.9340285
88	0xbeb12547	-0.34598753
89	0x3f586592	0.84529984
90	0x3ef82b8e	0.4847073
91	0xbf4bfbf5	-0.7968133
92	0xbed8c0ab	-0.42334494
93	0x3f3a98c2	0.7288934
94	0x3e2e9d1b	0.17052118
95	0x3d42cbfb	0.047557812
96	0x3dab59eb	0.0836676
97	0x3f6d8e0d	0.9279488
98	0x3ed8fe0c	0.42381322
99	0xbf5c79ea	-0.86123526
100	0xbea8ad8c	-0.32944906
101	0x3f2787eb	0.6544177
102	0xbdb34ea0	-0.08755231
103	0x3ec750eb	0.38928923
104	0x3f698977	0.9122538
105	0xbf3989a8	-0.7247567
106	0x3dbe11c1	0.0928073
107	0x3df623f4	0.12018576
108	0x3f012529	0.50447327
109	0xbf2a74a6	-0.6658424
110	0x3f6c8b0f	0.92399687
111	0x3ea4ee98	0.32213283
112	0x3dd1a3e0	0.10236335
113	0x3f49ae22	0.7878133
114	0xbe028281	-0.12745096
115	0x3ea38a11	0.31941274
116	0x3e2acbc5	0.16679294
117	0x3f0c4ceb	0.5480487
118	0xbf0bb5a0	-0.5457401
119	0x3f0da861	0.5533505
120	0x3f50bba5	0.8153632
121	0xbf13989f	-0.57654756
122	0xbe8c02ab	-0.27345785
123	0x3e427211	0.18988825
124	0x3f2f0193	0.6836178
125	0x3f45761f	0.77133363
126	0x3f0434a7	0.5164284
127	0x3ed1f78c	0.41009176
128	0x3f6e633a	0.9312016
129	0x3f2e9a50	0.6820421
130	0xbe1aa9be	-0.15103814
131	0x3f44138b	0.7659232
132	0xbf588571	-0.84578615
133	0x3f36306b	0.7116763
134	0xbf34a8aa	-0.7056986
135	0x3f476497	0.7788786
136	0x3e931c99	0.28732756
137	0x3f40c35f	0.7529811
138	0xbf3faed4	-0.7487614
139	0xbcf14cb5	-0.029455522
140	0xbd1a97f0	-0.037742555
141	0xbf66432c	-0.89946246
142	0x3f654aa5	0.89567024
143	0x3e4fb3ce	0.20283434
144	0xbf54584d	-0.82947236
145	0x3f555d14	0.8334515
146	0x3ec8aef8	0.3919599
147	0x3f3f560d	0.7474068
148	0xbf5e1f48	-0.8676648
149	0xbf5849f3	-0.8448784
150	0xbe90b95f	-0.28266427
151	0x3f48e7a5	0.7847846
152	0x3f2ab1e7	0.6667771
153	0xbf60f53e	-0.8787421
154	0x3ebe1b63	0.3713027
155	0xbf41f427	-0.7576317
156	0x3f03e8d7	0.5152716
157	0xbe270565	-0.16310652
158	0x3f57cb87	0.84294933
159	0x3f3ff533	0.7498352
160	0xbe77354d	-0.24141426
161	0xbf39d160	-0.72585106
162	0x3f1fa208	0.62356615
163	0xbe99eea9	-0.30064896
164	0xbe96697b	-0.2937735
165	0xbe0c80f4	-0.13721067
166	0xbf4f8fe0	-0.8107891
167	0xbf376b7a	-0.7164837
168	0x3e010624	0.12599999
169	0xbd6eb426	-0.05827727
170	0xbed78222	-0.4209147
171	0x3ef2a5aa	0.47392017
172	0x3ef37459	0.47549704
173	0xbeee1363	-0.46499166
174	0xbf4333b0	-0.76250744
175	0x3f36206a	0.7114321
176	0xbf30ea14	-0.69107175
177	0x3e4666de	0.19375178
178	0x3f181ae6	0.59416044
179	0x3f6a1f5d	0.91454107
180	0x3f28776f	0.6580724
181	0xbf393035	-0.72339183
182	0x3f40b0da	0.75269854
183	0x3f496660	0.78671837
184	0xbd35a4b1	-0.044346515
185	0x3f3df1c2	0.7419702
186	0xbf60e81d	-0.87854177
187	0xbf0d8110	-0.5527506
188	0xbeef471b	-0.46733937
189	0xbcb35e0c	-0.021895431
190	0x3f3720d3	0.7153446
191	0x3dd20df7	0.1025657
192	0xbf64830c	-0.8926246
193	0xbed77983	-0.42084894
194	0x3e974f53	0.29552707
195	0x3edf7317	0.43642494
196	0xbf5ab231	-0.8542815
197	0xbf43c052	-0.7646533
198	0xbf4d9126	-0.80299604
199	0xbed84547	-0.42240354
200	0xbe81e9e7	-0.25373766
201	0x3f3f1c1b	0.7465226
202	0xbf6629ec	-0.8990772
203	0x3ef8e962	0.48615557
204	0x3f714721	0.9424916
205	0xbf56f5d3	-0.8396885
206	0x3f57c087	0.8427815
207	0xbf6e628b	-0.93119115
208	0x3e9df09b	0.3084763
209	0x3ee81c29	0.45333984
210	0xbf56664c	-0.8374984
211	0x3ed3cfa1	0.41369346
212	0xbf593fe0	-0.8486309
213	0x3f571d41	0.8402901
214	0x3dc1c2c5	0.094609775
215	0xbf44704e	-0.76733863
216	0xbec23108	-0.37928033
217	0x3e993085	0.2991983
218	0xbf1114d8	-0.5667243
219	0x3f3e2cd1	0.74287134
220	0x3d0dc606	0.034612678
221	0xbf5ac4ab	-0.8545634
222	0xbef78a5b	-0.48347744
223	0x3e09235f	0.13392399
224	0xbf195aa4	-0.5990393
225	0x3f5e7f4f	0.8691301
226	0x3f02c199	0.51076657
227	0x3e4d5147	0.20050536
228	0xbd0723cb	-0.03299312
229	0x3f457b18	0.7714095
230	0x3bbecc40	0.0058226883
231	0x3ee93d97	0.45554802
232	0xbebd981d	-0.37030116
233	0x3f31482c	0.6925075
234	0x3e5ff67a	0.21871367
235	0x3f3ff22e	0.7497891
236	0xbf2aba2f	-0.66690344
237	0x3d5a6bab	0.053325336
238	0xbf4b247f	-0.79352564
239	0xbee7a537	-0.45243236
240	0x3ec7b9f1	0.3900905
241	0xbf67cfdf	-0.9055156
242	0x3f459062	0.77173436
243	0x3f61f29a	0.88260806
244	0xbf4bae84	-0.79563165
245	0xbeb06aec	-0.34456575
246	0x3f3701ff	0.7148742
247	0x3e4fe877	0.20303522
248	0x3ebf4278	0.373554
249	0x3f2bd291	0.67118174
250	0x3f624dfb	0.8840024
251	0xbd0cacba	-0.034344412
252	0xbf5a51bc	-0.85280967
253	0x3f415add	0.7552927
254	0x3f1042f7	0.5635218
255	0xbe21d024	-0.15802056
