rep_theory/batch_experiments/S5_MLP_hidden_dim_96_seed3/model.pt (torch, 379359 bytes, 4 tensors)

W_x f4 [120, 192]
000000 1a 23 14 3e ef ad 53 be 1c 69 a3 3d 5b 03 b3 bd
       0.14466515 -0.20671819 0.079790324 -0.087408744
000010 f5 0d de be 95 3a 42 be b0 20 bb 3e b8 00 25 3e
       -0.43370023 -0.1896766 0.36548376 0.16113555
000020 cd 8d f1 bd 86 81 ae be 12 1b 03 be 52 3c c1 3d
       -0.117946245 -0.34083194 -0.12803295 0.09435333
000030 9d e7 26 be 41 9a 0b be 98 8a 5b bb 9e ec bf 3d
       -0.16299291 -0.13633062 -0.0033499356 0.09371303
000040 34 15 a3 3e c9 90 9d 3e ba ba f4 bd 02 29 8b be
       0.31852114 0.30774525 -0.11949678 -0.27179724
000050 66 7f 67 bd 94 a2 01 be 1b dc 8d 3e 30 73 9c 3e
       -0.05651798 -0.12659675 0.2770699 0.3055663
000060 22 ce 1b be ba 77 7f 3e 4a 39 7d be 7f 89 7f be
       -0.15215352 0.24948016 -0.24728885 -0.24954794
000070 0c f4 79 3d 30 55 18 3e 33 86 73 be 90 54 13 3d
       0.061023757 0.14876246 -0.23781662 0.035969317
000080 92 06 b4 bd 96 58 57 be 1a a6 3a bd 70 07 02 bd
       -0.08790316 -0.21029887 -0.045568563 -0.031745374
000090 aa b5 f2 bd 9a f3 73 3d 91 35 b2 bd 2b d2 2c bd
       -0.11851056 0.05955849 -0.08701623 -0.04219262
0000a0 db ae e7 3d ae d2 02 be 04 a1 1d be be d3 2a 3d
       0.11312648 -0.1277568 -0.15393454 0.04170584
0000b0 2e ee 1d 3e be a4 8a 3e 10 fb 14 be 83 31 03 be
       0.1542289 0.27078813 -0.14548898 -0.12811856
0000c0 f2 7e f6 3c db be 02 bd 38 a4 f2 bd 08 c6 0e 3d
       0.03008983 -0.031920295 -0.118477285 0.034856826
0000d0 ff 40 dc be 14 89 15 be 10 33 25 3e 6c f9 96 be
       -0.43018338 -0.14603072 0.1613276 -0.2948717
0000e0 df 39 e9 3d 41 33 24 3e 4e 0f 3c be 7e 27 2f 3e
       0.11387991 0.16035177 -0.18365213 0.17104909
0000f0 d1 ed 51 be f4 89 50 3e 3a 09 a9 3e fd b5 b1 3e
       -0.20500876 0.20365125 0.33014852 0.3470916
000100 68 22 f1 bd 24 7f 60 be 50 15 a6 be 0c 3d 3c 3e
       -0.117741406 -0.219235 -0.32438135 0.18382663
000110 91 91 b8 3e 26 42 a3 bc ea 0e ab be 9f c1 64 bd
       0.36048558 -0.019929003 -0.33409816 -0.055848714
000120 75 d5 e9 3c 35 7c 1b be 8b b9 9c bd 5d 71 b2 3e
       0.028544167 -0.151841 -0.07652577 0.34852114
000130 f4 01 98 3d a6 6d 75 3d 9b 7b 35 3e 9d cc 10 be
       0.074222475 0.059919022 0.17722933 -0.14140554
000140 e2 97 3a 3e 6a bd 9e 3e b3 93 ae 3d ce ce 4a bb
       0.18222001 0.31003886 0.08524265 -0.003094602
000150 ca 73 7d 3e 90 7d 4b 3e 54 eb dd 3e 46 a8 e7 3d
       0.24751201 0.19872117 0.43343604 0.113113925
000160 41 4f 67 be 0b ee 13 3e 04 fe a0 be a0 05 b5 3d
       -0.22588827 0.14446275 -0.314438 0.088389635
000170 e6 07 3b 3e f4 e5 80 3e 52 e1 b8 bc a4 48 c7 bd
       0.18264732 0.2517544 -0.022568379 -0.09730652
000180 39 04 cf bd 51 34 88 bc 02 f4 c7 3c d4 56 45 3e
       -0.10108227 -0.016626509 0.024408344 0.19271404
000190 43 91 78 be d3 69 3d 3e 7e 99 39 3e 38 10 ab be
       -0.24274163 0.184974 0.18124959 -0.3341081
0001a0 72 7f 16 be 2e 17 fd bd ef 19 a6 3d 0b b3 6d 3e
       -0.14697054 -0.12357937 0.08110415 0.2321283
0001b0 19 2c 96 3d 07 28 14 bc 2e 36 b9 3d fb 2e 4d bb
       0.0733263 -0.009042746 0.09043537 -0.003130852
0001c0 59 25 29 bd 6f fc 70 be 57 a1 71 be ee 23 ae be
       -0.041295383 -0.23533796 -0.23596703 -0.34011787
0001d0 fd db 82 bd b7 d7 1c be 56 ab 8a 3d f0 ae 0b 3e
       -0.06389616 -0.15316664 0.06770961 0.13640952
0001e0 30 44 90 be 21 2d fb 3d 7e 53 36 bd 61 21 e1 3c
       -0.28177023 0.12264467 -0.044513218 0.027481737
0001f0 da b7 86 3e 76 7c bb 3e 44 d8 2a 3e 1b f8 45 be
       0.26312143 0.36618394 0.16684061 -0.19332926
000200 eb 7a a1 3e 1d 6f 56 3e f8 b4 8d be 62 87 2f 3e
       0.3153909 0.20940824 -0.2767713 0.17141488
000210 60 0b 7a 3e ab f3 19 3e 2e f4 a2 3d 6d 54 b4 3e
       0.24418402 0.15034358 0.0795673 0.35220662
000220 90 59 97 3e d2 c8 cf 3c 1e b3 c5 be d0 28 88 be
       0.29560518 0.025364313 -0.38613218 -0.26593637
000230 e8 47 87 bd 31 2e 1f be fe 32 da 3d c9 82 ee bd
       -0.06605512 -0.15544964 0.10654257 -0.11646039
000240 6d 15 38 3d de 7a 45 3e 98 ae bb 3d 8e bf 03 be
       0.04494231 0.19285151 0.091641605 -0.12866041
000250 cf aa 23 3e 14 08 80 be 9c b0 55 3e d7 b3 e6 3d
       0.15983127 -0.25006163 0.20868152 0.112647705
000260 1c 90 83 3e 6e 22 f2 bc bb 1c 82 be bd 8a 08 3d
       0.25695884 -0.029557433 -0.25412545 0.033335436
000270 27 a7 25 3e ed 8c 00 3c 8c d6 b0 3d 48 c6 8e 3e
       0.16177045 0.007846099 0.086346716 0.27885652
000280 8b 53 4b be f5 cf f6 3d 7d 85 98 3e 2b 12 82 be
       -0.19856088 0.120513834 0.29789343 -0.25404486
000290 cc 7c 45 be c1 4a 69 3e 53 d4 57 be 40 f9 fc 3d
       -0.19285887 0.22782423 -0.21077089 0.12352228
0002a0 34 e6 3c 3e 85 73 d5 3e b2 c3 7b be 7d eb 85 3e
       0.1844719 0.41689697 -0.2458637 0.26156226
0002b0 84 1c 88 3e e2 55 95 be 4a dc 6b 3e d5 37 42 be
       0.26584256 -0.29167086 0.23033252 -0.1896661
0002c0 ae 4e 59 3e 63 ad 40 be 84 ad 21 be f5 3c 14 be
       0.2122142 -0.18816142 -0.15788847 -0.14476378
0002d0 ae d7 29 be 4b 90 94 3e eb cb 2d 3e a3 f3 68 3e
       -0.16586182 0.29016337 0.1697232 0.2274919
0002e0 40 d2 82 3d ab 17 42 be 12 50 de 3d 16 bb 43 bd
       0.06387758 -0.18954341 0.10855116 -0.04778584
0002f0 ab 45 58 be 1e 90 44 3c 84 db 06 3e 62 55 b4 bd
       -0.21120326 0.011997251 0.13169676 -0.08805348
000300 28 be e8 bd 12 86 f8 3d 8e 1b c4 be 8c 86 52 3e
       -0.113643944 0.12134947 -0.38302273 0.20559138
000310 55 9e 94 3e 94 4a f7 bd 60 df 25 be 76 9e 40 be
       0.29027048 -0.120747715 -0.16198492 -0.18810448
000320 3e e8 42 be fc 4c 93 be 17 4a d2 3d 18 9e c3 bd
       -0.19033906 -0.28769672 0.10268038 -0.09551638
000330 e6 a0 50 be 26 8f 50 be 4f 9d b4 3e 72 e0 7c be
       -0.20373878 -0.20367107 0.35276267 -0.24694994
000340 e0 0f 97 3d f5 7f 17 be e0 80 6b 3e 6c d2 be 3e
       0.07376075 -0.14794905 0.2299838 0.37269914
000350 6c d7 c0 3e c5 fe 28 3e 30 38 01 3e 53 8a 15 3e
       0.37664354 0.16503437 0.1261909 0.14603548
000360 ce e0 84 3e b7 4a 84 3d 5b 62 8f 3e be c6 8b 3e
       0.25952762 0.06459563 0.28004727 0.27300066
000370 ed 51 90 3d b4 5e 53 bc cc 2c 91 be 98 73 8e be
       0.07046876 -0.012900997 -0.2835449 -0.27822566
000380 db 94 85 3e de 0e 7b 3d 7a 63 ad 3e 5f 22 43 be
       0.2609013 0.061293475 0.33864957 -0.1905608
000390 83 9a 8b be 11 5a 70 be 33 8b 85 bd 55 c8 db 3d
       -0.2726632 -0.23471858 -0.06520691 0.1073157
0003a0 ec 1e 8b 3e 8a d9 23 3e f6 c8 37 be 8f 28 b5 be
       0.2717203 0.16000953 -0.17947754 -0.35382506
0003b0 67 d3 d3 3b b0 6f ad bd 43 9c cd be 64 c2 57 3e
       0.00646441 -0.08468568 -0.4015828 0.21070248
0003c0 83 be 87 3e 20 06 68 be 07 52 0c be fd 61 7a 3c
       0.26512536 -0.22658587 -0.13703166 0.015282151
0003d0 12 9d 14 3c fe cc d5 3d 6c d9 a2 3e 1d 14 de bc
       0.009070652 0.1043949 0.31806505 -0.0271092
0003e0 28 70 df 3d df a9 3e 3d 23 d2 70 3e 4f b0 8e bd
       0.10910064 0.04654872 0.23517661 -0.06967222
0003f0 ba 5b c2 3e d6 35 0a bd 4d d3 4a be 7d a3 0c 3e
       0.37960607 -0.03374275 -0.19807167 0.13734241

W_y f4 [120, 192]
000000 88 8e 95 be 9c 6c 5b be 5e bf 30 be 15 52 3c bd
       -0.29210305 -0.2142815 -0.17260501 -0.045976717
000010 aa 1e de bb 31 f4 04 3d 28 ae 94 3e 61 e0 d4 bd
       -0.006778558 0.03245944 0.2903912 -0.103943594
000020 42 fd b1 be df bc 36 3d c5 67 be 3d 2d 36 cc be
       -0.34763533 0.044613715 0.09297136 -0.39885083
000030 58 be 29 3c 29 e2 d8 bd 93 e4 d0 3b 60 68 87 bd
       0.010360323 -0.105900116 0.0063749044 -0.06611705
000040 6d 67 bd 3b 38 b7 15 bd 65 75 af 3d ae 35 f6 3d
       0.0057801516 -0.036551684 0.08567313 0.12021957
000050 9a a4 84 3e ba 1e 62 3e 4b 5a cd 3e 44 e4 51 3e
       0.2590683 0.22082034 0.4010795 0.20497233
000060 69 8f a6 be b4 77 8c bd b7 3d 84 bd 9a 2a fb bd
       -0.32531288 -0.06858769 -0.06457084 -0.12263985
000070 d6 ef 61 3e 94 29 0b 3e 2f f9 44 3e 0b 4c b7 3d
       0.22064146 0.1359008 0.19235681 0.08950051
000080 16 58 73 bd ec 69 01 3e 10 31 1f 3e 31 da aa 3e
       -0.059410177 0.12638062 0.1554606 0.33369592
000090 07 e5 fc bd 86 97 af bd 85 00 62 3e 68 36 7f be
       -0.12348371 -0.08573823 0.2207051 -0.24923098
0000a0 f0 7c c7 3e d6 70 54 3d 90 a6 7f be 88 a6 e2 3d
       0.38962507 0.05186542 -0.24965882 0.110669196
0000b0 3a 83 92 be de b9 1f 3e b3 7b 83 bd 37 ae e6 3b
       -0.28615743 0.15598246 -0.06420078 0.007039811
0000c0 2e d0 24 be 5d 35 2e bd 0f 86 87 3e ea aa a6 3e
       -0.16095039 -0.04253136 0.26469466 0.32552272
0000d0 22 17 8e bd 56 80 4e 3e 66 25 a2 3e 4b 50 f4 bb
       -0.06938006 0.20166144 0.31669158 -0.0074558607
0000e0 45 e3 15 be 26 be 16 3e 28 78 6b be 26 03 9d 3e
       -0.14637478 0.14720973 -0.22995055 0.30666465
0000f0 4f 97 a9 bd da 65 7a 3e c3 a6 e0 3e 75 d2 f2 bd
       -0.08280813 0.24452916 0.4387723 -0.11856548
000100 0a d4 f1 bd bb f5 92 be 64 c2 47 be 25 7c eb bd
       -0.11808021 -0.28703102 -0.19507748 -0.11498288
000110 54 eb 68 be 65 db 75 be b3 31 60 3e 41 22 d8 3b
       -0.2274602 -0.24009474 0.21893959 0.0065958803
000120 25 38 8a 3e 3a 42 3f 3c 21 5a 4c be b2 8d 36 3e
       0.2699596 0.0116735045 -0.19956256 0.1782749
000130 40 4a 64 bd de a3 0e 3e 44 e1 3d 3e d6 1c d8 3d
       -0.055734873 0.13929698 0.18542963 0.10552375
000140 86 a5 82 3e d9 d9 89 3e 0d 82 36 be 64 09 43 3e
       0.2551691 0.26924017 -0.17823048 0.19046551
000150 33 56 88 be e0 03 84 3e ab d5 25 3d 09 c6 3c be
       -0.26628265 0.25784206 0.040486973 -0.1843492
000160 57 09 3e bd 45 0e 03 3e 8b 08 9e 3e c5 b7 c3 bd
       -0.046395626 0.12798412 0.30865893 -0.09556536
000170 48 c9 69 be 73 15 cb 3d 98 15 9f bd b3 67 03 be
       -0.22830689 0.099162005 -0.077677906 -0.12832527
000180 b4 bf 40 be 09 9a 90 be 77 35 4a bd 3f b2 c2 3d
       -0.18823129 -0.2824252 -0.049367394 0.09506654
000190 e2 35 5c bd 67 6a 05 be ea 4f 3f 3e 0e 11 8a be
       -0.053762324 -0.1302887 0.18682829 -0.26966137
0001a0 3a e1 2d be 09 31 a8 3d 41 4f 3a 3e f6 11 8b 3d
       -0.16980448 0.08212478 0.18194295 0.06790535
0001b0 39 83 19 3e 80 ee 1c 3e c7 bd a5 be cc a6 40 bd
       0.14991464 0.15325356 -0.3237135 -0.04703407
0001c0 9f eb eb 3d 81 9e e2 3d 18 92 c1 be 17 96 61 be
       0.115195505 0.110653885 -0.37806773 -0.22029911
0001d0 63 b9 c9 3d 7f 79 1e be 67 23 8f be d2 60 03 3e
       0.09849813 -0.15476035 -0.27956697 0.12829903
0001e0 b7 b1 d9 be 2b a6 53 bd 52 0c 9c be 55 13 4a be
       -0.42518398 -0.051672142 -0.3047815 -0.19733937
0001f0 cd c7 8a 3e 6b 53 86 3d 0a b1 db be 41 34 6f be
       0.2710556 0.065588795 -0.42908508 -0.23359777
000200 50 c6 01 be f8 a8 13 3e 34 c1 48 bc 4d 28 4a 3e
       -0.12673306 0.14419925 -0.012253094 0.19741936
000210 6c a2 96 3e 16 bf 5a bd e6 fe 0e bc 86 5a 28 be
       0.29420793 -0.05340489 -0.008727765 -0.16440782
000220 7f a3 ae 3e 72 03 2a bd 98 98 71 be 20 ee d2 3d
       0.34109113 -0.041507192 -0.23593366 0.10299325
000230 98 39 93 be d8 67 ba be b3 00 a5 bd d2 49 38 be
       -0.28754878 -0.36407351 -0.08056774 -0.1799691
000240 fc 6d 3e be 94 b8 9e be ce d2 e0 3d bd 6f a9 be
       -0.18596643 -0.31000197 0.10977708 -0.33093062
000250 15 c8 2c be 64 61 52 3e b5 ee 90 be da 2f 0a 3e
       -0.168732 0.20544964 -0.2830712 0.13494816
000260 a0 93 85 be 13 5f 99 bd dc 35 8b 3d a4 c8 42 3e
       -0.2608919 -0.07488837 0.06797382 0.19021851
000270 bd 81 d8 3d e8 4c cf 3c 6c ee 69 bd 48 4a c9 3e
       0.105716206 0.025305226 -0.057112142 0.39314485
000280 98 e9 66 be 0f a9 cb 3e 1c a4 1b be 44 ba 97 be
       -0.22550046 0.3977742 -0.15199322 -0.29634297
000290 6a ff 59 3e 46 22 b0 3d dd 71 2d 3d fb 61 72 3e
       0.21288839 0.08600287 0.042344917 0.23670189
0002a0 59 69 e1 bd 5c ea 98 3d 66 28 bc be 7a 2e 9d be
       -0.110064216 0.074665755 -0.36749572 -0.3069952
0002b0 c4 78 c0 3b 9a b0 2c 3c 1f 88 69 3b 0f 77 d4 3d
       0.0058737714 0.010540152 0.0035634113 0.10374271
0002c0 86 c9 0c 3e 9a be e4 bd bf 7c 6a be 43 58 04 3e
       0.1374875 -0.11169167 -0.2289915 0.12924294
0002d0 f4 c1 b3 be 8a b7 37 3e 21 d8 91 3d fd a2 35 3e
       -0.35108912 0.17941108 0.071213014 0.17737956
0002e0 84 9e bb 3b ee 3f a0 be c7 e1 a5 be f2 23 5f 3e
       0.0057256836 -0.31298774 -0.32398817 0.21791056
0002f0 60 92 fc bd 2b a4 3e 3d f0 2e ac bc f3 d4 06 3e
       -0.12332606 0.04654328 -0.021018475 0.13167171
000300 1c 02 19 be fa 73 60 be 25 11 45 be 09 77 9d be
       -0.14942211 -0.21919242 -0.19244821 -0.3075488
000310 1d 5b 75 3e 86 51 65 be 7d df 0a 3d 48 7f ab be
       0.23960538 -0.2239438 0.03390454 -0.33495545
000320 ed 24 96 3e 5a 2b dd bd a9 a7 8f 3e 06 75 ad 3e
       0.29325047 -0.10799284 0.28057602 0.33878344
000330 5e 5a 12 3e a1 fc 65 3e 05 3a d9 3d 15 89 47 be
       0.14292285 0.22459652 0.106067695 -0.19485886
000340 8e 45 89 bd 0f 3b 35 bc 56 54 3c 3c 6c af 82 be
       -0.0670272 -0.011061444 0.011494717 -0.2552446
000350 6c 1e b8 be 8b 4b 1c 3b 27 3d a4 be cf 05 7c be
       -0.3596071 0.0023848738 -0.32077906 -0.24611591
000360 97 71 dc 3d f6 8a f7 bc 43 10 a8 3e b8 65 a7 be
       0.10763853 -0.030217629 0.32824907 -0.32694793
000370 e2 89 61 ba e2 5b fd 3d bc ea 6c 3e 01 cd 70 be
       -0.0008603615 0.12371041 0.23136419 -0.23515703
000380 60 34 66 bd e7 e4 40 be 49 d7 cc 3d 9d eb 29 be
       -0.056202292 -0.1883732 0.10002 -0.16593786
000390 a7 a0 0c 3e 87 10 35 3e 53 bd 9d 3d 3d a9 54 be
       0.13733159 0.17682086 0.07702126 -0.20767684
0003a0 fb 24 a3 be 4f a0 25 3e f2 a2 38 be 02 ba ca bc
       -0.3186415 0.16174434 -0.18030909 -0.024746899
0003b0 4d c0 cc bc 6a 3c 87 bd 46 4b 62 3e f6 27 6d bd
       -0.02499404 -0.0660332 0.22099027 -0.057899438
0003c0 f7 14 8c be 9e 63 36 3e ea 80 c6 be ac f3 c2 bc
       -0.27359745 0.17811438 -0.3877023 -0.023797832
0003d0 71 e0 38 3e 2e dd 25 3c 3f 9e b7 be 0f 9f 2b be
       0.18054368 0.010123534 -0.3586292 -0.16759895
0003e0 c0 14 6b be bd 63 71 be ec 67 cd bd e5 37 03 bd
       -0.22957134 -0.23573203 -0.10029587 -0.032035727
0003f0 dd 55 a8 3d d5 12 30 be 3d 70 68 be 9b 2a be bd
       0.08219502 -0.17194684 -0.22699066 -0.0928547

W f4 [384, 96]
000000 46 19 c3 3d db 4e b3 3d 6d 0e 96 be 5a 5b 5c be
       0.09526305 0.08755275 -0.2930788 -0.21519223
000010 4c 20 80 3e 29 81 7f 3e d9 70 8a be 90 ae f7 ba
       0.2502464 0.24951614 -0.2703922 -0.0018896628
000020 19 86 9f 3e d9 7c 87 be 3e 2f 85 3e f1 20 04 3e
       0.31156996 -0.2646244 0.26012605 0.12903191
000030 d9 b9 ac 3e 20 0d ab 3e 37 b7 8c be 43 cf 99 3e
       0.3373554 0.3340845 -0.27483532 0.3004094
000040 40 47 ad be b4 42 af 3e be f9 cf 3d fc fa c8 3d
       -0.33843422 0.34230578 0.101550564 0.098134965
000050 a6 62 ac 3e 4e 91 94 be 8a da f0 bd d8 b4 a6 bd
       0.33669013 -0.2901711 -0.11760433 -0.08139962
000060 2e eb 38 3e 3e af 27 be 38 5e 8a be 13 7c a0 3e
       0.18058464 -0.16375443 -0.27025008 0.3134466
000070 d8 9d 3f be 26 26 30 be 9c bc 9c be f3 95 35 be
       -0.18712556 -0.17202052 -0.30612648 -0.17732982
000080 9d 7b c2 bc 14 7d 87 be a6 ab 1a bd 2b d5 81 3d
       -0.023740584 -0.26462615 -0.037761353 0.06339487
000090 71 b2 98 be 98 50 2f b9 9b 3e 05 be 89 67 88 3e
       -0.2982364 -0.00016719324 -0.13012163 0.2664149
0000a0 cf a9 8a 3e de 71 6f bd 03 4d 8a be 9d e8 e4 3d
       0.2708268 -0.0584582 -0.2701188 0.1117718
0000b0 74 22 39 3e 0a 4e 86 3e 22 f9 87 be 39 28 87 3e
       0.18079549 0.26231414 -0.2655726 0.26397875
0000c0 86 9c 8d 3d 9b fd ac 3e 95 24 2b 3e 57 2d 3e bd
       0.0691462 0.33787236 0.16713174 -0.04642996
0000d0 50 60 7d 3e 64 10 89 3e 42 62 af 3e d1 26 6f bd
       0.24743772 0.26770318 0.34254652 -0.058386628
0000e0 db b0 7f 3e 6b 24 1a be 7c 3c 75 bd 77 64 7d 3e
       0.24969809 -0.15052955 -0.059872136 0.24745356
0000f0 71 34 16 bd b7 95 a1 be 99 eb 51 3d 92 e7 92 3e
       -0.036671106 -0.31559536 0.051250074 0.286923
000100 f6 6a 9c be 49 86 83 be 94 59 9a 3e fe 82 50 be
       -0.30550355 -0.2568839 0.30146468 -0.2036247
000110 ad e3 6c 3d 10 9f 86 be b6 f6 9e be 0d ff 83 be
       0.057834316 -0.2629323 -0.310476 -0.25780526
000120 d3 40 cc bd 59 bf 8a be ef 01 78 be 64 ce 3b bd
       -0.09973302 -0.27099112 -0.24219488 -0.045851126
000130 d6 66 9e 3d b1 a0 86 3e 31 b0 a1 be 44 2e 95 3e
       0.07734458 0.26294473 -0.31579736 0.2913686
000140 5c 4d 05 be 0e 50 b6 be 3d 8d 5a bd 34 34 42 3d
       -0.13017792 -0.35607952 -0.05335735 0.047413066
000150 8e 4a c2 bc f3 38 87 3e 34 c1 2e be 53 3c 63 3d
       -0.023717191 0.26410636 -0.17065889 0.05547745
000160 30 e8 99 bc 1c db 89 be 3e 38 32 be 36 0d 0e 3e
       -0.018787473 -0.2692498 -0.17404267 0.13872227
000170 b2 45 15 be 89 c4 28 3e f9 05 6d 3d 41 94 a2 3e
       -0.14577368 0.16481222 0.057867024 0.31753734
000180 b0 38 33 3d 9b bb e7 bd cb 76 92 be a7 f2 74 be
       0.043755233 -0.1131508 -0.28606257 -0.2392069
000190 4f ee b9 3d 61 0b 49 3e 28 66 a7 3e 18 06 06 3c
       0.09078657 0.19633247 0.32695127 0.008180164
0001a0 9b b1 1f 3e 1b fa 84 be 73 8f ad 3e 1c 82 a5 3e
       0.15595095 -0.25972065 0.33898506 0.32325828
0001b0 4f 25 4c be 4e f6 a1 3e d1 3e a6 3e cc 05 94 3e
       -0.19936107 0.31633228 0.324698 0.28910673
0001c0 32 0f 91 be b4 95 4f be 3e 90 44 3d aa 43 8e be
       -0.28331906 -0.20271951 0.047989123 -0.27786
0001d0 ee 89 4e be e5 36 70 bd a1 62 a9 3d ce fb 84 be
       -0.20169804 -0.0586461 0.08270765 -0.25973362
0001e0 99 31 0e 3e 7c c5 83 be 63 35 04 be 2f 3f a2 3e
       0.13886108 -0.25736606 -0.1291099 0.3168883
0001f0 4e b7 84 be 47 18 87 3e e9 d9 a0 3e ab 67 87 be
       -0.259211 0.2638571 0.31416252 -0.2644628
000200 5f ea 78 3e b4 fe 84 be 1a 81 bf bd 5e f4 60 be
       0.24308155 -0.25975573 -0.09350796 -0.21968219
000210 a2 bb 9d 3e 44 1e 49 3a 14 83 c2 bd 44 0e 37 be
       0.30807215 0.00076720514 -0.094976574 -0.17876536
000220 0d 9b 62 bc e9 65 54 be 36 7c 16 be 27 5d 4e 3d
       -0.013830912 -0.20742 -0.1469582 0.050381806
000230 c3 32 26 3e 4d a6 b9 be b2 b9 99 be 4f 54 84 3e
       0.16230302 -0.3625969 -0.30024487 0.25845572
000240 84 c3 54 be 4c 08 9d 3e f7 c1 65 3e e4 28 6b 3e
       -0.20777708 0.30670393 0.22437273 0.22964817
000250 4b 81 6e 3e 52 4c 9f ba 01 d3 b5 3e 52 56 54 be
       0.23291509 -0.0012153483 0.35512546 -0.20736054
000260 28 9c 0e 3d 1a 1b 84 be dc bd 95 3e aa 4d 6e 3e
       0.03481689 -0.25801927 0.29246414 0.23271814
000270 a0 dc 3c be d5 ae e5 bd 60 a5 92 3e e8 9f 15 3d
       -0.18443537 -0.11214987 0.28641796 0.03652945
000280 18 a9 60 be aa 0f 7e be b8 e1 1b 3e fb 59 20 bd
       -0.21939504 -0.24810663 0.15222824 -0.039148312
000290 62 c6 2c 3e 3f 06 90 be c6 d2 a5 be 66 eb a8 be
       0.16872552 -0.28129765 -0.3238737 -0.32992095
0002a0 56 ba 55 bd 54 ec 99 be bd ca c1 bd 7b 32 82 3b
       -0.052179657 -0.30063117 -0.094624974 0.003973303
0002b0 03 20 05 3e d8 dc ab 3e a0 b5 d6 bd 0d 28 92 3e
       0.13000493 0.33566928 -0.10483861 0.2854618
0002c0 fe af 3a be ff b3 38 3d 76 14 c1 bc cc 6f 55 be
       -0.18231198 0.045093533 -0.023569327 -0.20843428
0002d0 ec f8 78 3e 74 63 84 3e 81 4b 89 be d6 50 5e be
       0.24313706 0.25857127 -0.26815417 -0.21710524
0002e0 29 72 a1 be 2c 91 ae be 9a a0 88 be 04 e0 14 be
       -0.3153241 -0.34095132 -0.2668503 -0.1453858
0002f0 55 49 2f 3e 22 81 59 3e 20 f2 2c 3e 7a 03 af 3e
       0.17117818 0.21240667 0.16889238 0.3418234
000300 35 78 bd bc 43 cc b7 3d 96 59 91 be 28 3f 9a be
       -0.023128608 0.08974507 -0.2838866 -0.3012631
000310 c1 d8 46 be ff e4 70 be 62 18 ab be d3 1d d5 3a
       -0.19418623 -0.23524855 -0.3341704 0.0016259499
000320 d9 96 ae 3e a9 cb 83 be 98 81 9e be fe bb 75 be
       0.34099463 -0.25741318 -0.30958247 -0.23997495
000330 9a bf 8c 3e 4b a6 81 3e da 2b a9 be 4a 12 b1 be
       0.2748993 0.25322184 -0.3304127 -0.34584266
000340 86 04 a6 3e 38 66 8f 3e c9 1a 54 bc f1 6d 8e 3e
       0.32425326 0.28007674 -0.012945839 0.27818254
000350 25 0f 8d 3e d0 53 9f be 9d 22 a3 bd 1b a4 3a 3e
       0.27550617 -0.3111863 -0.07965586 0.18226664
000360 4e 9b 8d be 1a 30 88 3e 88 38 94 be 9e fe b3 be
       -0.2765755 0.265992 -0.2894938 -0.35155195
000370 d3 79 93 be d1 67 56 bd 89 b5 a0 be df 7b 91 be
       -0.28803882 -0.0523451 -0.313885 -0.2841482
000380 8f ef 76 be d7 c2 83 be 71 a1 ff bd 20 f5 9e 3d
       -0.24114822 -0.25734589 -0.124819644 0.07761598
000390 ba b4 9c be 94 57 30 39 0d b6 62 3e 6a b8 55 3e
       -0.30606633 0.00016817293 0.2213976 0.2087113
0003a0 9d 5a 10 bc 7e 2f 9f 3d d3 ce 91 be f7 9c 5c bd
       -0.008810666 0.0777273 -0.28478107 -0.05386063
0003b0 2f b5 2d be 54 fd c4 3d d1 75 32 3e 03 3b 83 3e
       -0.16963647 0.09618631 0.17427756 0.2563096
0003c0 b1 a0 68 3e 06 14 8d 3e 30 0d 80 3e fa 4b cd bd
       0.22717549 0.2755434 0.2501006 -0.10024257
0003d0 e6 5e 41 3e f1 a8 8f bc d5 0e ad be 99 34 9f 3d
       0.18883857 -0.017536612 -0.33800378 0.07773704
0003e0 66 63 85 3e d5 c7 84 3e 58 c2 b8 3d 84 5e 41 3e
       0.26052397 0.2593371 0.09021443 0.18883711
0003f0 1b 5e b1 3d d9 f5 7f 3e 38 48 3b be 18 4f 66 bd
       0.08660527 0.24996127 -0.18289268 -0.056227773

W_U f4 [96, 120]
000000 9a 8d 90 3d d2 b3 4b bc f3 52 00 3d 35 5c 9f 3d
       0.07058258 -0.012433009 0.031329107 0.07781259
000010 0c 2f b5 3d 6e 7f ba 3d 12 07 97 be 0e d8 d3 3b
       0.08846864 0.091063365 -0.29497582 0.0064649647
000020 a5 12 d8 3d f3 ba 61 3d ae a8 9b be eb bb 2e 3d
       0.10550431 0.05510993 -0.3040213 0.04265968
000030 73 e4 ef 3b 8f 33 b7 3c a0 75 1d 3d 18 7b af 3d
       0.0073209344 0.022363452 0.038442254 0.085684
000040 69 38 40 3d 04 a6 32 3d 8b 0e 33 3c 6b be bd 3d
       0.046928797 0.043615356 0.01092876 0.09264835
000050 c3 72 50 3d 0a 87 8a be 84 f5 c4 3c 06 e2 46 3d
       0.050890695 -0.27056152 0.024042852 0.048555396
000060 8d 56 b8 bb 1e a3 80 3d 2d 08 19 3d 21 f2 85 3d
       -0.005625552 0.06281112 0.037361313 0.06540323
000070 9c 86 7c 3d 74 47 c0 3d 78 4c a2 3d 19 d3 fa 3c
       0.06165181 0.093886286 0.079247415 0.030618237
000080 99 f5 e5 ba 03 05 16 3d 5d 4f 89 3d d2 02 ec 3c
       -0.0017544507 0.036625873 0.067045905 0.028809939
000090 77 22 3c bd 99 5e b6 3c 05 bc 43 3d 68 02 aa 3d
       -0.045931306 0.022261905 0.04778673 0.0830124
0000a0 c8 1e b7 3d 12 28 20 3d 5d 6d 26 3d f0 3b 91 3b
       0.08941418 0.039100714 0.04063164 0.004432194
0000b0 82 05 ce 3d 7d cf 0f bc 3f 26 93 be 7c e1 8d 3d
       0.10059644 -0.008777496 -0.28740117 0.06927773
0000c0 c9 74 d0 3d 36 a0 1a bd db 11 af be 0e 4d 25 3a
       0.10178525 -0.037750445 -0.3419331 0.00063057325
0000d0 0b c6 50 3d b5 e8 d2 3d bc ea 7e 3d c1 52 29 3d
       0.05097012 0.102982916 0.06223558 0.041338686
0000e0 d1 f4 87 3d 43 78 ac 3d c2 ad 68 3d 1f 05 2f 3d
       0.06638492 0.084213756 0.056806333 0.042729493
0000f0 94 43 b3 3d ef a3 b6 be 51 37 a1 3c 93 18 90 3d
       0.08753124 -0.35671946 0.019679697 0.07035937
000100 74 7b bf 3a 30 c6 ea 3d a7 c1 e8 3c de 49 5a 3a
       0.0014608935 0.114635825 0.028412653 0.0008327047
000110 0f 6d 89 3d ed 1a cd 3d 68 52 a6 3d 41 c9 93 3d
       0.067102544 0.10014901 0.081211865 0.072161205
000120 34 2b c0 3d 1e 64 a3 3c d7 ca 7f 3d 88 a5 76 3d
       0.0938324 0.0199452 0.062449303 0.060216457
000130 68 47 bf 3c 32 84 af 3c 0e 08 25 3d 4b 0b ba 3d
       0.023349479 0.02142534 0.040290885 0.09084185
000140 c2 44 cf 3b a4 88 29 3d 57 8e 41 3d f2 54 af 3c
       0.0063253352 0.041390076 0.047254886 0.02140281
000150 5c 8f 27 3d 1b 1c 9e be 1c 3f 6c 3d f3 48 88 3d
       0.040908203 -0.30880818 0.057677373 0.06654539
000160 fd 2a 78 3d bc 4e 72 3d 0a 97 aa 3d 42 bb 99 be
       0.06058787 0.05915712 0.0832959 -0.3002568
000170 f8 de 17 bd 25 67 c5 3d 64 be 8e 3d 47 9f 96 be
       -0.037077874 0.09638814 0.06969908 -0.29418394
000180 f7 4c 3c 3d 10 c6 4b 3d e3 b6 cd 3c 76 c2 fe 3c
       0.045971837 0.049749434 0.025111621 0.031098586
000190 f2 50 cd 3d a5 65 3f 3d 55 3f 0b 3c d5 40 c0 ba
       0.10025205 0.046727795 0.008498986 -0.0014667759
0001a0 59 62 20 3d e8 7b b5 be a0 e0 85 3d 32 80 d2 3c
       0.03915629 -0.35446095 0.065369844 0.025695894
0001b0 f2 b6 0a 3e bd 76 c8 3c 41 77 a8 3d d0 42 b0 be
       0.1354635 0.024470681 0.08225871 -0.34425974
0001c0 27 d4 ad 3d 1b 8a cb 3d 72 d1 b1 bb 9c ec c2 be
       0.084877305 0.09938451 -0.005426579 -0.38071144
0001d0 07 93 37 3d 93 2a 42 3c c8 a5 9b 3d e4 46 2b 3c
       0.04481795 0.011850971 0.0759998 0.010453913
0001e0 6e 1d c2 3d e0 ac 76 3d 5f f3 37 bc 48 fc 3e 3d
       0.094782695 0.06022346 -0.011227458 0.046627313
0001f0 7a 99 84 3d 3d 6a 8a 3d 55 3c a3 be 3b 36 bb 3d
       0.06474586 0.067585446 -0.31881967 0.09141203
000200 2c 90 05 bd e0 80 43 3d ca c4 e3 3d 60 b6 00 3d
       -0.032608196 0.047730327 0.11121519 0.031423926
000210 64 84 b7 be 5f 6e d6 3c c9 d2 23 3d 3d ce bb 3d
       -0.35843194 0.026175676 0.039995942 0.09170196
000220 38 3a b5 be ad 8a 55 3d ac ad bf 3c cf 2f 82 3d
       -0.3539598 0.052134205 0.023398243 0.06356775
000230 d4 15 00 3e e2 94 3a 3d e8 79 11 3c f3 90 ae 3d
       0.12508327 0.045552142 0.008879162 0.085237406
000240 2f 6c 94 3d c6 47 0c 3e 7a 12 8c bc c7 7d aa be
       0.07247197 0.13699254 -0.017098654 -0.33299085
000250 cf 96 1b bd 78 de 08 bb d7 44 82 3d dc 04 9f be
       -0.03798562 -0.0020884555 0.063607864 -0.31058395
000260 75 0e 1e 3d 47 42 6f 3d 72 d9 d0 3d 87 76 5b 3d
       0.038588006 0.058412816 0.101977244 0.053579833
000270 92 18 cd 3b 97 7b 82 3d 56 5b be 3d f3 81 a5 3c
       0.0062590325 0.06371229 0.09294765 0.020203566
000280 fc fd be 3d a7 1f 0f 3c dd bf b7 be f9 0c b6 3c
       0.093257874 0.008735574 -0.35888568 0.022222983
000290 88 0a 36 3d 2e 9f 27 3e 28 a1 ae 3a 12 66 22 bc
       0.044443637 0.16369316 0.0013323175 -0.009912031
0002a0 1b 2a 9f 3d 6b 27 6f 3c 9c 0d 24 3d a9 b8 89 3d
       0.07771703 0.0145968 0.04005204 0.06724674
0002b0 ed 1b 34 3c ca ba 0a 3a 68 02 98 bc 21 41 14 3e
       0.010992986 0.0005292116 -0.018555835 0.1447797
0002c0 94 31 70 3c fb 46 97 3d 03 69 ab 3d 9b 5d 67 3d
       0.014660258 0.07386585 0.08369639 0.056485754
0002d0 73 39 ed 3c 27 c1 fa 3d 43 88 83 3c ff e8 b7 bc
       0.028958058 0.12243872 0.016056186 -0.022449968
0002e0 ca 98 7b 3d 97 98 8e 3c 81 84 aa be c8 fb 30 3d
       0.061425008 0.017406745 -0.33304217 0.043208867
0002f0 f0 d7 9c bb 88 8c 6f 3d 7f 8d 6e 3d b5 11 62 3d
       -0.004786484 0.05848363 0.05824041 0.055192668
000300 85 a5 ba be 23 aa 1e 3d 93 b1 43 3d 7b 7d 32 3d
       -0.36454406 0.038736474 0.04777677 0.0435767
000310 81 89 ac be bc a6 6a 3d c7 e6 d6 3c cb 35 ac 3d
       -0.33698657 0.057287917 0.02623309 0.08408698
000320 ce 0a 51 3e 5b a3 2d 3c aa 4c e2 bc 25 ef 44 3d
       0.20414278 0.010598029 -0.027624447 0.04807963
000330 0e a0 dc 3d 9b 66 81 3d 36 20 a7 3d 40 a3 ad be
       0.107727155 0.063183986 0.081604406 -0.33913612
000340 03 8d 54 bd b1 4a 9b 3d 0a 0b 85 3d 18 f2 a2 be
       -0.05189229 0.07582606 0.06496246 -0.31825328
000350 04 71 85 3d 58 b5 52 3d 0a 78 87 3d f6 17 92 bc
       0.06515697 0.051442474 0.066146925 -0.017833691
000360 0c a3 8f 3d 77 26 30 3d 78 cf 37 3d 31 73 e6 bc
       0.070135206 0.043005433 0.044875592 -0.0281311
000370 fb 7c 0a 3e 95 fe b4 3d 84 82 a6 be 90 ae 9e bc
       0.13524239 0.0883762 -0.3252145 -0.019370347
000380 01 5f dc 3d f8 9b 2f 3e f5 bb 3b 3d 49 d4 58 3d
       0.10760308 0.17149341 0.045833547 0.052936826
000390 53 3e 90 3c bd a4 08 3e 36 13 08 3d 3d d2 f2 3d
       0.017607844 0.13344093 0.033221446 0.11856506
0003a0 f8 1d 02 3d 9f a9 e1 3d cd be c5 bc d7 9e b8 3d
       0.03176686 0.11018681 -0.024138832 0.09014671
0003b0 b9 4b 0e 3d 33 d0 96 3d a4 ee e5 3c da 50 3a 3d
       0.034740184 0.073639296 0.028067894 0.045487262
0003c0 36 d4 e4 3e 72 25 dd 3e b7 bd f1 3e f0 fe ed 3e
       0.44693154 0.4319263 0.47215053 0.46483564
0003d0 9d 98 e4 be 47 03 dd 3e 9d d9 f6 3e 6e c4 ea 3e
       -0.44647685 0.43166563 0.482129 0.4585299
0003e0 e9 75 e3 3e 93 c5 e4 be 2a 55 e2 3e bd fa e3 3e
       0.44425896 -0.44681987 0.442056 0.44527236
0003f0 de ed ee 3e 2a 32 df 3e 93 2d eb be 5c c7 f5 be
       0.46665853 0.4359296 -0.45933208 -0.48003662
