rep_theory/batch_experiments/S5_MLP_hidden_dim_48_seed1/model.pt (torch, 153567 bytes, 4 tensors)

W_x f4 [120, 96]
0	0xbec1c488	-0.37845254
1	0x3ec9faae	0.39449066
2	0x3ec1cf38	0.37853408
3	0xbea85a5f	-0.32881448
4	0xbe71a1cf	-0.23596881
5	0xbe3d5a09	-0.18491377
6	0xbf275f29	-0.6537958
7	0x3b53dab7	0.003232641
8	0x3e77b4ef	0.24190114
9	0x3ed51953	0.41620883
10	0xbe900b5b	-0.28133664
11	0xbee3b247	-0.44471952
12	0xbebd5b7b	-0.36983857
13	0x3e53cbd3	0.20683222
14	0xbecf136f	-0.40444514
15	0x39bf0cba	0.0003643984
16	0x3e4db0cc	0.20086974
17	0x3edf4b42	0.43612105
18	0x3f2a270a	0.6646582
19	0x3eaa229d	0.33229533
20	0x3e2e391f	0.17013977
21	0x3da27d5f	0.07934069
22	0xbd9bfb2d	-0.07616267
23	0x3efc7647	0.49308988
24	0x3dd81f7d	0.10552881
25	0xbe92c528	-0.28666043
26	0xbf0a8e0b	-0.5412299
27	0xbee48c08	-0.44638085
28	0x3f00cb99	0.50310665
29	0xbe7767d6	-0.24160704
30	0xbe861c95	-0.2619368
31	0xbebce375	-0.36892286
32	0x3e2e908d	0.17047329
33	0x3d358652	0.04431755
34	0x3e4d2be4	0.20036274
35	0xbda5f740	-0.081038
36	0xbf043016	-0.51635873
37	0x3d28356c	0.041066572
38	0xbeeac6bb	-0.45854744
39	0x3d0bfccf	0.034176644
40	0xbe2b2de9	-0.16716732
41	0xbeb782b3	-0.35841903
42	0x3e656157	0.22400413
43	0xbecda8b1	-0.40167764
44	0x3f032498	0.5122771
45	0xbe078b4a	-0.13236728
46	0x3e8e39c1	0.27778438
47	0x3f107c39	0.5643955
48	0x3cff3b0b	0.031156084
49	0xbe9a0a0e	-0.30085796
50	0x3dfb19fe	0.12260817
51	0x3f194bf9	0.5988155
52	0x3ea1796a	0.31537944
53	0xbe89bf00	-0.26903534
54	0xbef5e484	-0.48025906
55	0x3ed0bc52	0.40768677
56	0x3eebbd6f	0.46042964
57	0xbeea9d90	-0.45823336
58	0x3caded75	0.021231392
59	0x3e29e5c6	0.16591558
60	0xbe9e2833	-0.30890045
61	0xbee2e0a3	-0.4431201
62	0x3e8dffee	0.2773432
63	0x3e84b580	0.25919724
64	0x3f2a843a	0.6660801
65	0xbdefc90f	-0.11708271
66	0x3e46310c	0.19354647
67	0x3ee18f5a	0.4405468
68	0x3ed0f51a	0.40811998
69	0x3f2d34e4	0.6765883
70	0x3eccd3e3	0.40005407
71	0x3f199e97	0.60007614
72	0xbf37d9f6	-0.71816957
73	0xbf225064	-0.63403916
74	0xbe0ad64c	-0.1355831
75	0x3e68f721	0.22750522
76	0x3ee7cbc5	0.4527265
77	0x3e80f962	0.25190264
78	0x3c874e14	0.016516723
79	0x3e65d178	0.22443187
80	0xbd8149af	-0.06312882
81	0x3e69ca72	0.22831133
82	0xbe7a9e27	-0.24474393
83	0xbed0ece2	-0.40805727
84	0x3f1a54cf	0.6028566
85	0x3dbf93fd	0.093543984
86	0xbe9877fd	-0.29779044
87	0x3dbf6bf1	0.0934676
88	0x3e49100f	0.19635032
89	0x3ed38e4f	0.4131951
90	0xbeedb254	-0.46425116
91	0x3f0166c1	0.50547415
92	0x3f0fd957	0.5619101
93	0x3ecac2c8	0.3960173
94	0xbf032bff	-0.5123901
95	0x3f264cb1	0.6496077
96	0x3f0b3422	0.54376423
97	0xbeb5f3f4	-0.35537684
98	0xbf27bf5e	-0.6552638
99	0xbe11d0e9	-0.14239849
100	0x3e808b49	0.25106266
101	0x3d73f279	0.05955741
102	0xbe6f999e	-0.23398444
103	0xbec49630	-0.38395834
104	0xbf0d103d	-0.551029
105	0x3f021dbc	0.5082662
106	0xbecf5a70	-0.40498686
107	0x3e6b9e76	0.23009667
108	0xbe803bc9	-0.25045612
109	0xbec28150	-0.37989283
110	0xbf1086c1	-0.5645562
111	0xbdfacd5a	-0.12246199
112	0x3ebbcf16	0.36681432
113	0xbe1f5490	-0.15559602
114	0xbceb6b5c	-0.028737716
115	0x3e32b393	0.17451315
116	0x3edf5b99	0.4362457
117	0xbe584819	-0.21121253
118	0x3f33b05a	0.70190966
119	0xbe86210d	-0.2619709
120	0x3ed8e2ee	0.42360634
121	0x3c8b5c6c	0.017011844
122	0x3dad7d56	0.084711716
123	0x3f0628c0	0.5240593
124	0xbee251b6	-0.44202965
125	0xbe316e71	-0.17327286
126	0x3bd204e0	0.0064092726
127	0x3edd160c	0.43180883
128	0xbeaa176a	-0.3322099
129	0xbc4084dc	-0.011750426
130	0x3f28be72	0.65915596
131	0x3ec4f23f	0.3846607
132	0x3da15394	0.078772694
133	0xbedb7077	-0.4285924
134	0x3ef08dd6	0.46983212
135	0x3e90a1f5	0.28248563
136	0xbeaa8548	-0.3330481
137	0x3cc5d159	0.024147676
138	0x3eb7a4f2	0.3586803
139	0xbeb60921	-0.3555384
140	0xbe41ae0d	-0.18914051
141	0xbebe1c78	-0.37131095
142	0x3ee5afa3	0.44860563
143	0x3e936794	0.2878996
144	0xbeae13f7	-0.33999607
145	0xbca10cb4	-0.019659378
146	0x3eb282c9	0.34865406
147	0xbda7b69e	-0.08189128
148	0x3eb7e93a	0.35920125
149	0x3eca7a10	0.3954625
150	0x3ebfe977	0.37482807
151	0xbe8de7cd	-0.27715912
152	0xbf0234da	-0.50861895
153	0x3e8c7e3d	0.27440062
154	0x3ec1c978	0.3784902
155	0x3ed24645	0.41069236
156	0x3f0785eb	0.5293872
157	0x3ec48e7e	0.38389963
158	0xbe4847d2	-0.19558647
159	0x3e966fa4	0.2938205
160	0xbee0b55a	-0.4388836
161	0x3effdf17	0.49974892
162	0x3e1afacf	0.15134738
163	0x3ee4a8c4	0.44660008
164	0xbed50acc	-0.416098
165	0xbf1b4079	-0.6064525
166	0x3ec571ae	0.38563293
167	0x3e5d79b7	0.21628462
168	0x3ea7c688	0.32768655
169	0x3d00c4c3	0.031437647
170	0x3f2ad8d5	0.6673711
171	0xbf09b40b	-0.5379035
172	0xbf01e938	-0.5074649
173	0xbed06f54	-0.40709937
174	0x3ee6570c	0.44988286
175	0x3db98af8	0.09059709
176	0xbe84ed41	-0.2596226
177	0xbe413262	-0.18866876
178	0x3ec17f1e	0.37792295
179	0xbee2124e	-0.4415459
180	0xbef10804	-0.47076428
181	0xbecf90ec	-0.40540254
182	0xbd417f60	-0.047240615
183	0x3e705081	0.2346821
184	0x3edf757a	0.43644315
185	0x3ce883f3	0.02838323
186	0x3e304ed6	0.17217574
187	0x3e719b9e	0.2359452
188	0xbe5a23d4	-0.2130273
189	0x3e867231	0.26258996
190	0xbd3539e7	-0.044244673
191	0xbed85369	-0.42251137
192	0x3e9da0c9	0.30786732
193	0x3e1309e7	0.14359246
194	0x3ede779c	0.4345063
195	0x3f20f8f8	0.62879896
196	0xbe5d3668	-0.21602786
197	0x3e5a52dd	0.21320672
198	0xbf159182	-0.5842515
199	0xbedad820	-0.42743015
200	0x3ee93b10	0.45552874
201	0xbf0889a0	-0.53335
202	0x3e0d670d	0.13808842
203	0xbf3183d6	-0.6934179
204	0x3e4dfe5f	0.20116566
205	0x3e0dfdda	0.13866368
206	0x3f04b2d5	0.51835376
207	0xbdb00d4e	-0.08596288
208	0x3edba9d6	0.42903012
209	0x3e0f2a55	0.13980992
210	0xbe14b599	-0.14522399
211	0xbf08e2d2	-0.534711
212	0x3d8b2205	0.06793598
213	0xbee7c833	-0.45269927
214	0xbe0365b0	-0.1283176
215	0xbe7a605e	-0.24450824
216	0xbcffaffc	-0.031211846
217	0xbde2d39e	-0.11075519
218	0x3da029ee	0.078204975
219	0x3ed8fbf5	0.42379728
220	0x3ed7bc9b	0.42136082
221	0xbded5a24	-0.115894586
222	0xbe2f6ab2	-0.17130545
223	0x3f138e4d	0.5763901
224	0x3ec8d590	0.39225435
225	0x3ee1d510	0.44107866
226	0xbea168cd	-0.3152527
227	0x3dc53458	0.096291244
228	0xbee99380	-0.45620346
229	0x3d5a7c13	0.053340983
230	0x3f0a4973	0.54018325
231	0xbe49d7bb	-0.19711201
232	0xbf21523a	-0.6301609
233	0xbdeefb62	-0.11669041
234	0x3f200dc8	0.6252103
235	0x3edb8269	0.42872933
236	0x3e22729c	0.15864033
237	0x3d9a754b	0.07541903
238	0xbf0d8ef7	-0.5529627
239	0xbed3f3eb	-0.41397032
240	0x3eee2e73	0.46519813
241	0x3e865f45	0.2624456
242	0x3ba7d612	0.0051219547
243	0xbe6ad524	-0.22932869
244	0xbf05bf07	-0.5224461
245	0xbed13a9d	-0.4086503
246	0x3eef1caf	0.4670157
247	0xbf14e894	-0.58167386
248	0x3ef77723	0.48333082
249	0xbea4eed7	-0.3221347
250	0xbecdadf5	-0.4017178
251	0x3e3e5ace	0.18589327
252	0x3efb77a8	0.49114728
253	0x3d15c038	0.036560267
254	0xbc6c7781	-0.014432789
255	0x3d68e908	0.05686286

W_y f4 [120, 96]
0	0xbf288763	-0.65831584
1	0x3f1669ae	0.58755004
2	0xbea12c77	-0.31479236
3	0x3ddc7cbb	0.10765978
4	0x3d1f0f9b	0.038833242
5	0xbe64d137	-0.22345434
6	0x3ef8b81b	0.4857796
7	0xbda28414	-0.07935348
8	0x3f11e7f7	0.56994575
9	0xbea39a76	-0.31953782
10	0xbed2da3c	-0.41182125
11	0xbca255e9	-0.019816356
12	0xbed14b5d	-0.4087781
13	0x3e383c5e	0.17991778
14	0x3ec51505	0.384926
15	0x3f0ed769	0.5579744
16	0xbd32d5de	-0.04366099
17	0xbe04773f	-0.12936114
18	0xbea54af0	-0.32283735
19	0x3f1093a8	0.56475306
20	0x3ee1aac0	0.44075584
21	0x3e3aec37	0.18254171
22	0x3e71416b	0.23560111
23	0x3e2c4cae	0.16826126
24	0xbf0b623a	-0.54446757
25	0xbe5edbf3	-0.21763591
26	0x3ecf926a	0.40541393
27	0x3f24e319	0.64409024
28	0x3d65fd25	0.05614962
29	0x3e5a6143	0.21326165
30	0x3ed472cd	0.41493836
31	0xbe712322	-0.23548558
32	0x3c9f2ac4	0.019429572
33	0x3eb3e038	0.35132003
34	0x3ef624c7	0.48074934
35	0x3f2d5d57	0.6772055
36	0xbdc711c6	-0.09720187
37	0x3ee55100	0.4478836
38	0xbe211406	-0.15730295
39	0xbeabb571	-0.33536866
40	0xbf1fcbad	-0.6242016
41	0x3e4c07d4	0.19924861
42	0x3f060eb6	0.523662
43	0xbecad533	-0.39615783
44	0x3ebe36de	0.37151235
45	0x3e8f6a0c	0.28010595
46	0xbf2c1778	-0.6722331
47	0xbf232a55	-0.6373647
48	0xbf415f27	-0.75535816
49	0xbe5c17d6	-0.21493468
50	0xbeb52d1a	-0.35385972
51	0xbf18e521	-0.5972462
52	0xbeec59a4	-0.4616214
53	0x3f172a4e	0.59048927
54	0x3ea72bfe	0.3265075
55	0x3f1d8747	0.6153454
56	0x3e504f09	0.2034265
57	0xbf43d6df	-0.7649974
58	0xbea3f831	-0.32025293
59	0xbeda828a	-0.42677718
60	0x3e41e909	0.18936552
61	0xbee13542	-0.43985945
62	0xbee039b5	-0.43794027
63	0xbe732df1	-0.23747994
64	0xbe912bf5	-0.2835385
65	0x3d2f1d3e	0.042752497
66	0x3f01c677	0.5069346
67	0xbf06a725	-0.5259879
68	0xbe55b07a	-0.20868102
69	0xbf12befe	-0.5732268
70	0xbdc3a211	-0.09552396
71	0x3db39996	0.087695286
72	0x3e89e4b7	0.26932308
73	0x3ed18a71	0.40925935
74	0xbf218c73	-0.63104934
75	0xbf127b24	-0.5721915
76	0xbf062fef	-0.5241689
77	0xbd378dd0	-0.044812977
78	0xbe844934	-0.258371
79	0x3e064384	0.13111693
80	0x3ec82f1d	0.39098445
81	0x3c4830a3	0.012218627
82	0xbf2265f8	-0.6343684
83	0xbf287fbf	-0.65819925
84	0xbd8b4737	-0.068006925
85	0x3d5ee6d2	0.054419346
86	0x3ecc4273	0.39894447
87	0xbeb9f713	-0.36321315
88	0xbd4471c7	-0.04796007
89	0x3f4a6ab8	0.7906909
90	0xbe90d082	-0.2828408
91	0x3eb72c04	0.3577577
92	0x3ea0e14f	0.31421897
93	0x3f118d4d	0.5685623
94	0xbdbc8612	-0.092052594
95	0xbeee9521	-0.4659815
96	0x3e104067	0.14087068
97	0xbe831bb9	-0.25607088
98	0x3ecbdc83	0.39816675
99	0x3ed70d0c	0.4200214
100	0xbdf92141	-0.12164546
101	0xbf430a83	-0.76187915
102	0xbe8481f1	-0.25880387
103	0x3eab85b7	0.33500454
104	0x3efba97a	0.49152738
105	0x3f046eba	0.51731455
106	0xbef9cd52	-0.4878946
107	0x3eeba3d0	0.46023417
108	0x3e877f5b	0.26464352
109	0xbd58dd21	-0.05294526
110	0x3f04e0d5	0.51905566
111	0x3eca2edd	0.3948888
112	0x3d14e1f6	0.036348306
113	0x3e3dc190	0.1853087
114	0xbf36f1b6	-0.7146257
115	0xbdcc001d	-0.09960959
116	0x3db7ef41	0.08981181
117	0x3e25e656	0.16201147
118	0x3da6c5e1	0.08143211
119	0x3ed4dcbb	0.41574654
120	0x3e205f07	0.1566125
121	0x3c9e9b7d	0.019361252
122	0x3c02bff4	0.0079803355
123	0x3de6aba8	0.112632096
124	0xbe82bb8e	-0.25533718
125	0x3ec679ac	0.38764703
126	0x3f10ebb8	0.5660968
127	0xbeb7e44a	-0.35916358
128	0x3e6845de	0.22682902
129	0x3e9d1d1b	0.30686268
130	0xbe5bba84	-0.21457869
131	0xbe92c0b4	-0.28662646
132	0x3e47ae27	0.19500028
133	0xbee384da	-0.44437295
134	0x3e760e97	0.24029003
135	0xbe135a6d	-0.14389963
136	0xbf02cb98	-0.5109191
137	0x3dfd2afe	0.12361716
138	0xbeb3c637	-0.35112163
139	0x3ed9fdbd	0.425764
140	0xbef5150a	-0.47867614
141	0x3e232aa4	0.15934235
142	0x3e736a5a	0.23771039
143	0x3eac7afd	0.33687583
144	0xbf339620	-0.7015095
145	0x3ebe331f	0.37148377
146	0x3cd600f1	0.026123496
147	0x3d01d900	0.031701088
148	0xbe47812e	-0.19482872
149	0x3dc5137a	0.096228555
150	0x3f1bb4c0	0.6082268
151	0x3df7190a	0.12065323
152	0xbe38c78b	-0.1804487
153	0xbcae634d	-0.021287585
154	0xbe99adc2	-0.3001538
155	0x3ea2f6a6	0.31828803
156	0x3f12305b	0.57105035
157	0xbe26d46b	-0.16291969
158	0xbf150476	-0.5820993
159	0xbf245b79	-0.64202076
160	0x3e9b847f	0.30374524
161	0x3f08fbe8	0.5350938
162	0xbe5edf9b	-0.21764986
163	0x3ed87340	0.4227543
164	0xbf22eb24	-0.63640046
165	0x3ef402a1	0.47658256
166	0x3e8e0190	0.27735567
167	0x3ebacb38	0.3648317
168	0xbe148594	-0.14504081
169	0x3ddeb84b	0.10874995
170	0x3e26d294	0.16291267
171	0x3eae3c0e	0.34030193
172	0xbcd38bbf	-0.025823472
173	0x3f03fe16	0.5155958
174	0x3eb4fd25	0.35349384
175	0x3ebdc643	0.37065324
176	0x3db787b4	0.0896143
177	0xbdcf6deb	-0.10128387
178	0x3e0b2767	0.1358925
179	0xbe1d5524	-0.1536451
180	0xbde8a033	-0.113586806
181	0xbdbe0990	-0.09279168
182	0xbd9373b9	-0.07199807
183	0x3c59f7ad	0.013303679
184	0x3d69317c	0.056931958
185	0xbf1598db	-0.58436364
186	0xbea45a93	-0.32100353
187	0x3ea95d6c	0.33079088
188	0x3e59e9bf	0.21280573
189	0x3d1ff70c	0.03905396
190	0xbebe36b5	-0.37151113
191	0xbee6e070	-0.45093107
192	0xbe877c86	-0.2646219
193	0xbf18f8dc	-0.5975473
194	0xbebed468	-0.37271428
195	0x3e67cc4d	0.22636528
196	0xbd3c73d7	-0.04600891
197	0xbf0c3bdd	-0.54778844
198	0x3ea4c28a	0.32179672
199	0xbe228264	-0.15870053
200	0xbeb93e51	-0.36180356
201	0x3f0cd5b6	0.55013597
202	0xbf13774b	-0.576039
203	0x3f0ef4c2	0.5584222
204	0x3e6bfffd	0.2304687
205	0x3e99e100	0.30054474
206	0x3f13d3a3	0.57744807
207	0x3e993d00	0.29929352
208	0xbf234421	-0.6377583
209	0xbee02fc3	-0.4378644
210	0x3f005276	0.50125825
211	0x3e059fdd	0.13049264
212	0x3f28797e	0.6581038
213	0x3f0f34c4	0.5593989
214	0xbef50b72	-0.47860295
215	0x3f0d3bf3	0.551696
216	0x3f2c35c8	0.67269564
217	0xbf171d97	-0.59029526
218	0x3f150715	0.5821393
219	0xbf3c7d13	-0.7362835
220	0x3e752dd7	0.23943268
221	0xbeaa5dc2	-0.33274657
222	0x3f12f263	0.574011
223	0xbeaf1fe6	-0.34204024
224	0x3f2fc9c5	0.6866725
225	0x3e105e12	0.14098385
226	0x3f170b6f	0.5900182
227	0x3ef5f948	0.4804175
228	0x3ca9a58c	0.020708822
229	0x3f1cb040	0.61206436
230	0xbe5e3dcc	-0.21703261
231	0x3f313675	0.6922372
232	0xbf2d1f93	-0.67626303
233	0xbf04d663	-0.5188963
234	0xbe7fbcd4	-0.24974376
235	0xbd97505c	-0.07388374
236	0xbed8ed18	-0.42368388
237	0x3f1517f9	0.58239704
238	0x3f00ff93	0.50389975
239	0x3ef442b3	0.47707137
240	0x3f1fbbab	0.62395734
241	0x3f050bc9	0.5197111
242	0x3e3390da	0.17535725
243	0x3ec4b6e1	0.38420776
244	0xbf1aa29c	-0.6040437
245	0xbe8dab94	-0.27669966
246	0xbf1f8a88	-0.62320757
247	0x3eca5fba	0.3952616
248	0xbf31dbcc	-0.6947601
249	0x3f195629	0.59897095
250	0xbf1ad1a7	-0.60476154
251	0x3ed0b736	0.4076478
252	0xbf0bbce6	-0.5458511
253	0x3f0c833b	0.5488774
254	0xbedbbada	-0.42915994
255	0x3eee70b4	0.4657036

W f4 [192, 48]
0	0xbf4419c5	-0.7660182
1	0x3f258fdb	0.6467263
2	0x3f20ab9c	0.62761855
3	0x3f3bd3d1	0.7337008
4	0xbf039bd7	-0.5140967
5	0x3f222431	0.63336474
6	0x3efc819f	0.49317643
7	0xbf24c3bf	-0.64361185
8	0x3f2a055c	0.6641443
9	0xbdde050b	-0.108408056
10	0xbeb5e431	-0.3552566
11	0xbec62d72	-0.38706547
12	0x3f13b329	0.5769525
13	0x3f1deee1	0.61692625
14	0xbf3b331f	-0.7312488
15	0x3ee9766b	0.45598158
16	0xbf362653	-0.7115223
17	0x3ef06437	0.46951458
18	0x3f21d8dd	0.6322153
19	0xbef802c7	-0.4843962
20	0xbf08cf1f	-0.5344104
21	0x3f1772b7	0.59159416
22	0xbf22da39	-0.6361423
23	0x3e4ddd80	0.20104027
24	0xbf2534b7	-0.6453356
25	0x3f12bfde	0.57324016
26	0x3ef1bc84	0.47214139
27	0xbf1eaf73	-0.61986464
28	0x3bc342fb	0.0059589124
29	0x3ef312ab	0.4747518
30	0xbf102ee4	-0.5632155
31	0xbf182719	-0.5943466
32	0xbefff509	-0.49991634
33	0x3f3133ee	0.69219863
34	0x3f464b76	0.77458894
35	0xbf16235b	-0.586477
36	0xbf42a14b	-0.76027364
37	0xbf06fa16	-0.5272535
38	0x3ef42f49	0.47692326
39	0xbeaa2b65	-0.33236232
40	0xbf1b4546	-0.6065258
41	0x3f1840f8	0.59474134
42	0xbee83a07	-0.4535677
43	0x3f13a9a3	0.5768072
44	0x3f3e44f5	0.7432397
45	0x3ec5546a	0.38540965
46	0xbf27ea95	-0.6559232
47	0x3f36e584	0.71443963
48	0xbf407bfa	-0.75189173
49	0xbebf07de	-0.3731069
50	0xbf26050a	-0.6485144
51	0x3f259697	0.64682907
52	0x3f0c399d	0.5477541
53	0xbf439050	-0.7639208
54	0x3f1275eb	0.5721118
55	0xbf2affd8	-0.66796637
56	0x3f0a8be1	0.5411969
57	0xbf03f44f	-0.5154466
58	0x3f3e6879	0.7437816
59	0x3ecf7bc3	0.4052411
60	0x3d200957	0.039071407
61	0x3f3cd23b	0.73758286
62	0xbf4a5164	-0.7903044
63	0x3f25995e	0.64687145
64	0xbf12ac8b	-0.5729453
65	0xbf12b2d0	-0.57304096
66	0xbe73a5b0	-0.23793674
67	0xbee97633	-0.4559799
68	0x3f2926b6	0.66074693
69	0xbf0c1ff8	-0.5473628
70	0x3eff80d9	0.4990299
71	0x3f214eea	0.6301104
72	0xbf0b86b5	-0.5450242
73	0xbf0188cc	-0.5059936
74	0x3f097037	0.5368685
75	0xbe0f60a9	-0.14001717
76	0xbeb52813	-0.35382137
77	0x3f34166c	0.70346713
78	0x3eef9408	0.46792626
79	0xbf3daf5a	-0.7409569
80	0xbf45ad09	-0.77217156
81	0x3f0f8db3	0.5607559
82	0xbf222a18	-0.6334548
83	0xbf36a56e	-0.71346176
84	0x3f0d43ec	0.55181766
85	0xbf1109e8	-0.5665574
86	0x3de03de6	0.10949306
87	0x3f19c604	0.6006777
88	0x3f02a129	0.5102716
89	0xbf3e2b5f	-0.7428493
90	0x3f144faf	0.5793409
91	0xbe937c05	-0.28805557
92	0xbf2003f9	-0.6250606
93	0x3ee6f335	0.45107427
94	0x3ebd8ec4	0.37022984
95	0xbf0eab81	-0.55730444
96	0x3f290795	0.66027194
97	0xbf1a843d	-0.6035803
98	0x3f2cd713	0.6751568
99	0x3f3998c6	0.7249874
100	0xbf1b042f	-0.6055326
101	0x3f2e1bce	0.68011177
102	0x3ef651bd	0.48109236
103	0x3f0ea97d	0.5572737
104	0x3f1780e1	0.5918103
105	0xbeeaf922	-0.45893198
106	0x3f25f570	0.6482763
107	0x3f2111f6	0.6291803
108	0xbf1eb76b	-0.61998624
109	0xbf1db826	-0.61609113
110	0xbf3d4581	-0.7393418
111	0xbf2b411f	-0.6689624
112	0x3f255d15	0.64595157
113	0x3db0d803	0.08634951
114	0x3ef8643b	0.4851397
115	0x3f09be9f	0.5380649
116	0xbf1afee3	-0.60545176
117	0x3f2888f2	0.6583396
118	0x3eb02617	0.3440406
119	0x3eb84fda	0.35998422
120	0x3f17f9c1	0.5936547
121	0x3f16d06c	0.58911777
122	0x3f383757	0.7195944
123	0x3f3f3023	0.74682826
124	0x3f24a887	0.6431965
125	0xbf30e10e	-0.69093406
126	0xbe98b9d5	-0.2982928
127	0x3f29e7a4	0.6636908
128	0x3eb9d6ee	0.3629679
129	0x3ebe362d	0.37150708
130	0x3f330bfa	0.6994015
131	0x3f36c42f	0.713931
132	0xbebe869c	-0.37212074
133	0x3e201253	0.1563199
134	0xbe3a4b69	-0.18192829
135	0x3f10c5dc	0.5655191
136	0x3ef756d5	0.48308435
137	0x3eea8bff	0.45809934
138	0x3f23c712	0.6397563
139	0xbec02805	-0.37530532
140	0x3f076634	0.52890325
141	0x3eec7a3d	0.4618701
142	0x3e968751	0.29400113
143	0xbf0daa5a	-0.5533806
144	0x3f23344e	0.63751686
145	0x3e965e07	0.29368612
146	0xbf319b31	-0.6937743
147	0xbef72bcb	-0.482756
148	0x3ef509b4	0.47858965
149	0xbf1b594a	-0.6068312
150	0x3f07a458	0.52985144
151	0xbf1cd60d	-0.61264116
152	0x3f2febea	0.6871935
153	0x3f146b01	0.57975775
154	0xbf4c52b4	-0.79813695
155	0x3eeba3f3	0.4602352
156	0x3f3be796	0.7340025
157	0x3f304f35	0.6887086
158	0xbf1a6503	-0.6031038
159	0xbf16a49a	-0.5884491
160	0x3e972c34	0.29525912
161	0xbf23b091	-0.63941294
162	0xbf10968e	-0.5647973
163	0xbf179efc	-0.59226966
164	0x3f244b02	0.6417695
165	0xbf37842e	-0.71686065
166	0x3e1dca17	0.15409122
167	0x3e9f7c6e	0.3114962
168	0xbf3645ce	-0.71200264
169	0xbf0509b6	-0.5196794
170	0xbf141694	-0.5784695
171	0xbecfca41	-0.40583995
172	0x3f33d5b1	0.7024794
173	0xbf21ca59	-0.63199383
174	0x3f1aa622	0.6040975
175	0xbe373cda	-0.17894307
176	0xbf39574e	-0.7239884
177	0xbf3217f4	-0.695678
178	0xbf187250	-0.5954943
179	0x3f29486c	0.6612613
180	0xbf1f462a	-0.62216437
181	0xbf1006ee	-0.56260574
182	0xbf369ca5	-0.7133277
183	0xbf18919d	-0.5959719
184	0x3f321f15	0.6957868
185	0xbf22e13e	-0.6362494
186	0xbf0522c0	-0.5200615
187	0x3f12a380	0.5728073
188	0xbef3b9e9	-0.47602776
189	0x3f05dbe9	0.5228868
190	0x3ec2f3d4	0.3807665
191	0x3f2a6691	0.66562754
192	0xbeddd978	-0.43329978
193	0x3f36be2f	0.7138395
194	0x3f18aaa2	0.59635365
195	0xbe8dc82a	-0.27691776
196	0xbf218270	-0.63089657
197	0x3eef17b8	0.46697783
198	0x3f1f0401	0.62115484
199	0x3eebe078	0.46069694
200	0xbef23528	-0.4730618
201	0xbf0341a7	-0.5127205
202	0x3e6ae387	0.22938357
203	0xbe427dc3	-0.18993287
204	0xbdc76f74	-0.09738055
205	0x3f260eb0	0.6486616
206	0xbf444d3b	-0.76680344
207	0xbec60763	-0.3867751
208	0x3f332153	0.69972724
209	0xbf02087b	-0.5079419
210	0xbef3370c	-0.47502935
211	0x3d9bba1f	0.07603859
212	0x3f2c0db2	0.672084
213	0xbe4023da	-0.18763676
214	0xbf217f2e	-0.63084686
215	0x3f284653	0.65732306
216	0xbf37697d	-0.7164534
217	0x3ef52dd2	0.4788652
218	0xbf30252e	-0.6880673
219	0xbf1319c8	-0.57461214
220	0x3f0359bc	0.513088
221	0x3f146ae9	0.5797563
222	0xbf2f6175	-0.6850808
223	0x3f242297	0.6411528
224	0x3f37c61e	0.7178668
225	0xbf24ed36	-0.64424455
226	0x3f3ff67f	0.749855
227	0xbed95456	-0.42447156
228	0x3f30ae03	0.6901552
229	0xbf377211	-0.71658427
230	0xbf15926a	-0.58426535
231	0x3f2b32f7	0.6687464
232	0xbf0b4b2e	-0.5441159
233	0x3f487df8	0.78317213
234	0xbf3309c3	-0.6993677
235	0xbf2296e3	-0.63511485
236	0xbf370b20	-0.7150135
237	0x3e964852	0.2935205
238	0x3eb4d590	0.35319185
239	0x3f13a814	0.5767834
240	0x3f244775	0.64171535
241	0x3f36ba15	0.7137769
242	0x3f0c3af6	0.5477747
243	0xbf03f0d5	-0.51539356
244	0xbe5b3b93	-0.21409445
245	0xbf09e573	-0.53865737
246	0xbf141b69	-0.57854325
247	0xbf400826	-0.75012434
248	0x3f278b0a	0.6544653
249	0xbf34d3f9	-0.70635945
250	0xbec4e454	-0.3845545
251	0xbf161c03	-0.5863649
252	0xbf130124	-0.57423615
253	0xbef7efea	-0.48425227
254	0xbf4649fa	-0.7745663
255	0xbefd8e11	-0.4952245

W_U f4 [48, 120]
0	0xbef93e3e	-0.486803
1	0x3e19be0a	0.150139
2	0xbf2e2d61	-0.6803799
3	0x3f688833	0.90832824
4	0x3e45a545	0.19301327
5	0xbe9f9899	-0.3117111
6	0xbe6f1e6d	-0.2335145
7	0x3f5ba273	0.8579475
8	0xbf19dfe0	-0.6010723
9	0x3dd0caae	0.10194908
10	0xbe0bf530	-0.1366775
11	0x3df7b738	0.12095493
12	0xbf15a45f	-0.58453935
13	0xbf73984e	-0.95154274
14	0xbe717acf	-0.23582004
15	0xbeadb67a	-0.3392828
16	0xbf46acda	-0.776075
17	0x3f7fff21	0.9999867
18	0xbcb7c9ae	-0.022435036
19	0xbdd72e83	-0.10506918
20	0xbf59c897	-0.850717
21	0x3f7f452d	0.9971493
22	0x3eb16397	0.34646294
23	0x3e8902fb	0.26760086
24	0x3f5c9eab	0.8617961
25	0x3eb517e1	0.3536978
26	0xbedea766	-0.4348709
27	0x3e83110c	0.25598943
28	0x3ee2b96a	0.44282085
29	0x3e347d8b	0.17626016
30	0xbee3e31c	-0.44509208
31	0x3f7fe5f3	0.9996025
32	0xbf035c4c	-0.5131271
33	0xbf144884	-0.5792315
34	0x3ef69255	0.48158517
35	0xbed1c337	-0.4096925
36	0xbd6792e9	-0.05653659
37	0x3f7fe84e	0.99963844
38	0x3e699ef9	0.2281455
39	0xbe2800ec	-0.16406602
40	0x3db7d1bd	0.08975551
41	0xbf4ac7c8	-0.7921109
42	0x3f54b7c2	0.8309289
43	0xbf7ff9d3	-0.99990577
44	0xbf3c73c7	-0.7361416
45	0xbef4e05d	-0.47827426
46	0xbd3fcc04	-0.046825424
47	0xbeaf207d	-0.34204474
48	0xbf122b9e	-0.57097805
49	0xbe0abda1	-0.135489
50	0xbe438ec3	-0.19097428
51	0xbf0f37e0	-0.55944633
52	0xbedae696	-0.42754048
53	0x3f402a1e	0.75064266
54	0xbe0dee87	-0.13860522
55	0xbeae6263	-0.34059438
56	0x3f1aa4f5	0.60407954
57	0xbf2aeb22	-0.66765034
58	0x3f108d1c	0.56465316
59	0x3e1f6185	0.15564544
60	0x3f408c6d	0.7521427
61	0xbf479140	-0.7795601
62	0xbea6b405	-0.3255922
63	0xbe88ec49	-0.2674277
64	0xbf26b91a	-0.6512619
65	0x3e894230	0.2680831
66	0xbe9b6495	-0.30350175
67	0xbe58cf00	-0.21172714
68	0xbefc505d	-0.49280062
69	0x3d3242db	0.04352079
70	0x3f7e9e2d	0.9946011
71	0xbf25f69b	-0.64829415
72	0x3eb98597	0.36234733
73	0x3f176a84	0.59146905
74	0xbf1519f9	-0.58242756
75	0x3e8c3b0f	0.27388808
76	0xbe68731a	-0.22700158
77	0xbf7ffe51	-0.9999743
78	0x3f6a97e8	0.9163804
79	0x3e6bc212	0.2302325
80	0x3f1d089b	0.61341256
81	0xbf6b8c8d	-0.9201134
82	0x3f01f5a2	0.5076543
83	0xbf0b503f	-0.5441932
84	0xbf55ace9	-0.83466965
85	0xbf48a57d	-0.78377515
86	0x3d94b569	0.07261164
87	0x3e211a68	0.1573273
88	0x3f27063e	0.652439
89	0x3ec97439	0.39346483
90	0x3f6e9811	0.93200785
91	0xbf0431a0	-0.5163822
92	0xbf08ec26	-0.53485334
93	0x3f17c4d0	0.5928469
94	0xbefed629	-0.49772766
95	0x3f752af1	0.9576865
96	0x3f3f70c0	0.7478142
97	0xbf055b31	-0.5209227
98	0x3e5c657f	0.21523093
99	0xbe364984	-0.17801481
100	0xbf7fe513	-0.99958915
101	0x3f1b1071	0.6057196
102	0xbf42bd54	-0.7607014
103	0xbe06d3b8	-0.13166702
104	0x3f2375f6	0.6385187
105	0x3f72c286	0.9482807
106	0x3d98d8ba	0.07463212
107	0xbdc3c28e	-0.09558593
108	0xbf15943d	-0.5842932
109	0xbe95ee07	-0.29283163
110	0xbf57be55	-0.842748
111	0x3f09677c	0.5367353
112	0x3d73d49e	0.05952894
113	0xbf7f7322	-0.99785054
114	0x3eafe509	0.34354427
115	0xbf0544da	-0.52058184
116	0xbf7ff633	-0.99985045
117	0x3f46ba08	0.7762761
118	0xbe1f20a0	-0.15539789
119	0x3f0a82e9	0.54106003
120	0xbe80be43	-0.25145158
121	0xbf0a99e2	-0.54141057
122	0x3ea37f47	0.31933042
123	0x3dff1fa8	0.1245721
124	0x3ea8148c	0.32828176
125	0xbf7870ce	-0.97047126
126	0x3ee78012	0.45214897
127	0x3f6b9a46	0.9203228
128	0x3f11af51	0.56908137
129	0xbf690652	-0.9102527
130	0x3f708f3d	0.93968564
131	0xbf449d8f	-0.76802915
132	0xbf7fccf4	-0.9992211
133	0x3e9cd541	0.3063145
134	0x3f6e20d1	0.93018824
135	0xbecd1c51	-0.40060666
136	0xbefa94fb	-0.48941788
137	0xbef4b3b4	-0.47793353
138	0xbec8c7e5	-0.39215007
139	0x3f392cce	0.7233399
140	0x3f3addbb	0.72994584
141	0x3eac2ef0	0.3362956
142	0xbe127e7e	-0.14306065
143	0xbf05304b	-0.52026814
144	0x3f379baa	0.717219
145	0xbf7d2d33	-0.98897094
146	0x3e61ac0b	0.22038285
147	0x3ede9dd3	0.43479785
148	0x3ecdd13e	0.40198702
149	0xbf41673c	-0.7554815
150	0x3f0e58c1	0.5560418
151	0x3ec7511a	0.38929063
152	0xbf72cc8a	-0.9484335
153	0xbe89e130	-0.26929617
154	0x3e304f0a	0.17217651
155	0xbf605f35	-0.87645274
156	0xbe9ea449	-0.30984715
157	0xbede8ada	-0.4346531
158	0xbe43c68f	-0.19118713
159	0x3f3243d4	0.6963475
160	0xbf1e58a9	-0.61854035
161	0xbecd6c0f	-0.40121505
162	0xbd38de64	-0.045133963
163	0x3f3edc7c	0.7455518
164	0xbec83928	-0.39106107
165	0x3f4c6940	0.798481
166	0x3f1b5e4c	0.6069076
167	0x3e08a475	0.13343985
168	0xbd9f6f97	-0.07784956
169	0x3f7ee1cf	0.99563307
170	0x3e915439	0.2838457
171	0x3f56ce14	0.839082
172	0x3f1e1c0e	0.6176156
173	0xbdbb1720	-0.0913527
174	0x3db06c69	0.086144276
175	0x3e553c7d	0.20823856
176	0x3e197c31	0.14988782
177	0xbe820277	-0.25392506
178	0x3f42f8d8	0.76160955
179	0xbe0dfd0f	-0.13866065
180	0xbd96b6c4	-0.073590785
181	0xbefa5c69	-0.48898628
182	0x3e3da529	0.18520035
183	0x3f2b1ccb	0.6684081
184	0x3f30c296	0.69046915
185	0x3f7fe3b9	0.9995685
186	0x3f0f7f21	0.5605336
187	0xbf069174	-0.52565694
188	0xbeef2695	-0.46709123
189	0xbd2f38da	-0.042778827
190	0x3e4a239b	0.19740145
191	0x3e8bd1c4	0.27308476
192	0x3f7f9322	0.9983388
193	0xbeedc31e	-0.46437925
194	0x3ee2648b	0.44217333
195	0x3f629abb	0.8851735
196	0x3e87ec93	0.2654768
197	0xbe272677	-0.16323267
198	0x3e0f1939	0.13974465
199	0x3dbabf10	0.091184735
200	0xbe9b896a	-0.30378276
201	0xbe336de6	-0.17522392
202	0xbe347920	-0.1762433
203	0x3f2583ec	0.6465442
204	0xbf09a307	-0.53764385
205	0x3f6d4f76	0.9269937
206	0x3e34966a	0.17635503
207	0xbf7fdecc	-0.99949336
208	0x3eb532bb	0.35390267
209	0x3f3a78b8	0.7284045
210	0xbf7f4ac5	-0.99723464
211	0x3f18ef1e	0.59739864
212	0x3f7f8743	0.9981577
213	0xbeb75f77	-0.3581502
214	0xbf73135f	-0.9495143
215	0x3ed0b98d	0.40766564
216	0x3f7fdca9	0.99946076
217	0x3f4ed5b5	0.8079484
218	0x3ef01b8a	0.4689601
219	0xbf2a7797	-0.6658873
220	0x3f3dfd06	0.7421421
221	0x3f431bd1	0.7621432
222	0x3f0d7125	0.5525077
223	0xbec40403	-0.3828431
224	0x3e98e2f3	0.2986065
225	0xbf7ffeae	-0.99997985
226	0xbf4b7bb3	-0.79485625
227	0x3f0fa584	0.5611193
228	0xbd815815	-0.063156284
229	0x3dab8c92	0.08376421
230	0x3cbd8e47	0.023139132
231	0x3eb44b9b	0.35213932
232	0xbf7c9fd5	-0.98681384
233	0x3f1b795a	0.6073204
234	0x3e9e42fe	0.30910486
235	0xbf7ffcae	-0.99994934
236	0xbf3c2cee	-0.7350606
237	0x3ee376cf	0.4442658
238	0xbf141a7c	-0.5785291
239	0xbdf9f713	-0.12205329
240	0x3ead453c	0.33841884
241	0x3ec19b16	0.37813634
242	0x3ebc0ba9	0.36727646
243	0x3d3e76df	0.046500083
244	0x3f7fd39b	0.9993226
245	0xbf481917	-0.78163284
246	0x3ea362c7	0.319113
247	0x3e864841	0.26227
248	0xbcf4ab8a	-0.029866952
249	0xbec30a2b	-0.38093695
250	0x3eda6da4	0.42661774
251	0x3e121a9b	0.14267962
252	0xbf411bb5	-0.754329
253	0x3c77c610	0.015122905
254	0x3ea7c776	0.32769364
255	0x3e6654f6	0.22493348
